models/dqn_model_400.pth (torch, 480388 bytes, 6 tensors)

fc1.weight f4 [128, 400]
0	0xbc8c442a	-0.017122347
1	0x3d6392d2	0.05555994
2	0xbd11d230	-0.03560084
3	0xbcb01bf3	-0.021497702
4	0xbcdf4160	-0.027252853
5	0xbd46c467	-0.048527148
6	0x3cb1f708	0.021724239
7	0xbd1626b9	-0.036658023
8	0xbc44c03c	-0.012008723
9	0x3d08ed32	0.033429332
10	0xbc1c6dd4	-0.009547669
11	0x3b615736	0.0034384257
12	0x3cae8f0e	0.021308448
13	0xbb2cbf89	-0.002635928
14	0x3d4f7108	0.050644904
15	0x3cf90ac6	0.030400645
16	0x3cf9fdf3	0.0305166
17	0xbca960bd	-0.020676011
18	0xbc3c9e7b	-0.011512394
19	0x3d121779	0.035666917
20	0xbcba03e9	-0.022706943
21	0x3cfd55ce	0.030924704
22	0xbc3c7c93	-0.01150431
23	0x3c6bbd7f	0.014388441
24	0x3c8ed945	0.017437587
25	0x3c46dfd4	0.012138326
26	0x3c5c364c	0.01344068
27	0xbc522307	-0.012825734
28	0x3cd2b6f6	0.025722008
29	0x3cad5745	0.021159777
30	0xbd12693f	-0.0357449
31	0xbbd14d90	-0.00638742
32	0xbc6372d4	-0.013882358
33	0xbcf127c9	-0.029437916
34	0x3c9e4ef9	0.019324766
35	0x3c652f3c	0.013988312
36	0xbc220b8c	-0.009890448
37	0x3cbe45d2	0.023226652
38	0x3c9ce2b2	0.019151065
39	0xbc634c01	-0.013873101
40	0x3ccc1b3e	0.024915334
41	0xbd3d8f60	-0.04627931
42	0x3ad70bfd	0.0016406771
43	0x3d02885a	0.031868316
44	0xbd3ca222	-0.04605306
45	0xbd46f9dc	-0.04857813
46	0xbba9baf0	-0.0051797554
47	0xbc59b0a6	-0.013286745
48	0x3d424429	0.047428284
49	0xbd30b600	-0.04314232
50	0x3c2d9db7	0.010596684
51	0x3bc6ac1d	0.006062998
52	0xbd315c42	-0.043300875
53	0xbcca587a	-0.024700392
54	0xbcd5feae	-0.026122417
55	0x3cf69e68	0.03010483
56	0x3cc4d0ba	0.02402531
57	0x3d3ed2c9	0.04658774
58	0xbcf0e597	-0.029406352
59	0x3b08787d	0.002082377
60	0x3c6d4965	0.014482831
61	0x3cb7ef4b	0.022452971
62	0x3c337de1	0.010955305
63	0xbc5f90a6	-0.013645327
64	0xbb8336e8	-0.004004348
65	0xbd0eaa28	-0.034830242
66	0xbb60a7e4	-0.0034279758
67	0xbcfd0a99	-0.030888842
68	0xbbcf3068	-0.006322909
69	0x3c96202e	0.018325891
70	0xbd2c93f6	-0.042133294
71	0xbcb3eaf7	-0.021962626
72	0xbba1e528	-0.0049406476
73	0x3d39bb86	0.045344852
74	0xbcfd0517	-0.030886216
75	0x3c5f4b6d	0.013628823
76	0xbd0b1c0a	-0.033962287
77	0xbceca70c	-0.028888248
78	0xbcfb292c	-0.03065928
79	0xbca1e50d	-0.01976254
80	0xbc55bfd8	-0.013046227
81	0x3cc27e00	0.023741722
82	0x3b9ac3d0	0.0047230497
83	0x3c8761e2	0.016526166
84	0x3c9bb2d1	0.019006165
85	0x3cf94e1a	0.03043275
86	0x3cf0aed2	0.029380236
87	0x3c001e08	0.00781966
88	0xbcd76093	-0.026291167
89	0xbbac90ba	-0.005266276
90	0x3ca506a2	0.020144764
91	0xbd16d508	-0.036824256
92	0x3c193fb7	0.00935357
93	0x3cd923de	0.02650636
94	0xbbb1623c	-0.005413322
95	0x3d09e75d	0.03366791
96	0x3b340786	0.0027470305
97	0xbc34ee02	-0.011043074
98	0xbd1ae3d6	-0.037814938
99	0x3d1e039c	0.03857766
100	0xbcd2c772	-0.025729869
101	0x3d328899	0.0435873
102	0xbcd05733	-0.025432205
103	0xbd08bca4	-0.033383027
104	0xbd1caa58	-0.03824839
105	0xbcfc4ca3	-0.030798262
106	0x3d0b8de2	0.034070857
107	0x3c92e04e	0.017929222
108	0x3cf1c57e	0.029513117
109	0xbcd7ef41	-0.026359202
110	0xbc9ab406	-0.01888467
111	0x3d307f19	0.04308996
112	0x3c4f8684	0.012666348
113	0x3c4bd9da	0.012442077
114	0xbc329a73	-0.010901081
115	0xbc82d57c	-0.015970938
116	0xbd031298	-0.032000154
117	0xbd4700bf	-0.048584696
118	0xbd0c053c	-0.03418468
119	0xbd445fec	-0.04794304
120	0x3c170809	0.009218224
121	0x3ca0b38a	0.01961686
122	0xbd2c0d4d	-0.042004872
123	0xbccbcb16	-0.024877112
124	0x3c5716bc	0.013127979
125	0x3d02b5bc	0.031911597
126	0xbbf48f57	-0.0074633765
127	0xbcc87f93	-0.024474895
128	0x3d06830d	0.032839824
129	0xbd034459	-0.032047603
130	0x3b5b1b7c	0.003343313
131	0x3c649763	0.013952109
132	0x3d394c47	0.04523876
133	0x3cfc3411	0.030786546
134	0x3c10db5f	0.008841365
135	0xbc630b93	-0.01385774
136	0x3cce381f	0.025173245
137	0x3cb3797a	0.02190851
138	0xbc5519cf	-0.0130066415
139	0x3d3317bd	0.04372381
140	0xbbeb56b0	-0.007181965
141	0x3c9039cb	0.017605683
142	0xbc349362	-0.011021467
143	0xbd2772f8	-0.040881127
144	0x3ba34cfc	0.0049835425
145	0xbd27e36e	-0.04098838
146	0xbb89f75f	-0.004210397
147	0x3d242808	0.04007724
148	0x3d361a48	0.044458658
149	0xbc3a41d4	-0.011368234
150	0xbc3fc8a0	-0.011705548
151	0x3bb82470	0.005619578
152	0x3d33ae19	0.043867204
153	0x3b9564f3	0.004559153
154	0x3d21c871	0.039497796
155	0x3d2524c7	0.040318277
156	0x3d4b8135	0.04968377
157	0xbd1932e6	-0.037402056
158	0x3b378b06	0.0028006448
159	0x3ce1a097	0.027542396
160	0x3cf5722e	0.029961672
161	0xbd38ca47	-0.04511478
162	0xbd523746	-0.051322244
163	0xbc761b48	-0.015021153
164	0xbb723ef9	-0.0036963804
165	0xbc9a23d0	-0.018815905
166	0xbc739ab7	-0.01486843
167	0x3c9c1dad	0.01905712
168	0xbc5991c8	-0.013279386
169	0xbd36f527	-0.04466739
170	0x3c350f4b	0.011051009
171	0x3b0b3685	0.0021242213
172	0x3d2e1bdd	0.04250704
173	0xbd21e4ff	-0.03952503
174	0x3c89e0bf	0.0168308
175	0x3cc8eee9	0.024527984
176	0x3cdfd330	0.027322382
177	0xbbbfd0df	-0.005853757
178	0x3c43277f	0.011911272
179	0x3bc16a3a	0.005902556
180	0x3d0eb0a9	0.034836445
181	0x3cd741f7	0.026276572
182	0x3d2b5b59	0.041835163
183	0x3d365f49	0.044524465
184	0x3d3425b8	0.043981284
185	0xbd0fc8bd	-0.03510355
186	0xbc82c3f7	-0.015962584
187	0xbd22ff9e	-0.039794557
188	0x3d372313	0.044711184
189	0xbd215522	-0.03938783
190	0xbccb25a0	-0.024798214
191	0x3b8f4928	0.0043727346
192	0xb9f2774d	-0.00046246723
193	0xbc823cc4	-0.015898116
194	0xbd22648d	-0.039646674
195	0x3d11814d	0.0355237
196	0xbd5731b1	-0.052537624
197	0xbca251d6	-0.019814413
198	0x3bfeeb3a	0.007779506
199	0x3c04f604	0.008115295
200	0xba9f55c0	-0.0012156293
201	0x3bb98818	0.0056619756
202	0x3cfaade5	0.030600497
203	0x3d013f1f	0.031554338
204	0xbd3f81f4	-0.046754792
205	0xbd25bd06	-0.04046347
206	0x3d00d279	0.031450722
207	0x3ca05e9b	0.019576361
208	0xbd3c46da	-0.045966007
209	0xbc8df977	-0.017330868
210	0x3c1e129e	0.009647993
211	0x3b243fe0	0.0025062487
212	0xbd17a876	-0.03702589
213	0x3c0a99e0	0.008459538
214	0x3d33c3d4	0.043887928
215	0xbd4c6992	-0.049905367
216	0xbd04e208	-0.032442123
217	0xbc72a6c0	-0.014810264
218	0x3cf97ea8	0.030455902
219	0xbd1b0e7d	-0.037855614
220	0xbce1598c	-0.02750852
221	0x3c78b9eb	0.015181045
222	0xbd2356ba	-0.03987763
223	0xbd3ffefb	-0.046874028
224	0x3d1bdff6	0.038055383
225	0xbcd05fca	-0.0254363
226	0x3c1e563d	0.0096641155
227	0x3cdb5c31	0.026777359
228	0xbd08a825	-0.03336348
229	0x3d4593e2	0.048236735
230	0x3cf3795f	0.02972096
231	0xbcb42e6b	-0.02199479
232	0xba4f4ea7	-0.00079081435
233	0x3cf5e160	0.030014694
234	0x3adf9e28	0.0017060684
235	0xbc1bfc34	-0.009520579
236	0xbcd81271	-0.026375981
237	0xbd1fe94d	-0.039040852
238	0xba5c4ec0	-0.00084040686
239	0xbcb5d9f7	-0.02219866
240	0x3d310713	0.043219637
241	0xbc271cb0	-0.010199711
242	0xbd2440de	-0.040100925
243	0x3c818490	0.015810281
244	0xbd37c01a	-0.044860937
245	0x3c9d9881	0.019237759
246	0xbb070fc8	-0.0020608772
247	0x3d11c61c	0.035589322
248	0xbc28f1ec	-0.010311585
249	0xbb059d56	-0.002038797
250	0xbd0cece7	-0.034405615
251	0xbb9dbd80	-0.00481385
252	0x3cf767fc	0.03020095
253	0x3c910e26	0.017706942
254	0x3d016124	0.03158678
255	0xbc5d92ad	-0.01352374

fc1.bias f4 [128]
0	0xbd1f2511	-0.03885371
1	0x3d15a1e6	0.03653135
2	0x3c532de9	0.012889364
3	0x3c9f60f6	0.019455414
4	0x3dc23dfe	0.0948448
5	0x3bf6b294	0.0075286124
6	0xbcae2903	-0.02125979
7	0xbd1d984b	-0.038475316
8	0x3c6d4ae5	0.014483188
9	0xbd54d813	-0.051963877
10	0x3b3c3229	0.0028716421
11	0x3ce2c81b	0.027683308
12	0x3c17e90c	0.009271871
13	0xbd2807e0	-0.041023135
14	0x3b97788a	0.0046225237
15	0x3d80352d	0.062601425
16	0xbc03d976	-0.008047452
17	0x3d5346ed	0.051581312
18	0xbb26d88d	-0.0025458664
19	0xbbd724b5	-0.006565655
20	0x3c948d89	0.018133895
21	0x3d942f5b	0.07235595
22	0xbc480139	-0.012207323
23	0x3a823a17	0.0009935525
24	0x3ce55940	0.02799666
25	0xbd3c0173	-0.04589982
26	0x3c5240fe	0.012832878
27	0xbcdf2dc5	-0.027243504
28	0xbd2ccadc	-0.04218565
29	0xbcd529d1	-0.026020916
30	0x3dcf2cdb	0.101159774
31	0x37d4598d	2.531407e-05
32	0xbcabe100	-0.020981312
33	0x3d828427	0.06372862
34	0xbb96861c	-0.004593624
35	0x3cbc952c	0.02302035
36	0x3d333709	0.043753657
37	0x3d8b67ef	0.06806933
38	0x3d295895	0.041344244
39	0x3bb82b08	0.005620364
40	0x3c4bf4bc	0.012448486
41	0x3d7ab886	0.06121113
42	0xbd2fd783	-0.042930137
43	0xbca93e95	-0.020659724
44	0xbcb46bbe	-0.022024032
45	0x3d0ee758	0.034888595
46	0x3b736b1e	0.0037142704
47	0x3d1d8661	0.03845823
48	0x3ddfde19	0.10931034
49	0x3d40d85e	0.047081344
50	0xbbb3f04c	-0.005491292
51	0x3d3f19b5	0.046655376
52	0x3c637c8b	0.013884674
53	0x3dbafeb7	0.09130614
54	0x3c490170	0.012268409
55	0x3cb874e2	0.022516672
56	0xbc97e56f	-0.01854202
57	0x3d4e2012	0.050323553
58	0x3c8e3b32	0.01736221
59	0x3c89fc13	0.016843831
60	0xbc8f0b03	-0.017461305
61	0x3cc7fe39	0.024413215
62	0x3bcd771d	0.006270303
63	0x3d44f28d	0.048082877
64	0x3da9bf25	0.08288411
65	0x3ca528e1	0.020161094
66	0xbd0439d1	-0.0322817
67	0xbd22d16f	-0.039750513
68	0xbd60b3d0	-0.054858983
69	0xbd2ca4c1	-0.04214931
70	0x3d676f8a	0.056502856
71	0xbd5662d1	-0.052340332
72	0xba994fb3	-0.0011696726
73	0x3b6a3e6f	0.003574278
74	0x3c2ebc86	0.010665065
75	0x3c0f0c8e	0.008731021
76	0x3d4fdae2	0.050745852
77	0x3d22a24b	0.039705556
78	0x3d88a9b8	0.06672996
79	0x3d15503d	0.036453474
80	0x3cf5566c	0.029948436
81	0x3d1cbca2	0.03826583
82	0x3d014b6e	0.031566076
83	0xbb995c33	-0.0046801805
84	0x3d0d0c3f	0.034435507
85	0xbd370393	-0.044681143
86	0x3cac3f9d	0.021026427
87	0xbced97a0	-0.029002964
88	0x3b964f55	0.004587094
89	0xbae65891	-0.0017574002
90	0x3caf5859	0.021404432
91	0xbc828070	-0.015930384
92	0x3d7dcb8f	0.061961707
93	0x3c913169	0.017723756
94	0xbcfb9dcd	-0.030714894
95	0x3d8ede21	0.069759615
96	0x3d1231aa	0.035691895
97	0xbbbe0516	-0.005798946
98	0x3d4e0f98	0.05030784
99	0x3ca9b201	0.020714762
100	0xbcb2a1b7	-0.021805627
101	0xbc989303	-0.018624788
102	0xbd56d757	-0.052451458
103	0xbc211fe9	-0.009834268
104	0x3c56ed24	0.013118062
105	0x3c05e4ad	0.008172196
106	0x3cd2e2e7	0.025742961
107	0xbd4e1486	-0.05031254
108	0x3d870328	0.06592399
109	0x3d2b043d	0.04175209
110	0x3dbba341	0.091619976
111	0x3d83f735	0.064436354
112	0xbcf114c2	-0.029428843
113	0xbd3be50b	-0.04587273
114	0x3c71cd6e	0.014758451
115	0x3dbb8bb6	0.09157507
116	0x3db4a749	0.088209696
117	0x3db07181	0.08615399
118	0x3dbab3f1	0.09116352
119	0x3b6a3093	0.003573452
120	0x3ca6676c	0.020312987
121	0x3aefa879	0.0018284462
122	0xbc5e00a9	-0.013549962
123	0xbd556aa9	-0.052103672
124	0x3d1431f8	0.036180466
125	0x3dedf97a	0.116198495
126	0xbc6a0138	-0.014282517
127	0x3d80aab9	0.06282563

fc2.weight f4 [128, 128]
0	0xbd85a868	-0.065262616
1	0xbcff3834	-0.03115473
2	0xbc9a38c6	-0.0188259
3	0x3ab268ed	0.0013611593
4	0x3d6deb32	0.058085628
5	0x3da29b59	0.079397865
6	0x3c9279a9	0.017880278
7	0xbc21eae7	-0.009882665
8	0x3da337e8	0.07969648
9	0x3ce65faf	0.028121797
10	0xbd8ce8ca	-0.068803385
11	0xbd5291c4	-0.051408544
12	0x3d8ec8c0	0.06971884
13	0xbd0caf3f	-0.034346815
14	0x3d25da89	0.040491614
15	0x3cfb0aec	0.030644856
16	0x3d14320b	0.036180537
17	0xbd519450	-0.051166832
18	0x3db2cd04	0.0873051
19	0xbcba32ef	-0.022729365
20	0x3c7ed938	0.015554719
21	0x3c614b60	0.013750881
22	0xbd1a7e01	-0.037717823
23	0xbd187848	-0.037224084
24	0x3d4e146f	0.050312456
25	0xbd4e9784	-0.050437465
26	0xbd4104f2	-0.047123857
27	0x3c484584	0.012223605
28	0x3cfa3a46	0.030545365
29	0xbd951e5b	-0.072811805
30	0xbd779e36	-0.060453616
31	0xbd88c983	-0.0667906
32	0xbd1e47b3	-0.038642596
33	0x3cda0a54	0.026616253
34	0xbd09e304	-0.033663765
35	0xbc61296e	-0.013742788
36	0x3c167531	0.009183214
37	0xbd819e71	-0.063290484
38	0x3732b958	1.06527805e-05
39	0xbd602c3a	-0.054729678
40	0xb8235113	-3.8937735e-05
41	0x3c511d16	0.012763282
42	0xbd052e21	-0.032514695
43	0x3c4380fc	0.011932608
44	0xbd238dfc	-0.03993033
45	0xbd15d786	-0.036582492
46	0xbd51840e	-0.051151328
47	0x3db680e0	0.089113
48	0xbd5da69f	-0.05411398
49	0xbd89173d	-0.066938855
50	0xbc9de0d6	-0.01927225
51	0x3dcba8cb	0.09944304
52	0xbd9e32dd	-0.07724545
53	0xbd25dd2f	-0.04049414
54	0x3ca5cac4	0.020238288
55	0x3dbc8e9a	0.092068866
56	0x3cae9003	0.021308905
57	0x3ca96c35	0.02068148
58	0x3d6f6114	0.05844219
59	0xbd0eb04f	-0.03483611
60	0x3d506259	0.05087504
61	0x3cfc8b4e	0.030828144
62	0x3d07e69d	0.033178914
63	0x3dbd5a45	0.09245733
64	0x3cc2806f	0.023742883
65	0x3d11167d	0.035421837
66	0xbccbd033	-0.02487955
67	0x3c92087a	0.017826308
68	0x3cf7e68d	0.030261302
69	0x3d80603f	0.062683575
70	0x3dbb8512	0.091562405
71	0xbd3ece11	-0.04658324
72	0x3dbcf835	0.09227029
73	0xbcb330b9	-0.021873819
74	0xbd4e1259	-0.050310466
75	0xbcdb3a34	-0.026761152
76	0x3d877e11	0.06615842
77	0x3da0627a	0.07831283
78	0x3d1d682f	0.038429435
79	0xbd5443b0	-0.051822364
80	0x3daac2fa	0.0833797
81	0xbd289354	-0.041156128
82	0x3da9352e	0.08262096
83	0x3d9d9b36	0.0769562
84	0x3d5980b4	0.053101256
85	0xbd633816	-0.05547341
86	0x3dac4e6e	0.08413397
87	0xbd4383e1	-0.04773319
88	0xbd75dc89	-0.06002477
89	0xbd592c78	-0.053020924
90	0xbd9c4005	-0.07629398
91	0x3d57972c	0.052634403
92	0x3ce9003b	0.028442493
93	0xbd292454	-0.04129441
94	0x3c9f3be7	0.019437743
95	0x3d937cc1	0.07201529
96	0x3dc7ef06	0.09762387
97	0x3d4f0d9d	0.050550092
98	0x3daa7842	0.083237186
99	0xbd274740	-0.040839434
100	0x3d64faf2	0.055903383
101	0xbdafd01e	-0.08584617
102	0x3d016001	0.031585697
103	0xbd3202c8	-0.043459684
104	0x3cf3d077	0.02976249
105	0xbda18874	-0.078873545
106	0xbd5e76b3	-0.05431242
107	0xbbc51a8e	-0.0060151285
108	0x3d01aa54	0.03165658
109	0x3da92ee6	0.08260898
110	0xbd06e8b7	-0.032936778
111	0x3d80c339	0.06287236
112	0xbd6248b5	-0.05524512
113	0xbd9f3068	-0.07772905
114	0x3d1ae932	0.03782005
115	0x3d631623	0.055441033
116	0x3d36128d	0.044451285
117	0x3d3fa286	0.046785854
118	0x3b086b06	0.0020815744
119	0xbbc722da	-0.0060771527
120	0x3dbd227d	0.09235094
121	0xbced2e73	-0.028952813
122	0xbcbf6aca	-0.02336635
123	0x3c8f689e	0.01750594
124	0x3b04c997	0.0020261758
125	0x3cbf3507	0.023340715
126	0x3d9003b9	0.0703196
127	0x3d5cb363	0.053882014
128	0xbda4e5e6	-0.08051662
129	0x3da961f1	0.08270634
130	0xbd872435	-0.06598703
131	0xbd26396e	-0.040582113
132	0xbc29e14c	-0.010368656
133	0xbd4cea04	-0.050027862
134	0xbd807af6	-0.06273453
135	0x3d2bffa0	0.04199183
136	0xbbf2e73a	-0.0074128183
137	0xbc5c7f1e	-0.0134580415
138	0x3969ed7d	0.00022309083
139	0xbc91c107	-0.017792238
140	0xbda06649	-0.07832009
141	0xbb0e9793	-0.0021757826
142	0xbd820642	-0.0634885
143	0xbbba236f	-0.0056804935
144	0xbd185ba0	-0.037196755
145	0x3c88a7ac	0.016681515
146	0xbbfe9642	-0.007769377
147	0x3d9c57e9	0.07633955
148	0x3d4e38bc	0.050347075
149	0xbcb1bf28	-0.021697596
150	0x3d82e457	0.063912086
151	0x3b86291b	0.0040942556
152	0x3cf6d41d	0.03013044
153	0x3bc96ecd	0.0061472417
154	0x3d66a9c1	0.056314234
155	0x3cc1a30b	0.023637315
156	0xbc2ae6e8	-0.010431029
157	0xbd657637	-0.05602094
158	0x3cfd2e4b	0.030905863
159	0xbd70d3d4	-0.058795765
160	0xbd3aedf4	-0.045637086
161	0x3db18840	0.08668566
162	0x3ce130ae	0.027489033
163	0x3db6d3c1	0.089271076
164	0xbd9547cb	-0.07289084
165	0xbdb712bb	-0.089391194
166	0x3d99bc62	0.07506634
167	0x3d2440dd	0.04010092
168	0xbc014834	-0.00789075
169	0x3dbb882f	0.09156834
170	0x3d5d228f	0.053988036
171	0x3bdf3d62	0.0068127373
172	0xbc55a325	-0.013039385
173	0x3c9dd987	0.019268764
174	0xbc1934b0	-0.009350941
175	0xbdb8ee63	-0.09029844
176	0xbd835066	-0.06411819
177	0xbc83871e	-0.01605564
178	0x3d561722	0.052268155
179	0x3d43e03b	0.047821265
180	0xbb9ed777	-0.0048474628
181	0xbacb3762	-0.0015504176
182	0x3c18810a	0.009308109
183	0xbd15404f	-0.036438283
184	0x3d227855	0.03966554
185	0x3dbe8fc5	0.093047656
186	0x3c2dc23c	0.010605391
187	0xbd0eefbf	-0.03489661
188	0xbd1b0012	-0.037841864
189	0xba8fa897	-0.0010960278
190	0x3d9f3b23	0.07774951
191	0xbd8a7f0b	-0.06762513
192	0x3c672e8d	0.01411022
193	0x3b57d1ed	0.0032931522
194	0x3dac1702	0.08402826
195	0x3cef3cfd	0.029203886
196	0xbdb0eb68	-0.0863865
197	0x3bfebff5	0.007774348
198	0xbcf887a0	-0.030338109
199	0xbca588b4	-0.020206787
200	0x3d97b4ce	0.07407533
201	0x3d3f6122	0.046723492
202	0x3d93b3c7	0.07212024
203	0xbb9bad42	-0.0047508786
204	0x3d4ae823	0.04953779
205	0xbba55116	-0.0050450666
206	0x3d85cf39	0.06533665
207	0xbd6ba783	-0.0575328
208	0xbcef6410	-0.029222518
209	0x3c03e0ae	0.008049173
210	0x3d980ed0	0.074247
211	0x3c97c6de	0.018527444
212	0xbd2bbe5e	-0.041929595
213	0xbc2054a3	-0.009785804
214	0x3d75d38b	0.060016196
215	0x3d25df81	0.040496353
216	0x3db28cca	0.0871826
217	0x3ca8aa02	0.020588879
218	0x3d876c91	0.06612504
219	0x3d812c3a	0.06307264
220	0xbd98e8e0	-0.074662924
221	0x3d8716f0	0.06596172
222	0xbd9cf75e	-0.07664369
223	0xbd431da9	-0.047635708
224	0xbb79375d	-0.0038027384
225	0xbd8774bb	-0.066140614
226	0x3d19ea1f	0.03757679
227	0xbd91f264	-0.071263105
228	0xbcafe333	-0.021470642
229	0x3cd652cd	0.02616253
230	0xbd18f039	-0.03733847
231	0xbcef8191	-0.029236587
232	0x3db57c80	0.08861637
233	0x3c75be44	0.014998976
234	0x3d323499	0.043507192
235	0x3d2d8d67	0.04237118
236	0x3c86e3df	0.01646608
237	0x3cbbf55c	0.022944145
238	0x3d360c30	0.044445217
239	0xbc13e7f1	-0.009027467
240	0xbd8cfdab	-0.06884321
241	0xbce70b14	-0.028203525
242	0x3cee7e44	0.029112943
243	0x3d734c83	0.05939914
244	0x3d8289fb	0.06373974
245	0x3daf9921	0.08574129
246	0xbc133be1	-0.008986444
247	0xbce7e853	-0.028309023
248	0xbd1171ca	-0.03550891
249	0x3d6dd200	0.0580616
250	0x3cf95dd9	0.030440258
251	0xbda00167	-0.078127675
252	0x3bd30f71	0.0064410497
253	0x3d276cf1	0.04087538
254	0xbc3665f9	-0.011132711
255	0xbd3f236f	-0.04666465

fc2.bias f4 [128]
0	0x3d26c2ab	0.040712994
1	0xbd49411b	-0.049134355
2	0x3dcab48b	0.09897717
3	0x3c026ecf	0.007960989
4	0xbd544e6d	-0.051832605
5	0xbc992f97	-0.01869945
6	0xbd024a8a	-0.031809367
7	0xbcf14782	-0.029453043
8	0x3d7fba71	0.062433664
9	0xbd106d62	-0.035260566
10	0xbb3e955b	-0.0029080722
11	0x3c8467fc	0.016162865
12	0x3ccec829	0.025241928
13	0xbd5356b4	-0.05159636
14	0x3d18dc97	0.037319746
15	0x3c2d5d29	0.010581293
16	0x3cc946c4	0.024569876
17	0x3ddaa1f9	0.10675425
18	0x3da16770	0.07881057
19	0xbc067fbc	-0.008209165
20	0xbd026d08	-0.03184226
21	0xbd40456d	-0.04694121
22	0x3d039b2d	0.03213041
23	0x3cf931ff	0.030419348
24	0x3c832bc1	0.016012074
25	0xbd7992c6	-0.06093099
26	0x3bf8aa8e	0.007588691
27	0xbc6b35ee	-0.01435612
28	0x3d545dcd	0.051847268
29	0xbd10e4c1	-0.035374407
30	0xbd3a9f1c	-0.045561895
31	0x3c81852e	0.015810575
32	0x3d9da4c8	0.07697445
33	0xbca8450b	-0.020540735
34	0xbd917c97	-0.07103842
35	0xbd874024	-0.06604031
36	0x3d94e87f	0.072709076
37	0x3d8886f0	0.06666362
38	0xbd77b42f	-0.06047457
39	0xbbd20895	-0.0064097145
40	0xbcfaac3c	-0.030599706
41	0x3d6865cc	0.056737706
42	0xbd33a95f	-0.043862697
43	0x3daa54e6	0.08316974
44	0x3d97e124	0.07415989
45	0xbd7f6e9e	-0.062361352
46	0xbcd7037f	-0.026246784
47	0xbcebe4ea	-0.028795678
48	0xbc8dc42f	-0.017305462
49	0xbd3bb3a7	-0.045825627
50	0xbd971791	-0.07377542
51	0x3d0e343d	0.034717787
52	0x3daa1c01	0.083061226
53	0xbd217504	-0.039418235
54	0x3db11b1a	0.08647747
55	0x3d84fe1e	0.064937815
56	0xbd63169b	-0.05544148
57	0x3d00c0c0	0.03143382
58	0x3cde6d10	0.027151614
59	0x3c8259f9	0.015912043
60	0x3dcca401	0.09992219
61	0xbb43e7ce	-0.0029892805
62	0xbd9c3e35	-0.076290525
63	0xbdb3fa81	-0.08788014
64	0xbdab17a2	-0.08354117
65	0xbc4cd75c	-0.012502518
66	0xbd350a60	-0.044199347
67	0x3d383775	0.044974763
68	0x3da61c0b	0.081108175
69	0x3d588bfa	0.052867867
70	0x3cebc0d4	0.028778471
71	0xbd9e98e4	-0.07744005
72	0xbbcaf5a9	-0.0061938358
73	0x3c24ad16	0.0100510325
74	0x3b9fb956	0.0048743887
75	0xbd1b3873	-0.03789563
76	0x3c886a34	0.016652204
77	0xbd084a4a	-0.033273973
78	0xbdabdad9	-0.08391351
79	0x3be13800	0.006873131
80	0xbda89880	-0.08232212
81	0xbc7a5d6b	-0.015281062
82	0xbd6df45e	-0.058094375
83	0x3d7465d0	0.05966741
84	0xbd628359	-0.055301044
85	0x3bbe1b32	0.005801582
86	0x3dba2a52	0.09090103
87	0x3d746b26	0.059672497
88	0xbd8cb7e4	-0.06871012
89	0x3dacc9a4	0.084368974
90	0x3d6ea001	0.05825806
91	0xbc994272	-0.018708441
92	0x3d9a664e	0.07539044
93	0x3d8f4341	0.069952495
94	0x3baab73e	0.0052098325
95	0x3a8e24dd	0.0010844726
96	0x3d8277d9	0.063705154
97	0xbba69ad6	-0.005084376
98	0x3c7711ad	0.015079898
99	0xbdb6b612	-0.08921446
100	0x3d8b1cd0	0.06792605
101	0xbd005158	-0.031327575
102	0xbb81c081	-0.003959716
103	0xbda48920	-0.08033967
104	0x3d59e376	0.05319544
105	0x3c82b18c	0.015953802
106	0xbc932f44	-0.017966874
107	0x3ba2dcd9	0.0049701747
108	0x3d479570	0.0487265
109	0xbdac590a	-0.0841542
110	0xbd54bcef	-0.051937994
111	0xbd48d763	-0.049033534
112	0x3bba8c49	0.005692993
113	0xbda69377	-0.081335954
114	0xbce6e31c	-0.028184466
115	0x3bd4022a	0.0064699845
116	0x3cda5a91	0.026654514
117	0xbcdfaace	-0.027303126
118	0xb9a01f3d	-0.00030540852
119	0xbcbd8a8d	-0.023137355
120	0xbd8119fb	-0.063037835
121	0x3d8267a8	0.06367427
122	0xbbde3644	-0.0067813713
123	0xbc825451	-0.015909346
124	0xbd044d69	-0.032300387
125	0xbd9cdd7f	-0.076594345
126	0xbd97805c	-0.073975295
127	0xbce2051a	-0.027590323

fc3.weight f4 [400, 128]
0	0xbd3db717	-0.046317186
1	0xbd8e0930	-0.06935346
2	0xbd8728fd	-0.06599615
3	0x3d51f664	0.051260367
4	0xbca60a34	-0.020268537
5	0xbd5e8625	-0.05432715
6	0xbdb08a82	-0.08620168
7	0x3dacc8cd	0.08436737
8	0x3d0abe7d	0.03387307
9	0x3d1ff72e	0.03905409
10	0x3d87af94	0.06625286
11	0xbdb65f6d	-0.0890492
12	0xbda00b13	-0.07814612
13	0xbd18ee70	-0.037336767
14	0xbd502a29	-0.050821457
15	0x3d406773	0.046973657
16	0x3d8128b7	0.06306594
17	0xbd8d2483	-0.0689173
18	0xbd17abe7	-0.037029173
19	0xbd6689ed	-0.05628388
20	0xbd41de22	-0.047330983
21	0xbc9942c0	-0.018708587
22	0x3d0867ad	0.033301998
23	0xbc7a0ae7	-0.015261388
24	0xbc2819a6	-0.010260021
25	0xbc28d9d8	-0.010305844
26	0xbda2ea8e	-0.07954894
27	0xbd62d514	-0.05537899
28	0x3d2d0dc2	0.04224945
29	0x3cf4b1e8	0.029869989
30	0xbd35ee57	-0.04441675
31	0x3d21e67e	0.039526455
32	0xbd67fef6	-0.056639634
33	0x3d98f5c1	0.07468749
34	0x3c1d37b0	0.0095957965
35	0x3b8223f0	0.0039715692
36	0xb89bd08e	-7.429822e-05
37	0x3d8cd828	0.06877166
38	0xbd880705	-0.06641964
39	0x3a82ef40	0.0009989515
40	0xbd8e0eb4	-0.06936398
41	0xbd88a34f	-0.06671774
42	0xbdb2466d	-0.08704839
43	0x3d8b2bda	0.067954734
44	0x39768511	0.0002350996
45	0xbcfde5fc	-0.030993454
46	0x3d09e8ec	0.033669397
47	0xbd955c50	-0.07292998
48	0x3d40594d	0.046960164
49	0xbd0d8fe5	-0.034561057
50	0xbd3439c1	-0.04400039
51	0xbd1a48e5	-0.037667174
52	0x3d61aa1a	0.055093862
53	0x3ccb4220	0.024811804
54	0xbd82fd42	-0.06395961
55	0x3b971380	0.004610479
56	0x39a44f00	0.00031339377
57	0xbd3988ed	-0.0452966
58	0x3cff8a6e	0.031193938
59	0xbd8d3791	-0.06895364
60	0xbd06e140	-0.03292966
61	0xbd49582f	-0.049156364
62	0xbd3332c2	-0.04374958
63	0xbc9d1978	-0.019177184
64	0x3d893b41	0.06700755
65	0xbdafc55c	-0.08582565
66	0xbd755e40	-0.059904337
67	0xbd7720d8	-0.060334057
68	0x3d3f2520	0.046666265
69	0xbc426923	-0.011865887
70	0x3d648018	0.055786222
71	0x3c8834d0	0.016626745
72	0x3d8e971e	0.06962417
73	0x3b985105	0.00464833
74	0xbbcf68c0	-0.006329626
75	0x3cd62c5d	0.026144201
76	0xbc1aa5ff	-0.009438991
77	0xbda773a0	-0.081763506
78	0xbd70139f	-0.058612462
79	0x3d9b5ee3	0.075864576
80	0xbb21d840	-0.0024695545
81	0xbd50896c	-0.050912306
82	0xbd919a78	-0.07109541
83	0xbcd2cf33	-0.025733566
84	0x3bf69b30	0.007525824
85	0xbd5d0696	-0.05396136
86	0xbd762a51	-0.06009895
87	0xbda8260c	-0.08210382
88	0x3d0485f4	0.03235431
89	0xbd8d09a6	-0.06886606
90	0xbb6e944e	-0.0036404314
91	0xbccebd6c	-0.025236808
92	0xbb86087d	-0.0040903674
93	0xbcdf5b66	-0.027265262
94	0x3d8b392f	0.06798016
95	0xbd857384	-0.065161735
96	0x3ccd5fd8	0.025070116
97	0x3d7f672e	0.06235426
98	0xbd9baaf7	-0.07600968
99	0x3d9b8453	0.07593598
100	0xbdaabc7a	-0.0833673
101	0x3ce2e998	0.027699277
102	0xbd2fa228	-0.042879254
103	0x3c221eb6	0.009895017
104	0xbda87c11	-0.08226789
105	0xbd7aa4f3	-0.061192464
106	0xbd7fa877	-0.06241652
107	0xbceb813d	-0.028748149
108	0xbce363b7	-0.027757509
109	0xbc188b38	-0.009310536
110	0xbc5c7ff8	-0.0134582445
111	0x3da7fa6b	0.0820206
112	0xbd6081e9	-0.054811392
113	0xbd3d2988	-0.046182185
114	0x3c680978	0.014162414
115	0x3c2d1d88	0.010566123
116	0xbc428c18	-0.011874221
117	0x3d7e040e	0.062015586
118	0xbd9bde1b	-0.07610723
119	0x3c9eb0f8	0.019371495
120	0x3d91b0a1	0.071137674
121	0x3d4bf573	0.049794625
122	0xbc944360	-0.018098533
123	0xbcfe4c18	-0.031042144
124	0x3caccf40	0.021094918
125	0x3db4b065	0.08822707
126	0xbd390351	-0.04516918
127	0xbd9af126	-0.07565527
128	0xbdb089c8	-0.0862003
129	0xbd9dc22b	-0.0770305
130	0x3d97eecd	0.074185945
131	0x3bff59b0	0.007792674
132	0x3cc2b41b	0.023767522
133	0xbb1733e0	-0.0023071691
134	0xbd8c83cc	-0.06861076
135	0xbd3698eb	-0.044579428
136	0xbd704b6e	-0.058665685
137	0x3d2699a4	0.040673867
138	0x3c882b55	0.016622225
139	0x3d5d7951	0.054070774
140	0x3cd05c20	0.025434554
141	0xbd35cd75	-0.044385392
142	0x3d962af4	0.073324114
143	0xbcaedaf6	-0.021344643
144	0xbca637a6	-0.020290207
145	0x3cc3633a	0.023851026
146	0x3d7c33bd	0.06157278
147	0xbd6a5359	-0.057208393
148	0x3d7a6362	0.061129935
149	0x3c8863bb	0.016649118
150	0x3c16ba44	0.009199683
151	0x3d85e6dc	0.065381736
152	0x3d611981	0.054955963
153	0xbd22b176	-0.03972002
154	0xbb0da83a	-0.0021615163
155	0x3d0a9473	0.03383298
156	0x3d3d3cb9	0.046200488
157	0xbd677b89	-0.056514297
158	0xbd5cb57d	-0.05388402
159	0x3d81bdcb	0.06335028
160	0xbd05810d	-0.032593776
161	0xbdb4106e	-0.08792196
162	0xbdac4fc7	-0.08413654
163	0x3d0d0682	0.034430034
164	0x3d63ce5f	0.055616733
165	0x3c3992b3	0.01132648
166	0x3d608db6	0.054822646
167	0x3d8f5de0	0.07000327
168	0x3d4f944e	0.050678544
169	0xbca65f29	-0.020309048
170	0x3c60440d	0.0136881
171	0xbcabff60	-0.020995796
172	0x3c5b78c8	0.013395496
173	0x3db11445	0.08646444
174	0xbdabac2b	-0.08382448
175	0x3d94ba86	0.07262139
176	0x3c3cb407	0.011517531
177	0xbc502668	-0.012704469
178	0xbcccf598	-0.025019452
179	0xbd480174	-0.04882951
180	0xbd58e533	-0.052952956
181	0x3da33c03	0.07970431
182	0xbd2255bb	-0.03963254
183	0x3a151bf5	0.0005688065
184	0x3daa67ad	0.08320556
185	0xbdc39dec	-0.095516056
186	0xbdc852f2	-0.097814456
187	0xbd2afbaa	-0.04174391
188	0xbdaf8053	-0.08569398
189	0x3da29707	0.079389624
190	0x3d34e192	0.044160433
191	0x3d587e7e	0.052855007
192	0xbce71f2e	-0.02821311
193	0x3d36d65b	0.04463802
194	0x3d86a955	0.06575266
195	0x3d3320d1	0.043732468
196	0x3cd3acd0	0.02583924
197	0x3d76c3d3	0.060245346
198	0xbd6eb0dc	-0.058274135
199	0xbd844668	-0.064587414
200	0xbc44b209	-0.0120053375
201	0x3d4f7b04	0.050654426
202	0xbc3aa902	-0.011392834
203	0xbdbc4b9f	-0.09194111
204	0xbc8bb655	-0.017054716
205	0x3ced0580	0.028933287
206	0x3c9c1b34	0.01905594
207	0xbda08811	-0.078384526
208	0x3d46065e	0.048345916
209	0xbd59e6a7	-0.053198483
210	0x3c8c49f8	0.017125115
211	0xbdbba1a4	-0.0916169
212	0x3d7d886e	0.061897688
213	0x3d3da474	0.046299413
214	0xbbd0353a	-0.0063540014
215	0x3d5108a5	0.051033635
216	0x3c913f78	0.01773046
217	0xbd145885	-0.03621723
218	0xbd0cc207	-0.034364726
219	0xbd26bb91	-0.04070622
220	0xbd8300fa	-0.06396671
221	0xbcb40e76	-0.021979552
222	0xbc138360	-0.00900349
223	0x3d3c7a37	0.04601499
224	0x3d93e74d	0.072218515
225	0x3d64c326	0.05585017
226	0x3d9b8e6b	0.075955234
227	0x3dacd861	0.084397085
228	0xbda0d559	-0.07853193
229	0xbd8b4fee	-0.06802355
230	0xbd272a14	-0.040811613
231	0xbd2851a8	-0.0410935
232	0xbd89556e	-0.067057475
233	0xbd916957	-0.0710017
234	0xbc1cfddc	-0.009582009
235	0x3d8892f9	0.06668658
236	0xbdaaa98e	-0.08333121
237	0x3cb96940	0.022633195
238	0xbdb2890e	-0.08717547
239	0xbd043780	-0.03227949
240	0x3bfac0f8	0.007652398
241	0x3d644e2e	0.05573862
242	0xbc671870	-0.014104947
243	0xbd93b8db	-0.07212993
244	0xbd6cfa9b	-0.057856183
245	0xbd894509	-0.067026205
246	0xbd3da4af	-0.046299633
247	0xbb9dfdd0	-0.0048215166
248	0x3dac85f7	0.08423989
249	0x3d6ee904	0.05832769
250	0x3d941945	0.07231382
251	0xbd90d1f5	-0.07071296
252	0xbc52ba48	-0.012861796
253	0xbdac5783	-0.08415129
254	0xbcf1942e	-0.029489603
255	0xbd8893fd	-0.066688515

fc3.bias f4 [400]
0	0xbdabff66	-0.08398323
1	0xbd2f8d9c	-0.04285966
2	0xbce3e98e	-0.027821328
3	0x3d96167a	0.07328506
4	0xbd8869d7	-0.06660812
5	0xba3f0a68	-0.00072876224
6	0x3d3c7b76	0.04601618
7	0xbcceff2e	-0.025268164
8	0xbcebef6f	-0.028800694
9	0xbdc0538e	-0.09390937
10	0xbd1e1aae	-0.038599662
11	0xbd9d43ed	-0.076789714
12	0xbd8149da	-0.06312914
13	0x3be8ab6e	0.007100514
14	0x3d555cfa	0.052090622
15	0xbd575950	-0.05257541
16	0x3d86b862	0.06578137
17	0xbd3287e7	-0.043586638
18	0x3d82f035	0.06393472
19	0xbdac4129	-0.08410866
20	0xbbed1ec5	-0.007236334
21	0xbd26a823	-0.04068769
22	0x3c10b0c0	0.008831203
23	0x3d4527eb	0.048133772
24	0x3d00321d	0.03129779
25	0x3d801803	0.0625458
26	0xbcc1f446	-0.023676049
27	0x3d5ae703	0.053442966
28	0x3d3c7eb8	0.046019286
29	0xbb8885e0	-0.00416635
30	0xbb246b5e	-0.002508841
31	0x3cd348c8	0.02579154
32	0xbcac16e1	-0.021007003
33	0x3b576407	0.0032866017
34	0xbcf795f0	-0.030222863
35	0xbdabb563	-0.08384206
36	0x3c1a8878	0.009431951
37	0x3d864815	0.06556717
38	0xbc3b2d58	-0.011424385
39	0x3ce181d0	0.02752772
40	0x3c7bbe5c	0.015365209
41	0xbd8a896b	-0.06764492
42	0xbd0662b1	-0.032808963
43	0x3bd5c0b3	0.0065232157
44	0xbdc38734	-0.09547272
45	0x3c7b1dd7	0.015326939
46	0xbc8b4c47	-0.017004145
47	0x3ce66395	0.028123656
48	0xbd353c3a	-0.04424689
49	0xbd50ce47	-0.05097797
50	0x3cb59eb6	0.022170406
51	0x3c695d92	0.0142435
52	0xbb0ba630	-0.0021308772
53	0x3d5b6051	0.05355865
54	0x3c3e2de5	0.011607622
55	0x3c83457d	0.016024346
56	0xbcfe07fd	-0.031009668
57	0xbc816864	-0.015796848
58	0xbc757aaa	-0.014982859
59	0xbd0cce4e	-0.034376435
60	0x3d06f1a8	0.032945305
61	0x3c822e31	0.015891166
62	0xbc30c99f	-0.010790258
63	0x3d7a54e5	0.061116118
64	0xbd815f12	-0.06316961
65	0xbc8c6bff	-0.01714134
66	0xbcb8572b	-0.022502502
67	0x3d1d082d	0.038337875
68	0xbd83e123	-0.06439426
69	0xbd4e7956	-0.050408684
70	0x3ca31d04	0.019911297
71	0xbc9aee36	-0.018912416
72	0xbdbdade5	-0.092616834
73	0xbda81dba	-0.08208795
74	0xbd17a68f	-0.037024077
75	0x3c87fb48	0.016599312
76	0xbd45975c	-0.04824005
77	0xbd80ad42	-0.06283046
78	0x3bc0d67a	0.0058849426
79	0xbce81e7f	-0.028334854
80	0xbdb75045	-0.08950857
81	0xbd7b2b54	-0.061320618
82	0x3b4d9bc0	0.0031373352
83	0xbcfb8d98	-0.030707166
84	0x3c900ff5	0.017585734
85	0x3ccb4c41	0.024816634
86	0xbd3b4a15	-0.045724947
87	0xbd6d60a2	-0.057953484
88	0x3cee0078	0.029052958
89	0x3c0c97b0	0.008581087
90	0xbd3f4834	-0.046699718
91	0xbd478e81	-0.048719887
92	0xbd5190ed	-0.051163603
93	0x3c6e8583	0.014558199
94	0xba8208b7	-0.000992081
95	0x3d568f74	0.0523829
96	0xbd11a116	-0.035554014
97	0x3d1f34df	0.03886878
98	0xbd92fab8	-0.07176727
99	0x3d048af4	0.03235908
100	0xbc366dcd	-0.011134577
101	0xbd986620	-0.07441354
102	0x3d5b51ae	0.053544693
103	0xbd3e62b5	-0.046480853
104	0xbce4d5f6	-0.027934056
105	0xba7c05fc	-0.0009613929
106	0x3d5cd973	0.053918313
107	0xbd97d0b2	-0.07412852
108	0xbd8b6f84	-0.06808379
109	0xbd48fa5e	-0.049066894
110	0x3d6c3023	0.057663094
111	0xbd21e85f	-0.039528247
112	0xbd7ef524	-0.062245503
113	0x3d9387c0	0.07203627
114	0xbd051686	-0.032492183
115	0xbdaf5f29	-0.08563072
116	0x3ce7bdc6	0.028288733
117	0x3d3b4cc6	0.045727514
118	0xbcde0663	-0.027102655
119	0x3ca518ed	0.020153487
120	0x3c971c9b	0.018446257
121	0xbc2e9b19	-0.010657095
122	0x3ced94fb	0.029001703
123	0x3d7b11c0	0.061296225
124	0x3d649ae8	0.055811793
125	0x39f3fa2f	0.00046534973
126	0x3c2ade35	0.010428955
127	0x3d410531	0.04712409
128	0xbd9c4cea	-0.07631858
129	0x3d36c0c8	0.044617444
130	0xbb64bafc	-0.003490149
131	0x3d29f822	0.041496404
132	0xbd313c7b	-0.04327057
133	0xbd9ed00c	-0.077545255
134	0x3d3aee9c	0.045637712
135	0x3d612b33	0.05497284
136	0x3d24f04a	0.04026822
137	0x3c0c15e1	0.008550138
138	0xbbaf3c94	-0.0053477976
139	0x3a360501	0.00069434947
140	0x3cdeaa65	0.02718086
141	0x3cfec928	0.031101778
142	0x3cd0c5e7	0.025484992
143	0x3d74f345	0.059802312
144	0xbcd50297	-0.026002211
145	0x3d672387	0.056430366
146	0x3d740f3d	0.059584845
147	0x3d581894	0.052757815
148	0xbd5b9030	-0.053604305
149	0xbd835fdb	-0.06414767
150	0xbdb0af59	-0.08627195
151	0xbd87bfb4	-0.06628361
152	0xbd8abd90	-0.067744374
153	0xbd87d7e5	-0.066329755
154	0xbc945114	-0.018105067
155	0x3d11daba	0.035608985
156	0xbd232bfb	-0.039836865
157	0xbd143474	-0.036182836
158	0x3bf99514	0.0076166485
159	0x3d367dea	0.044553675
160	0x3d10d710	0.03536135
161	0x3c85b08b	0.016319534
162	0x3d57f934	0.052727893
163	0x3d3a5524	0.045491353
164	0x3d8f9e0e	0.070125684
165	0xbad8547d	-0.0016504672
166	0x3cee8f9b	0.02912121
167	0xbcfa35b1	-0.03054318
168	0x3c0f1c70	0.008734807
169	0xbd12f5df	-0.035879012
170	0xbd620a7f	-0.05518579
171	0x39ac406a	0.0003285439
172	0x3c187e6e	0.009307487
173	0x3d5b4cad	0.05353992
174	0x3c904c11	0.017614396
175	0x3d3050c7	0.043045785
176	0x3d7fadc1	0.062421564
177	0xbd242c1b	-0.040081125
178	0x3c2a77fe	0.010404585
179	0xbcc7d557	-0.02439372
180	0xbdb328cd	-0.087480165
181	0x3d9fac90	0.077965856
182	0xbd314b9e	-0.043285005
183	0x3d6515ad	0.055928875
184	0x3d2d5a56	0.04232248
185	0x3d5ea4de	0.05435645
186	0xbdbbdc39	-0.091728635
187	0x3d0fd1a4	0.03511204
188	0xbdb15e66	-0.08660583
189	0x3d49f092	0.04930169
190	0xbcdd82b3	-0.027039861
191	0xbd6da794	-0.058021143
192	0xbd942356	-0.07233302
193	0xbc851fe2	-0.016250554
194	0x3c746f67	0.0149191385
195	0x3d2bf0c8	0.041977674
196	0x3d2c7576	0.042104207
197	0x3bded3d2	0.0068001533
198	0x3cf43a87	0.029813064
199	0xbd1c2d38	-0.03812906
200	0xbcdf2126	-0.027237486
201	0x3c57d570	0.013173446
202	0xbcc9ae73	-0.024619317
203	0x3d261ebe	0.04055666
204	0x3d4a638c	0.04941134
205	0xbd1ffe50	-0.03906089
206	0xbd604730	-0.05475539
207	0x3d964aca	0.07338484
208	0xbd0ec44d	-0.034855176
209	0xbcf95bec	-0.03043934
210	0xbc7c85b0	-0.015412733
211	0xbc8b4079	-0.016998516
212	0x3ca390bf	0.019966481
213	0xbd72437c	-0.05914639
214	0x3d2473cd	0.0401495
215	0xbd97bbef	-0.07408892
216	0x3ce1fd9b	0.027586749
217	0x3b64b029	0.0034895039
218	0xbd42eafd	-0.047587384
219	0x3d1c5940	0.038171053
220	0xbb9977a9	-0.004683454
221	0xbd4807ee	-0.048835687
222	0x3c005833	0.007833528
223	0x3d283ad7	0.04107174
224	0x3c714b0a	0.014727363
225	0xbd8c75f8	-0.06858438
226	0x3bcebe59	0.0063093123
227	0x3cfa1912	0.030529533
228	0x3d8386a5	0.06422166
229	0xbd13e6e1	-0.036108855
230	0xbb5433cc	-0.0032379506
231	0x3c882a74	0.016621806
232	0xbc323dbb	-0.0108789755
233	0xbdaa04fa	-0.083017305
234	0xbc7e2cd3	-0.015513617
235	0x3c82a438	0.015947446
236	0x3d0ac6cd	0.033880997
237	0xbd0cc715	-0.034369547
238	0xbd4137c1	-0.04717231
239	0xbca07cf7	-0.019590838
240	0x3c8beaba	0.0170797
241	0x3d71d41d	0.059040178
242	0x3d6edd4b	0.05831651
243	0x3ce7c1ed	0.028290713
244	0x3c420aeb	0.011843423
245	0xbd7d337a	-0.06181667
246	0xbc958bbd	-0.018255109
247	0xbd33d8a5	-0.04390778
248	0x3c8e4fc0	0.017372012
249	0x3d8bc1e4	0.06824091
250	0xbb161cd1	-0.002290536
251	0xbd40bd23	-0.047055375
252	0xbc50211b	-0.012703205
253	0x3ca74fea	0.020423848
254	0x3d1c5550	0.038167298
255	0xbb585bb1	-0.0033013637
