models/dqn_model_900.pth (torch, 480388 bytes, 6 tensors)

fc1.weight f4 [128, 400]
000000 f5 2d 64 bc ee 70 63 3d bc c2 1c bd bd 3f b5 bc
       -0.013926973 0.05552762 -0.03827165 -0.02212512
000010 a5 af fa bc 67 c4 46 bd dd 4a 83 3c 99 68 df bc
       -0.030601332 -0.048527148 0.016026909 -0.027271556
000020 7c b9 52 bc e3 00 52 3d 33 7a 01 bc 02 c1 b5 3b
       -0.012861606 0.051270377 -0.00790267 0.00554669
000030 56 53 56 3c 4d 6b b2 bb f9 df 7b 3d f5 01 0f 3d
       0.013081392 -0.00544492 0.061492894 0.034913976
000040 e1 ae 24 3d 4c 66 ab bc 5a ab 9f bb 29 a4 ac 3c
       0.04020584 -0.020922802 -0.0048727216 0.021074371
000050 2c 8c b5 bc 44 3b e1 3c 90 a9 03 bc c7 64 a2 3c
       -0.022161566 0.02749408 -0.008036032 0.019823445
000060 af b3 8d 3c 8b b7 72 3c 24 a9 a7 3c 98 0e 08 bc
       0.017297594 0.014814268 0.020466395 -0.008304261
000070 1b 00 d9 3c 89 9d ea 3c 84 b1 24 bd ba 00 06 bc
       0.026489308 0.028639572 -0.040208355 -0.008178884
000080 79 8c 7b bc a1 68 ad bc 56 4c f2 3c bf 8b 7c 3c
       -0.0153533155 -0.021168055 0.029577415 0.015414177
000090 5e 18 09 bc 73 4a 01 3d d5 81 c0 3c 76 2e 6b bc
       -0.008367626 0.03156514 0.023499409 -0.014354339
0000a0 d7 08 99 3c aa 44 49 bd ae ae 6c 3b dd cb f6 3c
       0.018680973 -0.04913775 0.003611486 0.030126506
0000b0 7a a7 30 bd ba a9 59 bd ef 3c 07 3c d8 33 fd bb
       -0.043128468 -0.05314038 0.008254274 -0.0077271275
0000c0 c9 ef 0b 3d 74 03 1a bd ef 24 00 3c ba 99 d4 3b
       0.034164224 -0.03760095 0.007821306 0.006488052
0000d0 42 5c 31 bd 24 6f d1 bc 96 1f a6 bc e9 63 17 3d
       -0.043300875 -0.025565691 -0.020278733 0.036960516
0000e0 f0 ab dd 3c 38 50 52 3d 25 b7 e7 bc 1e ce 05 3b
       0.027059525 0.051346034 -0.028285572 0.0020417045
0000f0 0c 15 dc 3c b9 c2 ee 3c 3d 0f cc 3c 8f 69 18 bc
       0.026865505 0.029145585 0.02490961 -0.009302511
000100 26 88 c8 bb de 0b 14 bd d7 0a 5e ba e8 b9 0e bd
       -0.006119746 -0.03614413 -0.0008470243 -0.034845263
000110 74 d4 4a bb 65 bf 54 3c 61 ff 0e bd 5a 59 96 bc
       -0.0030949386 0.012985085 -0.034911517 -0.018353153
000120 11 0e 75 3b 46 b9 01 3d 44 f0 10 bd f9 8d aa 3c
       0.0037392417 0.03167083 -0.035385385 0.020819651
000130 92 82 ba bc f6 f3 d3 bc 61 49 01 bd 2d 43 af bc
       -0.022767339 -0.025873166 -0.03156412 -0.021394337
000140 b1 22 81 bc 6b b9 ec 3c cf d9 fe 3b 4a 5b b3 3c
       -0.015763612 0.028897008 0.0077774297 0.021894116
000150 0c 73 d1 3c d5 35 c4 3c 13 4a b3 3c 9b bf 1c 3c
       0.025567554 0.02395145 0.021885907 0.009567167
000160 4b cf 02 bd 10 4c cf ba 92 4d 71 3c 08 d5 16 bd
       -0.03193597 -0.0015815515 0.014727967 -0.036824256
000170 70 1b cf 3c 9a 65 b8 3c 63 37 3a bc d8 99 23 3d
       0.025281638 0.022509385 -0.011365744 0.03994164
000180 ba 0b b9 b9 02 ee 34 bc c2 74 2d bd 85 9d 1a 3d
       -0.00035294687 -0.011043074 -0.042347677 0.03774788
000190 a3 8f b7 bc f8 8e 33 3d 33 57 d0 bc 0e 65 14 bd
       -0.022407359 0.043837517 -0.025432205 -0.036229186
0001a0 cf b5 05 bd a3 4c fc bc dc f8 2b 3d f7 00 60 3c
       -0.03264409 -0.030798262 0.041985378 0.013672105
0001b0 fe 37 16 3d 2c f7 bf bc 37 fe 6a bc e2 01 3d 3d
       0.036674492 -0.02343329 -0.014342836 0.046144374
0001c0 43 ba 3e 3c c6 e4 c4 3c 86 3a 6a bc f2 72 e0 bb
       0.011641088 0.024034869 -0.01429618 -0.00684964
0001d0 cd 02 08 bd bf 00 47 bd be d0 0a bd 07 0f 38 bd
       -0.033205796 -0.048584696 -0.03389048 -0.044936206
0001e0 91 ce 1e ba 44 fc 99 3c 4d 0d 2c bd 91 58 cc bc
       -0.00060580025 0.018797047 -0.042004872 -0.024944576
0001f0 a4 9c 38 3c 42 9c 09 3d a3 30 c4 bb 34 d6 d0 bc
       0.011267815 0.033596285 -0.0059872433 -0.025492765
000200 82 a2 ef 3c e1 8f ba bc 5f d0 38 3b ab 8a 8b 3c
       0.029252294 -0.022773685 0.002820037 0.017033895
000210 a1 64 6d 3d d3 1c 13 3d 8d 07 83 3c 93 0b 63 bc
       0.057957295 0.03591616 0.015994811 -0.01385774
000220 09 69 08 3d dd 20 f5 3c 54 09 4e bc 57 a5 38 3d
       0.033303294 0.029922897 -0.012575466 0.045079555
000230 9e 33 d6 bb 97 57 6d 3c b7 29 42 bc 7c 16 15 bd
       -0.006536915 0.014486215 -0.011850766 -0.036398396
000240 6f c7 e4 3b 6e e3 27 bd 32 71 e4 3b 1f 35 46 3d
       0.006981782 -0.04098838 0.0069715017 0.048390504
000250 f8 76 30 3d c4 c6 9a bc c0 12 3d bb ac 37 b7 bb
       0.043082207 -0.018893607 -0.0028850287 -0.0055913534
000260 22 61 23 3d 3c 43 8b 3b 78 58 0f 3d 58 d2 55 3d
       0.039887555 0.0042499583 0.03499648 0.052202553
000270 8a 51 8b 3d 0e e2 04 bd 7b 83 62 3c 27 91 cc 3c
       0.06802662 -0.032442145 0.013825293 0.024971558
000280 65 59 08 3d 5c 00 3c bd c6 c5 47 bd 1d 1a 7e bc
       0.03328838 -0.04589878 -0.048772596 -0.015509156
000290 e1 2f b3 bb f1 25 b4 bc b7 57 65 bc 57 fc 30 3c
       -0.005468354 -0.021990748 -0.013997964 0.01080235
0002a0 10 f8 a3 bb 4b 4a 1c bd f3 11 a0 3c 8c c6 ef bb
       -0.0050039366 -0.03815679 0.019539809 -0.00731737
0002b0 40 5a 2e 3d 3b d7 12 bd 90 13 b2 3c 95 fd 00 3d
       0.042566538 -0.03584979 0.021737844 0.031491835
0002c0 b9 ad db 3c 77 97 f3 bb 67 b4 1b 3c d6 93 30 3b
       0.026816236 -0.0074338275 0.0095034605 0.0026943586
0002d0 4f 0f 08 3d 12 86 23 3d 99 71 34 3d ee 72 45 3d
       0.033217724 0.03992278 0.044053648 0.04820531
0002e0 4a 66 2a 3d 72 f2 07 bd dd c1 86 bc 29 6c 27 bd
       0.041601457 -0.0331902 -0.016449863 -0.040874634
0002f0 7d 26 2a 3d 22 55 21 bd a0 25 cb bc af 86 2c ba
       0.04154061 -0.03938783 -0.024798214 -0.0006581349
000300 b1 62 84 bb 6a ed 5f bc 91 11 16 bd 2b 81 43 3d
       -0.0040400852 -0.013667444 -0.036637846 0.047730606
000310 9d 30 57 bd 09 34 62 bc f0 d6 3f 3c a4 ed 80 3c
       -0.052536596 -0.013806351 0.01170896 0.015738316
000320 c1 ea 48 3a c0 27 6d 3c 5b 7f 13 3d 5a 5a 0b 3d
       0.00076643756 0.014474809 0.036010128 0.034021713
000330 f4 81 3f bd 5c bc 32 bd ae 88 14 3d 13 9b ca 3c
       -0.046754792 -0.043636665 0.03626316 0.024732148
000340 6e 37 20 bd 0b e9 ef bb 6c d7 38 3c 75 06 a2 bb
       -0.039115362 -0.007321482 0.011281829 -0.0049446174
000350 76 a8 17 bd 71 33 52 3c 89 f1 38 3d ea 0a 46 bd
       -0.03702589 0.012829647 0.04515222 -0.048350252
000360 08 e2 04 bd 37 e5 8c bc a6 e4 11 3d 2a 89 18 bd
       -0.032442123 -0.017199142 0.035618447 -0.037240185
000370 98 32 00 bd df 22 c0 3c e5 30 20 bd fb fe 3f bd
       -0.03129825 0.023454128 -0.03910913 -0.046874028
000380 cf 8e 30 3d 4c c4 d5 bc 81 5c b2 3b ab ac dd 3c
       0.043104943 -0.026094578 0.005443156 0.027059874
000390 35 d6 f3 bc 2b f9 70 3d ce 7c 08 3d dc 4b a1 bc
       -0.029765228 0.058831375 0.033322148 -0.019689493
0003a0 50 70 1d 3b 6d 12 ac 3c 03 7d a1 3a 7d 50 54 bc
       0.0024023242 0.02100488 0.0012320582 -0.012958643
0003b0 83 98 f3 bc c9 aa 04 bd cd 4b bb 3c 8e 94 9f bc
       -0.02973581 -0.032389436 0.022863293 -0.019480016
0003c0 2f cd 1e 3d b0 1c 27 bc 06 07 1c bd 56 1d 25 3c
       0.038769897 -0.010199711 -0.038092636 0.010077795
0003d0 1f c1 44 bd 84 71 8f 3c 9c 83 a4 bb 1b 02 01 3d
       -0.048035737 0.017510183 -0.005020572 0.03149615
0003e0 94 67 c9 bb 24 39 86 3b 89 0c 0f bd 92 54 1b bc
       -0.0061463807 0.004096167 -0.034924064 -0.009480612
0003f0 95 c7 0f 3d 50 b4 9f 3c 89 e9 08 3d e3 b9 38 bc
       0.035102446 0.01949516 0.03342584 -0.011274788

fc1.bias f4 [128]
000000 30 0a 37 3a 02 0d d8 3e 3b 4a c1 3e de d0 dc 3e
       0.0006982414 0.42197424 0.37751946 0.43128103
000010 cf 8f fb 3e 16 01 c8 3e da c5 a1 3e a7 1a 67 3e
       0.49133155 0.39063329 0.3159626 0.22568761
000020 6c e1 c8 3e 71 9c dc 3d aa 91 9d 3e 23 43 c2 3e
       0.39234483 0.10772026 0.30775195 0.37941846
000030 88 a4 ce 3e ee 24 51 3e 05 7e c2 3e 15 32 d9 3e
       0.40359902 0.20424244 0.3798677 0.42421022
000040 95 38 97 3e 50 e3 d8 3e d0 77 ae 3e 71 5a be 3e
       0.29535356 0.42360926 0.34075785 0.37178376
000050 e2 ec cd 3e 09 fe f4 3e a8 9f 8e 3e 17 41 9e 3e
       0.4021979 0.47850063 0.27856183 0.30909035
000060 0d f9 d9 3e 06 58 ce 3a 58 58 b0 3e 36 ed 85 3e
       0.42572823 0.0015742786 0.344424 0.2615754
000070 ee 50 a3 3e cd f0 59 3e 99 4b 02 3f 74 9f ca 3e
       0.31897682 0.21283264 0.508966 0.39574778
000080 1a 36 69 3e 8b b0 e6 3e 34 5d bd 3e 2f b6 c2 3e
       0.22774544 0.45056567 0.3698517 0.3802962
000090 fc 52 e0 3e fe 33 ed 3e f8 e5 dc 3e 0e 93 c6 3e
       0.43813312 0.4632873 0.43144202 0.3878407
0000a0 2c 21 bc 3e 70 84 e2 3e d8 2f 78 3e eb 8a b4 3e
       0.36744058 0.44241667 0.24237001 0.35262236
0000b0 1e 14 ad 3e c1 65 dc 3e da 01 c0 3e fb 2c c6 3e
       0.3380441 0.43046382 0.37501413 0.38706192
0000c0 03 2b 06 3f 31 bc cd 3e 7a 6d c7 3e e3 52 d9 3e
       0.5240938 0.4018264 0.3895071 0.4244605
0000d0 f9 ab d0 3e d0 a7 ff 3e 01 ce c7 3e 50 2f d8 3e
       0.40756205 0.49932718 0.39024356 0.42223597
0000e0 a9 b1 b4 3e 20 e6 e3 3e c0 86 d0 3e 02 31 c9 3e
       0.35291794 0.4451151 0.40727806 0.39295202
0000f0 40 ab b6 3e 2a 64 cb 3e 41 85 bb 3e 94 35 e4 3e
       0.35677528 0.39724857 0.36625102 0.44572127
000100 e3 c7 f9 3e 2d 17 c8 3e d9 1c 70 3e ed b2 5a 3e
       0.48785314 0.39080182 0.23448505 0.21357317
000110 2e 74 0b 3e d7 af 99 3e b4 19 e4 3e 1a d0 1a 3e
       0.13618538 0.30016968 0.4455086 0.15118447
000120 6c 85 c9 3e 16 45 b1 3e 13 3e bc 3e 59 8f aa 3e
       0.39359605 0.3462302 0.3676611 0.3331249
000130 1f 91 ea 3e da 83 c4 3e d7 8b ec 3e 7c 3b d5 3e
       0.45813844 0.38381845 0.4620044 0.41646945
000140 03 36 b9 3e a3 3e db 3e eb 7e bc 3e 2d b4 af 3e
       0.3617402 0.42821226 0.3681558 0.3431715
000150 c7 fe d8 3e 59 4b 81 3e c3 46 d0 3e aa 36 90 3e
       0.4238188 0.25252798 0.40678987 0.28166705
000160 4c a7 b8 3e fd 4c b3 3e 6d 9c a1 3e 9e 59 b2 3e
       0.36065137 0.35019675 0.31564656 0.34833997
000170 41 ba f1 3e d5 77 c4 3e dd fc 32 3e 8e 0b ed 3e
       0.47212413 0.38372675 0.17479272 0.46297878
000180 3b 77 ce 3e 1d 9f b2 3e 98 d8 d9 3e 7c d9 bb 3e
       0.4032534 0.3488702 0.4254806 0.36689365
000190 ae 3b 8f 3e a3 74 89 3e a0 ea 5f 3e f7 ed 9c 3e
       0.2797522 0.268468 0.21866846 0.30650303
0001a0 31 18 d0 3e 7c b6 b4 3e 83 79 c4 3e 51 5a 31 bd
       0.40643457 0.35295475 0.38373956 -0.043299023
0001b0 05 56 e7 3e 17 88 d1 3e 6d e4 fd 3e 1f 0a f0 3e
       0.45182815 0.4092414 0.49588338 0.46882722
0001c0 28 91 3c 3e 03 3f 6c 3e 96 0c c8 3e e1 44 01 3f
       0.18414748 0.23070912 0.39072102 0.50495726
0001d0 d3 51 03 3f 78 68 fc 3e 9b c2 01 3f 91 97 a4 3e
       0.5129673 0.49298453 0.5068757 0.32146886
0001e0 e4 c6 c0 3e 59 e3 af 3e 49 a9 8f 3e 7c 2f 21 3e
       0.37651742 0.3435314 0.28058842 0.1574077
0001f0 6a 58 d1 3e 55 da 0a 3f 0f 9a c2 3e d9 45 ed 3e
       0.40887767 0.542394 0.38008162 0.46342352

fc2.weight f4 [128, 128]
000000 65 30 f4 bc 68 6b d9 3d 1b ba eb 3d 31 d9 15 3e
       -0.029808233 0.10616189 0.11510106 0.14633633
000010 14 fa 4a 3e ae 6c 5c 3e e8 5c 13 3e 89 7a d6 3d
       0.1982196 0.21525833 0.1439091 0.104725905
000020 73 74 67 3e 48 c6 e6 3d ea 96 98 3d 20 56 bf 3d
       0.22603016 0.11268288 0.074506596 0.09342599
000030 a6 e2 53 3e a0 0c 99 3d 79 de 41 3e e2 fe 28 3e
       0.20691928 0.07473111 0.18932523 0.1650348
000040 6f 21 23 3e c3 34 bf 3d 2f 8f 62 3e 49 3a f4 3d
       0.15930723 0.093362354 0.22124933 0.119251795
000050 12 be 23 3e e0 3f 1b 3e e9 cb a1 3d 21 50 c9 3d
       0.15990475 0.15161085 0.07900221 0.098297365
000060 ee fd 48 3e 7c 18 a7 bc 1f 18 b6 3d 43 d3 08 3e
       0.19628116 -0.020397417 0.088913195 0.1336184
000070 55 0c 2d 3e d8 dc 29 3d 99 24 a0 3d a1 e1 95 3d
       0.16899236 0.04147038 0.078194804 0.07318426
000080 d5 d6 92 3d da 1e 2a 3e 85 17 d1 3d df 3c 04 3e
       0.07169882 0.16613331 0.10209564 0.12913845
000090 66 4c 1f 3e a9 66 a3 3d 1c 28 0f 3e dc a7 ac 3d
       0.15556487 0.07978565 0.13980144 0.08430454
0000a0 c8 73 0f 3e 66 5f 13 3e bc 0f a5 3d a6 a0 19 3e
       0.14009011 0.1439186 0.08059642 0.15002689
0000b0 d6 8b d2 3d 2b 73 d6 3d f2 39 c9 3d fd 78 62 3e
       0.10280578 0.10471185 0.09825505 0.22116466
0000c0 cf 79 b4 3d 0c ec 9b 3d 5b 8b fd 3d fa 62 76 3e
       0.08812296 0.07613382 0.123800956 0.24061194
0000d0 c5 e4 86 3d f6 b7 c8 3d 67 da 2a 3e 9c 20 72 3e
       0.06586603 0.09800713 0.16684876 0.23645252
0000e0 6d 28 27 3e e9 02 2b 3e b1 e0 4d 3e aa cb ef 3d
       0.16324015 0.16700329 0.20105244 0.11708768
0000f0 79 10 4e 3e ee 61 2e 3e fd 9d 36 3e 65 23 6e 3e
       0.20123471 0.17029545 0.17833705 0.2325569
000100 8c ad 2a 3e a4 0e 32 3e 0c ce bc 3d bc cb 07 3e
       0.16667765 0.17388397 0.09218988 0.13261312
000110 d4 a5 ef 3d 26 7e 41 3e 88 03 6a 3e 52 db 52 3d
       0.11701551 0.18895778 0.2285291 0.05147869
000120 02 3b 6b 3e c0 31 f8 3d 9b 41 bb 3d b0 c7 c9 3d
       0.22971728 0.12118864 0.091433726 0.098525405
000130 8e e6 4d 3e a4 ed 5a 3e c1 cc 36 3e 07 8f bc 3d
       0.20107481 0.21379715 0.17851545 0.09206968
000140 3c 7d 60 3e a1 a4 d0 3d 76 36 51 3e 75 6e 55 3e
       0.21922773 0.101876505 0.20430931 0.20842917
000150 3b 5d 44 3e 68 3d 92 3d b2 b5 62 3e 58 34 a0 3d
       0.1917619 0.071406186 0.22139624 0.07822484
000160 05 f6 a7 3d d3 cb b4 3d a4 54 7b 3d b7 ad 3f 3e
       0.082012214 0.08827939 0.061360016 0.1871861
000170 59 ca 2a 3e 34 45 d3 3d 07 28 ff 3d 41 98 5c 3e
       0.16678752 0.10315934 0.124588065 0.21542455
000180 14 84 79 3e 20 15 40 3e 3d 4d 62 3e 57 ac d2 3d
       0.2436679 0.18758059 0.22099777 0.102867775
000190 9e 24 29 3e f0 49 06 3d b6 1f 15 3e 7d 51 a9 3d
       0.16517875 0.032785356 0.14562878 0.08267496
0001a0 9d 01 34 3e 39 0c 66 3d ae 37 b2 3d 31 26 ef 3c
       0.1757874 0.056164 0.08702026 0.029193016
0001b0 8e 52 31 3e 29 e9 62 3e 36 13 d3 3d aa 93 52 3e
       0.17316648 0.22159256 0.103063986 0.20564142
0001c0 5d 24 ce 3c 8f 71 25 3d 8f e2 3a 3e 3d b6 41 3e
       0.025163824 0.0403915 0.18250488 0.18917175
0001d0 c5 ad 41 3e e1 22 3f 3e 04 30 10 3e bb 7c fd 3d
       0.18913944 0.18665649 0.14080817 0.12377306
0001e0 9f 7c 69 3e 66 fa e6 3d d3 ad de 3d 7a 59 d1 3d
       0.22801445 0.112782285 0.10872998 0.102221444
0001f0 d8 c6 0d 3e 1b d4 25 3e 06 73 58 3e 00 62 4a 3e
       0.13845384 0.16194193 0.21137628 0.19763947
000200 b0 30 6f bd 71 31 1a 3e 82 02 77 3c 19 78 c6 3c
       -0.05839604 0.15057923 0.0150762815 0.024227189
000210 8a 90 58 3d 87 dd 43 3c 38 fe 17 3c 32 77 cf 3d
       0.05287222 0.011954672 0.009276919 0.101301566
000220 b8 de 88 3d 28 cc fd 3c 88 5a 53 3d b8 51 6d 3d
       0.06683105 0.030981138 0.05160001 0.05793926
000230 44 09 fa bb e4 c7 4d 3d 34 df 28 3b a6 9b 82 3d
       -0.007630499 0.05023946 0.0025767805 0.06377344
000240 3b c2 d6 3c b8 03 93 3d 97 a0 84 3d a2 ed 0a 3e
       0.026215663 0.07178444 0.064759426 0.13567212
000250 12 c1 f1 3d 11 3a 4c 3d 13 ec 0b 3e 5e b7 81 3d
       0.11804403 0.049860064 0.13664274 0.06333803
000260 53 df c2 3d 9f 0d ab 3c 22 3e eb 3d f4 08 bb 3d
       0.09515252 0.020880518 0.1148646 0.09132567
000270 87 7a 4d 3d eb fd ce ba a1 5b bc 3d ed 00 9b 3b
       0.05016568 -0.0015792226 0.09197164 0.004730335
000280 d4 67 98 3c cc a2 1b 3e 04 49 a4 3d cd 25 1d 3e
       0.018604197 0.15198821 0.08021739 0.15346451
000290 96 2b 64 bc 43 e5 fb bc 54 ef 09 3e f7 80 d8 3d
       -0.013926407 -0.030748969 0.13470203 0.10571473
0002a0 a1 65 8d 3d 3b 87 1a 3e e9 f0 e3 3d eb b9 81 3d
       0.0690415 0.15090649 0.11129934 0.06334289
0002b0 15 1e 5e 3d 99 9a a8 3d 1a 52 77 3d 52 4b 8f bc
       0.054227907 0.08232612 0.060381033 -0.01749197
0002c0 97 c3 f8 bb 21 a0 57 3d 25 d0 eb 3d 5c dd df 3d
       -0.0075916755 0.052642945 0.1151431 0.10930893
0002d0 45 af 72 3d 8c c6 6a 3d 2b 55 a8 3d 0a 45 e7 3c
       0.05924918 0.057318255 0.082193695 0.028231163
0002e0 e6 04 be 3d 48 4c 25 3e af df a0 3d fe 6d de 3c
       0.09278278 0.1614238 0.07855164 0.027152058
0002f0 f0 0b 89 3c c4 ee 6c 3d 5f df 14 3e 01 a9 b5 39
       0.016729325 0.057844892 0.14538334 0.00034648928
000300 31 11 8b 3d 7f 6d 86 3d 63 ec 16 3e f6 96 9a 3d
       0.067903884 0.065638535 0.14738612 0.07548325
000310 73 6e 19 bd c7 19 92 3d 3e 26 12 3d 57 fd d7 3c
       -0.03745885 0.07133823 0.035681 0.026365919
000320 ee 72 12 3e 12 c4 e5 3d 8d 1e 0b 3e 5a 36 72 3d
       0.14301655 0.11219038 0.13585873 0.059133865
000330 d5 09 e9 3d 68 97 4a 3d 12 d7 f8 3d d5 f2 24 3b
       0.113788284 0.0494608 0.121503964 0.0025169153
000340 c0 f2 32 3d af 8b 9c 3d e4 0a 05 3e 10 b5 a7 3d
       0.043688536 0.0764383 0.12992436 0.08188832
000350 8b f2 c6 3c c7 b7 61 3d 7f 53 01 3e cc 58 da 3d
       0.024285575 0.055106904 0.12629507 0.10661468
000360 95 08 1f 3e 39 c4 b1 3d 46 ed 0c 3e fd 27 03 3e
       0.15530618 0.086800046 0.13762388 0.12808223
000370 48 7c 02 bc 15 01 04 3e 92 c7 af bc 36 70 29 3c
       -0.007964201 0.12891038 -0.021457467 0.010341695
000380 61 62 6d 3d 7b 9e 0a 3c f3 cd e0 3d 28 ce 51 bb
       0.05795515 0.008460636 0.10976782 -0.0032013748
000390 ac 14 1b 3d 2c 39 b9 3d 13 24 36 3c 2c f3 03 3d
       0.03786151 0.09044108 0.011116999 0.03221433
0003a0 4f 03 1b 3e dc b3 aa 3d c0 ff e4 3d 63 d9 4d 3d
       0.15137981 0.08335087 0.11181593 0.050256144
0003b0 12 02 aa 3d 0b db bd 3d d8 d5 da 3d b8 90 56 3d
       0.08301176 0.09270295 0.10685319 0.05238411
0003c0 9e 12 f9 bb f6 3c 11 3d 71 0a b6 3d 25 03 00 3e
       -0.0076010963 0.035458528 0.0888871 0.125012
0003d0 08 79 fa 3d a4 37 15 3e 3e a0 5f 3d af 9b ff 3c
       0.12230116 0.14572006 0.05459618 0.031202165
0003e0 42 ee 03 3d 19 c5 fc 3d 1e f0 b8 3d 1d f7 b2 bc
       0.032209642 0.12342281 0.09030174 -0.021846348
0003f0 d7 53 9a 3d b1 77 d3 3d 81 04 46 3d 22 23 84 3c
       0.075355224 0.10325564 0.04834414 0.016130034

fc2.bias f4 [128]
000000 4e 4a 18 3e 90 cc 93 ba 9c 03 4e 3e fd 89 9c 3d
       0.14872095 -0.0011276174 0.20118564 0.07643507
000010 cc 41 5e bd 93 ce 8d bc 32 df 0c bd 30 bd f2 37
       -0.054261968 -0.017310416 -0.034392543 2.8936745e-05
000020 79 56 48 3e e9 81 19 bd 11 b8 be 3d cc c4 f6 3d
       0.19564237 -0.037477408 0.09312452 0.12049255
000030 c2 96 b9 3c 6b c4 5a bd fb 0d 19 3e 22 cb 61 3d
       0.022654895 -0.053409975 0.1494674 0.055125363
000040 20 fe ec 3d 32 19 65 3e 28 bc 49 3e 07 dc a3 3d
       0.11571908 0.22372892 0.19700682 0.08000951
000050 92 8e 14 bd 7a f1 5a bd a4 5c 10 3e 0b 46 19 3e
       -0.03626878 -0.053452946 0.1409784 0.14968126
000060 9f e0 d8 3d c6 92 79 bd 10 21 d7 3b 7b 3e a5 3d
       0.10589718 -0.06093099 0.0065652207 0.08068558
000070 94 31 16 3e 00 8c 4a bc 5a e5 42 bd b1 1f f3 3d
       0.1466735 -0.01236248 -0.047582008 0.11871279
000080 cf 71 3e 3e 0b 45 a8 bc bb 35 95 bd f8 f9 18 bc
       0.18598102 -0.020540735 -0.07285639 -0.009336941
000090 bf 6a 2f 3e 80 d6 46 3e 2a 63 85 bd 26 53 d4 3c
       0.17130564 0.19417763 -0.06513055 0.025918555
0000a0 3c ac fa bc 4d f7 26 3e 74 44 53 bd 2a db 36 3e
       -0.030599706 0.16305275 -0.051578954 0.17857042
0000b0 f3 35 45 3e 5d e6 85 bd b1 cf d9 bc 74 3d f7 bc
       0.19258861 -0.06538079 -0.026588293 -0.03018067
0000c0 1b 2a 9b 3d f0 70 43 bd bc 46 9b bd e9 e2 e3 3d
       0.0757639 -0.047715127 -0.07581851 0.11127264
0000d0 43 34 2b 3e ff 32 2e bd 1f 39 58 3e eb 85 f0 3d
       0.16719155 -0.042529102 0.2111554 0.11744293
0000e0 0e 30 5e bd 3a 1c 1a 3e 6b 88 07 3e f2 6b 89 3c
       -0.054245047 0.1504983 0.13235633 0.016775105
0000f0 64 54 4a 3e 15 18 a0 bb cd b7 a2 bd 81 fa b3 bd
       0.19758755 -0.0048856833 -0.079452135 -0.08788014
000100 4b 6f b4 bd c2 8d 5c 3d 2d 87 2d bd a3 93 1d 3e
       -0.0881029 0.05384613 -0.04236524 0.1538835
000110 32 e4 48 3e 11 e0 26 3e 7b 1f eb 3d 29 50 9c bd
       0.196183 0.16296412 0.11480614 -0.07632477
000120 b8 e1 ec bb a5 ee e1 3d d3 5d 59 3b f8 83 68 3d
       -0.007229056 0.11031846 0.0033167496 0.05676648
000130 89 b2 ef 3d c2 08 0d bd 34 27 ba bd f9 bc cc 3b
       0.11703975 -0.03443218 -0.09089509 0.0062481132
000140 4c 58 01 bd 53 84 6e 3d 6e 89 7b bd 4c 40 22 3e
       -0.031578347 0.058231663 -0.06141036 0.1584484
000150 2d f8 34 bb 51 05 83 3d d3 28 60 3e 5a 85 4c 3e
       -0.0027613745 0.063974984 0.21890573 0.19972745
000160 89 3b 94 bd 30 2c 5f 3e 6c dc 2e 3e 71 67 a4 bc
       -0.07237918 0.217942 0.17076272 -0.020068856
000170 03 20 49 3e 13 2f 32 3e ef a7 66 3b 3c eb c4 3d
       0.19641118 0.1740077 0.003519531 0.0961518
000180 8a 4f 42 3e d6 9a a6 bb ab 70 83 3c 12 b6 b6 bd
       0.18975654 -0.005084376 0.016044935 -0.08921446
000190 99 c5 1c 3e 58 51 00 bd fd ef c0 3d 5e 5d b3 bd
       0.15309753 -0.031327575 0.09420774 -0.08758043
0001a0 4e af 32 3e 13 6a 05 3e f9 20 74 3d c9 75 92 3d
       0.17449686 0.13028745 0.059601758 0.07151372
0001b0 53 89 25 3e 0a 59 ac bd 2d 36 08 bb 93 d4 22 bd
       0.16165666 -0.0841542 -0.0020784244 -0.039753508
0001c0 4f a5 1d 3d a8 b3 aa bd 0d 02 22 3d 54 e6 ba 3b
       0.03848773 -0.08335048 0.039552737 0.005703727
0001d0 d6 cf f4 3d 88 d3 e9 bc 31 96 be 3d c6 38 17 3d
       0.11953704 -0.028543249 0.093059905 0.036919378
0001e0 b1 d2 32 bd a6 ea 29 3e 08 20 f8 bb 51 54 82 bc
       -0.043657962 0.16593418 -0.007572178 -0.015909346
0001f0 bf 5d 0b bd 16 4f 9e bd 5c 80 97 bd 16 2a fa bc
       -0.03402495 -0.07729928 -0.073975295 -0.030537646

fc3.weight f4 [400, 128]
000000 84 2c 77 bd 1b b8 ab bd 3a e4 a2 bd 9a 16 14 3d
       -0.060345188 -0.08384725 -0.07953687 0.036154367
000010 34 0a a6 bc 25 86 5e bd 82 8a b0 bd 89 72 88 3d
       -0.020268537 -0.05432715 -0.08620168 0.06662471
000020 c7 31 a7 3c 2e f7 1f 3d 42 73 57 3d 67 26 d2 bd
       0.020409478 0.03905409 0.052600153 -0.10261231
000030 13 0b a0 bd 70 ee 18 bd 15 17 84 bd 02 1a f7 3c
       -0.07814612 -0.037336767 -0.06449715 0.030163769
000040 74 e6 48 3d 68 9f a8 bd 4a 73 4e bd 56 20 91 bd
       0.049047902 -0.08233529 -0.050402917 -0.07086246
000050 22 de 41 bd c0 42 99 bc 7f 75 a0 3c ba 9c f0 bc
       -0.047330983 -0.018708587 0.019587277 -0.029371608
000060 25 82 cb bc d8 d9 28 bc 8e ea a2 bd b7 06 8f bd
       -0.024842331 -0.010305844 -0.07954894 -0.06983703
000070 c0 43 e9 3c 55 7c ad 3c 57 ee 35 bd cb c8 cb 3c
       0.028474689 0.02117745 -0.04441675 0.024876019
000080 8e 79 8f bd c1 f5 98 3d b0 37 1d 3c 44 2d 4c bc
       -0.070056066 0.07468749 0.0095957965 -0.012461964
000090 5c 55 5f bc 78 2d 62 3d 05 07 88 bd 07 56 29 bc
       -0.013631191 0.055219144 -0.06641964 -0.010335452
0000a0 b4 0e 8e bd e5 82 a4 bd 6d 46 b2 bd 86 e9 5d 3d
       -0.06936398 -0.08032779 -0.08704839 0.054177783
0000b0 b0 75 61 bc fc e5 fd bc ec e8 09 3d 50 5c 95 bd
       -0.013760969 -0.030993454 0.033669397 -0.07292998
0000c0 9d 6b 06 3d e5 8f 0d bd b0 2f 41 bd 30 b7 4d bd
       0.03281747 -0.034561057 -0.04716462 -0.05022353
0000d0 cd e5 29 3d 20 42 cb 3c 3a 85 9e bd e7 c2 49 bc
       0.04147892 0.024811804 -0.07740255 -0.012314535
0000e0 00 4f a4 39 ba 29 73 bd 9f 39 8e 3c 91 37 8d bd
       0.00031339377 -0.059365965 0.01736146 -0.06895364
0000f0 1d bd 3d bd 2f 58 49 bd c2 32 33 bd 78 19 9d bc
       -0.04632293 -0.049156364 -0.04374958 -0.019177184
000100 41 3b 89 3d 5c c9 c6 bd 40 5e 75 bd c0 e0 97 bd
       0.06700755 -0.09706375 -0.059904337 -0.074159145
000110 10 38 07 3d 62 2c d1 bc bf ec 28 3d 8a 63 5c 3c
       0.03301245 -0.025533859 0.041241404 0.013451466
000120 1e 97 8e 3d ef 32 00 bc c0 68 cf bb 40 77 47 3c
       0.06962417 -0.0078246435 -0.006329626 0.0121744275
000130 32 6e bc bc a0 73 a7 bd 9f 13 70 bd e3 5e 9b 3d
       -0.023001764 -0.081763506 -0.058612462 0.075864576
000140 be 96 9e bc ca c2 87 bd 78 9a 91 bd 0e a8 21 bd
       -0.019358989 -0.0662895 -0.07109541 -0.03946691
000150 79 03 a0 bb 5d 4f 93 bd 09 fd 96 bd aa 88 c3 bd
       -0.0048832265 -0.07192872 -0.073724814 -0.09547551
000160 f4 85 04 3d 8d 2f a9 bd 57 f5 8c bc 6c bd ce bc
       0.03235431 -0.08261023 -0.01720683 -0.025236808
000170 ca ad 91 bc fd c5 25 bd 2f 39 8b 3d 1d 0a a2 bd
       -0.017783064 -0.04047202 0.06798016 -0.07912085
000180 97 5c 3d 3c 2e 67 7f 3d f7 aa 9b bd 53 84 9b 3d
       0.01155772 0.06235426 -0.07600968 0.07593598
000190 c8 43 c7 bd 98 e9 e2 3c 95 0f 6a bd b6 1e 22 3c
       -0.09729725 0.027699277 -0.057143766 0.009895017
0001a0 84 e9 c4 bd a1 39 99 bd ee 07 a0 bd 93 aa 32 bd
       -0.09614852 -0.07481695 -0.078140125 -0.043619704
0001b0 3b 39 29 bd 38 8b 18 bc 36 09 f8 bc 95 c1 89 3d
       -0.041314345 -0.009310536 -0.03027783 0.06726376
0001c0 e4 11 8d bd 88 29 3d bd a3 df 31 3b 88 1d 2d 3c
       -0.06888178 -0.046182185 0.0027141355 0.010566123
0001d0 cd 35 d7 bc 0e 04 7e 3d ed db b8 bd b6 dd 88 b9
       -0.026270771 0.062015586 -0.090263225 -0.0002610513
0001e0 11 c0 6d 3d 26 f5 14 3d 60 43 94 bc 18 4c fe bc
       0.058044497 0.036366604 -0.018098533 -0.031042144
0001f0 40 cf ac 3c 65 b0 b4 3d 51 03 39 bd 26 f1 9a bd
       0.021094918 0.08822707 -0.04516918 -0.07565527
000200 6b 7c dd bd 53 e4 c2 bd 4a 31 56 3d 45 51 77 bc
       -0.108147465 -0.09516206 0.0522931 -0.01509506
000210 c6 dc a8 3c e0 33 17 bb cc 83 8c bd e7 64 7f bd
       0.020613085 -0.0023071691 -0.06861076 -0.062352087
000220 95 10 a6 bd a4 99 26 3d b0 68 9f bb 1d 7c 03 3d
       -0.081086315 0.040673867 -0.0048647746 0.032100786
000230 32 e1 bf 3c 75 cd 35 bd d7 0f 50 3d 52 34 22 bd
       0.023422811 -0.044385392 0.050796356 -0.039600678
000240 cd 10 2d bd 47 4a 17 3b 42 cc 23 3d a9 a7 a5 bd
       -0.04225235 0.0023085044 0.039989717 -0.08088619
000250 62 63 7a 3d c0 13 55 3c ad f6 6f bc b9 12 2f 3d
       0.061129935 0.013005197 -0.014646214 0.042742465
000260 c9 a9 01 3d 76 b1 22 bd 40 76 26 bb 9a 65 24 3c
       0.03165606 -0.03972002 -0.0025400072 0.010033989
000270 71 f5 c8 3c a6 b0 86 bd 7d b5 5c bd b5 cd 23 3d
       0.024531098 -0.06576662 -0.05388402 0.0399911
000280 aa fb 60 bd 6e 10 b4 bd 8e c4 b2 bd 6c ed 39 3c
       -0.054927506 -0.08792196 -0.08728896 0.01134811
000290 5c 62 0b 3d 37 07 2e bc b6 8d 60 3d 58 cc 62 3d
       0.03402935 -0.010621837 0.054822646 0.05537066
0002a0 4e 94 4f 3d b2 79 2b bd 76 32 5b 3c f3 3c 31 bd
       0.050678544 -0.041864105 0.01337873 -0.043271016
0002b0 a3 64 1c bc 45 14 b1 3d 2b ac ab bd 86 ba 94 3d
       -0.009545478 0.08646444 -0.08382448 0.07262139
0002c0 f6 11 3a bc 68 26 50 bc a6 dd 00 bd af 6e 93 bd
       -0.011356821 -0.012704469 -0.03146138 -0.071988456
0002d0 c4 84 9a bd 03 3c a3 3d d3 0a 7a bd 29 e2 5e bc
       -0.07544854 0.07970431 -0.06104548 -0.0136037255
0002e0 ad 67 aa 3d ec 6c f3 bd 7e 13 f6 bd aa fb 2a bd
       0.08320556 -0.118860096 -0.120154366 -0.04174391
0002f0 8b 8b dd bd 07 97 a2 3d 92 e1 34 3d 7e 7e 58 3d
       -0.10817631 0.079389624 0.044160433 0.052855007
000300 6c 8a 00 bd 73 2f da 3c 19 30 80 3d f0 fd ad 3c
       -0.03138201 0.026633954 0.06259174 0.02123925
000310 83 a2 7a 3b ad 7e 1a 3d d9 02 a5 bd 68 46 84 bd
       0.0038243837 0.037718464 -0.08057184 -0.064587414
000320 4a e4 44 bc 09 1f de 3c 29 0d 3b bc 98 bc ed bd
       -0.012017319 0.027114408 -0.011416712 -0.11608237
000330 f4 c2 24 bd 80 05 ed 3c 34 1b 9c 3c 11 88 a0 bd
       -0.040224984 0.028933287 0.01905594 -0.078384526
000340 79 8a f8 3c 49 86 9d bd f8 49 8c 3c ce f1 e8 bd
       0.030339466 -0.076916285 0.017125115 -0.113742456
000350 6c 0b 29 3d ac 02 cd 3c 64 e0 e4 bc 9a 2c e9 3c
       0.04127066 0.025025688 -0.027939029 0.02846365
000360 78 3f 91 3c 15 cc 73 bd 72 22 6b bd e9 bb 26 bd
       0.01773046 -0.0595208 -0.057405896 -0.04070655
000370 7d 51 b1 bd 1c 23 38 bd 60 83 13 bc af e1 c5 3c
       -0.08658121 -0.044955358 -0.00900349 0.024155466
000380 eb 37 4c 3d 26 c3 64 3d 6b 8e 9b 3d 61 d8 ac 3d
       0.049858015 0.05585017 0.075955234 0.084397085
000390 a8 72 ce bd ee 4f 8b bd ca 7a 83 bd 8c 53 28 bd
       -0.10080463 -0.06802355 -0.064199045 -0.0410953
0003a0 8e 9b b8 bd 8a 36 c4 bd a9 8d fd bc 4b e4 37 3d
       -0.09014045 -0.09580715 -0.030951338 0.04489545
0003b0 af 76 d8 bd 40 69 b9 3c 85 5a dd bd 99 8c 24 bd
       -0.10569512 0.022633195 -0.10808281 -0.040173147
0003c0 5b af 35 bb 2e 4e 64 3d d9 e6 19 bd db b8 93 bd
       -0.0027722928 0.05573862 -0.03757367 -0.07212993
0003d0 e2 eb a4 bd 09 45 89 bd 07 d5 91 bd 3b 16 dd bc
       -0.080528036 -0.067026205 -0.0712071 -0.02698814
0003e0 fe 3c 96 3d 0d 3b 16 3d 4b b9 8d 3d f5 d1 90 bd
       0.07335852 0.03667741 0.069201075 -0.07071296
0003f0 48 ba 52 bc 83 57 ac bd 2e 94 f1 bc fd 93 88 bd
       -0.012861796 -0.08415129 -0.029489603 -0.066688515

fc3.bias f4 [400]
000000 8b 9e c1 bd 12 5c 64 bd 1e 3d 31 bd d2 7a 81 3d
       -0.09454068 -0.055751868 -0.043271177 0.06322254
000010 f3 33 ba bd 43 e6 1b bc 30 14 13 3d 70 8d 21 bd
       -0.0909194 -0.009515348 0.035907924 -0.039441526
000020 a7 47 2e bd 60 a4 e4 bd 96 15 58 bd 37 ac bf bd
       -0.0425488 -0.111641645 -0.05275496 -0.09359019
000030 46 b4 a6 bd 91 15 85 bb 0f 7c 2e 3d 25 8f 90 bd
       -0.08139853 -0.004061409 0.04259878 -0.07058553
000040 ad cd 6a 3d 7f 48 81 bd f8 51 64 3d 8a 3a d4 bd
       0.057325054 -0.06312656 0.055742234 -0.10362728
000050 c3 cc cc bc 5a f4 5f bd 4e cd 2f bb 2c eb 17 3d
       -0.024999982 -0.05467639 -0.0026825252 0.03708951
000060 29 ce 90 3c 39 2a 60 3d 3f c7 19 bd 3c de 2e 3d
       0.01767643 0.054727767 -0.03754353 0.042692408
000070 fc fd 08 3d 83 f7 96 bc 52 1d ab bc e3 99 68 3c
       0.033445343 -0.01842857 -0.020888004 0.014196846
000080 87 c4 23 bd 4b ff 10 bc 01 9e 3b bd db e0 d1 bd
       -0.039982345 -0.008849929 -0.04580498 -0.10247966
000090 cb d2 71 bb 3a 1e 5d 3d 64 4b c8 bc 01 f1 89 3c
       -0.0036899324 0.053983904 -0.024450012 0.016838552
0000a0 d2 bd 06 3b ff 73 b8 bd 29 c7 53 bd 2c cb ab bb
       0.002055992 -0.090064995 -0.051703606 -0.005242726
0000b0 31 25 e8 bd 77 91 9f 3b 7b ee 09 bd 82 be 86 3c
       -0.11335219 0.0048696357 -0.0336747 0.016448263
0000c0 ed 08 7a bd 75 ed 8e bd a6 1b 1d 3c 4c cf 0d 3b
       -0.06104367 -0.06978885 0.009589111 0.002163845
0000d0 31 e5 57 bc ef 07 2c 3d c1 fa e3 3a c7 ac 0a 3b
       -0.013177202 0.041999754 0.0017393456 0.0021160112
0000e0 d4 c1 40 bd 42 d0 0b bd 2c c0 06 bd 2e d6 33 bd
       -0.04705985 -0.034134157 -0.032898113 -0.04390543
0000f0 0a fd 9b 3c 95 43 74 3b e9 84 ed bc 6d e6 50 3d
       0.019041557 0.0037271727 -0.02899404 0.051001
000100 2b d0 ae bd d4 be 07 bd 5b b5 20 bd 50 fb ca 3c
       -0.08535799 -0.033140972 -0.039235454 0.024778038
000110 c3 40 aa bd 1e a8 8c bd d6 1b 0c 3c 99 f0 0b bd
       -0.083131336 -0.06868003 0.0085515585 -0.034165
000120 10 2f dc bd 95 d5 d7 bd 07 b6 5b bd 05 6e 8d 3b
       -0.10751164 -0.105387844 -0.05364039 0.004316094
000130 d0 1e 8d bd d0 aa a6 bd 16 81 60 bc 2e b7 39 bd
       -0.06890643 -0.08138049 -0.0137026515 -0.04534071
000140 7f 12 dd bd 1c 03 a0 bd 37 bd 10 bc 39 20 48 bd
       -0.107945435 -0.07813093 -0.008834175 -0.048858855
000150 c7 f4 da 3a 92 18 40 3c 25 fd 85 bd 6d 6f 9c bd
       0.0016705029 0.011724608 -0.06542424 -0.0763844
000160 b1 24 83 3c 71 98 0b bc 82 d9 85 bd 25 eb 87 bd
       0.016008707 -0.008520232 -0.06535627 -0.06636647
000170 38 a1 89 bd 99 a9 99 3b d9 ed 79 bc 0b 5e 2d 3d
       -0.06720203 0.004689407 -0.015254461 0.042326014
000180 77 7f 56 bd 7d 23 f4 3c 1e f3 bf bd c7 9f a6 3c
       -0.052367654 0.029802078 -0.09372543 0.02033986
000190 ce 2d e9 bc 19 75 bb bd 0d f3 27 3d 10 7d 8b bd
       -0.028464224 -0.09153194 0.041003276 -0.06810963
0001a0 63 04 47 bd f3 58 89 bc b6 e4 2e 3d bd 7b af bd
       -0.048588168 -0.016766047 0.042698584 -0.08568523
0001b0 59 df b7 bd 5b 2f 8a bd b2 7e 4c 3d 8d bc 6a bd
       -0.08978147 -0.067473136 0.049925514 -0.057308722
0001c0 85 08 a2 bd 58 0d 82 3d b9 44 4d bd 57 15 da bd
       -0.07911781 0.06350201 -0.050114367 -0.106486015
0001d0 87 31 92 3c 25 e3 19 3d 17 21 2f bd ef 0e 0d 3c
       0.017845882 0.037570138 -0.042756166 0.0086095175
0001e0 81 6a 83 3b 9f be bb bc 03 02 81 3c 60 6a 50 3d
       0.004010499 -0.022918044 0.01574803 0.050882697
0001f0 59 0e 37 3d 05 da 55 bc be a4 3a ba 7f c2 13 3d
       0.044691417 -0.013052468 -0.00071198854 0.036074158
000200 4a a5 c8 bd 09 d6 06 3d 38 8b 66 bc 8d 5d ed 3c
       -0.097971514 0.032918964 -0.014071278 0.028975273
000210 39 b6 78 bd cd 09 bc bd ad 41 0d 3d 92 8c 39 3d
       -0.060720656 -0.09181557 0.03448646 0.045300074
000220 2f 2b e4 3c b6 10 a2 bb c9 9f a7 bc be 10 5b bc
       0.027852623 -0.0049458398 -0.020461934 -0.013370691
000230 73 9c 7d 3c c1 7a 97 3c 5a 50 59 3c 12 cd 5d 3d
       0.015479195 0.01849115 0.013263786 0.05415065
000240 a0 15 26 bd ba 78 4d 3d 88 76 4f 3d bf bb 2f 3d
       -0.040547967 0.050163962 0.05065015 0.042903658
000250 ca d8 8b bd e0 85 a4 bd 94 f4 e6 bd 71 c4 af bd
       -0.068284586 -0.08033347 -0.11277118 -0.0858239
000260 75 43 b5 bd 4f 44 ab bd 72 ce 19 bd 65 5a e1 3c
       -0.08850757 -0.08362638 -0.037550397 0.027508924
000270 6e 76 5e bd 91 00 59 bd 48 a9 6d bb 25 dd 08 3d
       -0.054312162 -0.052979056 -0.003626423 0.033414025
000280 3a dc ca 3c 72 f8 b8 3a 12 5a 2a 3d 90 7d 13 3d
       0.024763215 0.0014112128 0.041589804 0.036008418
000290 55 a0 7a 3d 8b 3b 8d bc 08 cb 81 3c dc 9a 42 bd
       0.06118806 -0.017240306 0.015843883 -0.047510967
0002a0 ea 2f 0d bb dc 9f 58 bd ea 2b 89 bd 8f 41 52 bc
       -0.0021543452 -0.05288683 -0.06697829 -0.012833013
0002b0 28 0a b6 bb ea b4 33 3d f6 77 b1 3b 9b 4d 0c 3d
       -0.00555541 0.043873705 0.005415912 0.034253698
0002c0 f3 d8 60 3d 7d 28 79 bd 2a d6 06 bb 34 5c 17 bd
       0.0548944 -0.06082963 -0.002057443 -0.036953166
0002d0 21 c4 dd bd a7 94 8d 3d eb 05 81 bd 57 6b 37 3d
       -0.10828424 0.06913119 -0.06299957 0.0447801
0002e0 0b ca 04 3d 09 8b 2d 3d a1 65 e7 bd d0 fc c4 3c
       0.032419246 0.042368922 -0.11298681 0.024046332
0002f0 a8 82 dd bd c4 65 22 3d 0c e3 2c bd 23 7d 97 bd
       -0.10815936 0.039647833 -0.042208716 -0.07396915
000300 19 ef be bd 67 9b 09 bd bf 6f 5b 3b 38 d8 0c 3d
       -0.09322948 -0.03359547 0.0033483354 0.03438589
000310 82 58 f0 3c 40 39 d3 bb f7 9a 8d 3c 45 c2 64 bd
       0.029339079 -0.0064460337 0.017285807 -0.055849332
000320 cc d9 30 bd ca eb 47 ba 94 93 2c bd b9 24 d8 3c
       -0.043176457 -0.0007626383 -0.04213293 0.026384698
000330 39 21 27 3d 47 08 67 bd 05 e4 95 bd d2 4e 87 3d
       0.040803168 -0.05640438 -0.07318882 0.06606831
000340 44 b5 54 bd 4f b4 38 bd 95 52 fc bc f4 94 ee bc
       -0.05193068 -0.04509383 -0.030801097 -0.02912376
000350 2f 76 29 3c e8 13 a5 bd dd af 16 3d 05 61 b9 bd
       0.010343119 -0.080604374 0.03678881 -0.09051708
000360 49 61 af 3c f0 09 6f bc 8e 26 70 bd 40 be b9 3c
       0.021408694 -0.014589772 -0.05863052 0.022673726
000370 fb cb 9c bc 32 30 8c bd d3 a2 dc bb f9 ba e5 3c
       -0.019140234 -0.0684513 -0.0067332773 0.028043257
000380 94 ea af 3b 1f 4b b5 bd 58 4c 0b bc a4 16 b0 3c
       0.00536854 -0.08852219 -0.0085020885 0.02149517
000390 31 d0 69 3d 2a e6 4b bd ce ee 7e bc 66 91 8c 3b
       0.057083312 -0.04978005 -0.015559865 0.004289794
0003a0 54 c7 b3 bc 12 32 cc bd 74 a9 eb bc 97 a0 da 3a
       -0.021945633 -0.09970488 -0.028767325 0.001667994
0003b0 52 55 db 3c 73 33 5c bd ee dc 88 bd 3f 25 0f bd
       0.026774082 -0.053760003 -0.06682764 -0.03494763
0003c0 29 a2 1f 3b 28 07 57 3d 57 a2 45 3d d7 78 90 3c
       0.002435813 0.05249706 0.048250522 0.017635746
0003d0 8d 10 07 3b de 89 ad bd b5 64 00 bd 3e c0 77 bd
       0.002060923 -0.08473562 -0.03134604 -0.06048607
0003e0 df 74 41 bb ef dc 77 3d 1b e3 4d bc 54 6f 81 bd
       -0.0029519123 0.060513433 -0.012566353 -0.06320062
0003f0 9c 74 ea bc 5d 62 01 3c a1 c6 f3 3c 9c cd a7 bc
       -0.028620057 0.007896987 0.0297578 -0.020483784
