models/dqn_model_300.pth (torch, 480388 bytes, 6 tensors)

fc1.weight f4 [128, 400]
0	0xbc8c442a	-0.017122347
1	0x3d470ce3	0.048596274
2	0xbd11d230	-0.03560084
3	0xbcb01bf3	-0.021497702
4	0xbcdf4160	-0.027252853
5	0xbd46c467	-0.048527148
6	0x3cb1f708	0.021724239
7	0xbd274d3a	-0.040845133
8	0xbc256d71	-0.010096894
9	0x3ce65f9e	0.028121766
10	0xbc1c6dd4	-0.009547669
11	0x3a65f922	0.00087727804
12	0x3cc6c8e6	0.024265718
13	0xbc10cd2e	-0.008837981
14	0x3d3dd0cd	0.046341706
15	0x3cf90ac6	0.030400645
16	0x3d018bcc	0.03162746
17	0xbca960bd	-0.020676011
18	0xbc3c9e7b	-0.011512394
19	0x3d121779	0.035666917
20	0xbcdd900d	-0.027046228
21	0x3cfd55ce	0.030924704
22	0xbc3c7c93	-0.01150431
23	0x3c94b2bc	0.018151633
24	0x3c8ed945	0.017437587
25	0x3c46e02f	0.0121384105
26	0x3c977bce	0.018491652
27	0xbc43cd85	-0.011950855
28	0x3cd2b6f6	0.025722008
29	0x3cada648	0.021197453
30	0xbd12693f	-0.0357449
31	0xbb26a8dd	-0.002543024
32	0xbc6372d4	-0.013882358
33	0xbce5e5d0	-0.028063685
34	0x3c8fcb4a	0.01755299
35	0x3c652f3c	0.013988312
36	0xbc220b8c	-0.009890448
37	0x3cbe45d2	0.023226652
38	0x3c9ce2b2	0.019151065
39	0xbc432dfa	-0.011912817
40	0x3cdd2508	0.026995197
41	0xbd3d8f60	-0.04627931
42	0x3bd8f3c5	0.0066208565
43	0x3d0c28af	0.034218486
44	0xbd3ca222	-0.04605306
45	0xbd3a8d78	-0.04554507
46	0xbba9baf0	-0.0051797554
47	0xbc59b0a6	-0.013286745
48	0x3d424429	0.047428284
49	0xbd30b600	-0.04314232
50	0x3c0568d4	0.008142669
51	0x3be9e8d8	0.007138353
52	0xbd1c216b	-0.038117807
53	0xbcca587a	-0.024700392
54	0xbccd809d	-0.025085742
55	0x3cd95ccd	0.026533509
56	0x3cc4d0ba	0.02402531
57	0x3d3ed2c9	0.04658774
58	0xbcf0e597	-0.029406352
59	0x3b08787d	0.002082377
60	0x3c6d4965	0.014482831
61	0x3cc84024	0.024444647
62	0x3c124d9e	0.008929638
63	0xbc44c3e4	-0.012009595
64	0xbb8336e8	-0.004004348
65	0xbd0eaa28	-0.034830242
66	0x39252b00	0.00015751645
67	0xbcfd0a99	-0.030888842
68	0xbbcf3068	-0.006322909
69	0x3c96202e	0.018325891
70	0xbd2338f2	-0.03984923
71	0xbcb3eaf7	-0.021962626
72	0xbba1e528	-0.0049406476
73	0x3d39bb86	0.045344852
74	0xbcfd0517	-0.030886216
75	0x3c7afeb7	0.015319518
76	0xbd0b1c0a	-0.033962287
77	0xbd12129b	-0.035662275
78	0xbcfb2922	-0.030659262
79	0xbca1e50d	-0.01976254
80	0xbc236300	-0.009972334
81	0x3c6ce48c	0.014458787
82	0x3b9ac3d0	0.0047230497
83	0x3c8761e2	0.016526166
84	0x3c90f172	0.017693255
85	0x3cf94e1a	0.03043275
86	0x3cf0aed2	0.029380236
87	0x3c001e08	0.00781966
88	0xbcf4c710	-0.029880077
89	0xbb095eda	-0.0020961077
90	0x3ca506a2	0.020144764
91	0xbd16d508	-0.036824256
92	0x3c0ab7e6	0.008466696
93	0x3cbea463	0.023271745
94	0xbc05582f	-0.0081387
95	0x3d16ab0c	0.036784217
96	0x3b340786	0.0027470305
97	0xbc34ee02	-0.011043074
98	0xbd1ae3d6	-0.037814938
99	0x3d20c4b1	0.03925008
100	0xbcd2c769	-0.025729852
101	0x3d328899	0.0435873
102	0xbcd05733	-0.025432205
103	0xbd08bca4	-0.033383027
104	0xbd1caa58	-0.03824839
105	0xbcfc4ca3	-0.030798262
106	0x3d0e3e2d	0.034727264
107	0x3c92e04e	0.017929222
108	0x3cf1c57e	0.029513117
109	0xbcbb8b93	-0.022893703
110	0xbcac68a3	-0.021045988
111	0x3d27e1bd	0.040986765
112	0x3c4f8684	0.012666348
113	0x3c9b7538	0.018976793
114	0xbc329a73	-0.010901081
115	0xbc82d57c	-0.015970938
116	0xbd031298	-0.032000154
117	0xbd4700bf	-0.048584696
118	0xbd0c053c	-0.03418468
119	0xbd445fec	-0.04794304
120	0x3c170809	0.009218224
121	0x3ca5a706	0.020221245
122	0xbd255ced	-0.040371824
123	0xbcc46c9f	-0.023977576
124	0x3c5716bc	0.013127979
125	0x3d02b5bc	0.031911597
126	0xbb914f18	-0.0044344775
127	0xbcc87f93	-0.024474895
128	0x3d06830d	0.032839824
129	0xbd034459	-0.032047603
130	0x3ba7b1c3	0.0051176264
131	0x3c649767	0.013952113
132	0x3d2be622	0.04196752
133	0x3cfc3411	0.030786546
134	0x3c10db5f	0.008841365
135	0xbc630b51	-0.0138576785
136	0x3cd976b3	0.026545858
137	0x3ccb46ca	0.024814028
138	0xbc3ea54d	-0.01163609
139	0x3d333d1f	0.04375946
140	0xbbeb56b0	-0.007181965
141	0x3c86d94f	0.016461043
142	0xbc2d6568	-0.010583259
143	0xbd2772f8	-0.040881127
144	0x3ba34cfc	0.0049835425
145	0xbd27e36e	-0.04098838
146	0xbb89f75f	-0.004210397
147	0x3d242808	0.04007724
148	0x3d361a48	0.044458658
149	0xbc3a41d4	-0.011368234
150	0xbc3fc8a0	-0.011705548
151	0x3bb82470	0.005619578
152	0x3d33ae19	0.043867204
153	0x3b36bad5	0.0027882357
154	0x3d0cb741	0.034354452
155	0x3d263dfc	0.040586457
156	0x3d4b8135	0.04968377
157	0xbd25d6d3	-0.040488075
158	0xbb7fcb80	-0.0039031208
159	0x3cd5a0a4	0.026077576
160	0x3ceb7a25	0.028744766
161	0xbd38ca47	-0.04511478
162	0xbd523746	-0.051322244
163	0xbc4d1290	-0.012516633
164	0xbb723ef9	-0.0036963804
165	0xbc9a23d0	-0.018815905
166	0xbc712a1c	-0.014719512
167	0x3c9c1dad	0.01905712
168	0xbc4a064d	-0.012330604
169	0xbd36f527	-0.04466739
170	0x3c29ef24	0.010371957
171	0x3a47fb66	0.0007628709
172	0x3d37e5ea	0.044896998
173	0xbd21e4ff	-0.03952503
174	0x3c95237d	0.018205399
175	0x3c9e3d2b	0.019316277
176	0x3cd217e5	0.02564616
177	0xbbbfd0df	-0.005853757
178	0x3c84bc6d	0.01620313
179	0x3bcd2bc5	0.0062613213
180	0x3d076fc3	0.03306557
181	0x3cd741f7	0.026276572
182	0x3d2b5b59	0.041835163
183	0x3d3bbebc	0.045836195
184	0x3d3b3852	0.045708008
185	0xbd0e36bf	-0.03472018
186	0xbc82c3f7	-0.015962584
187	0xbd24e698	-0.040258974
188	0x3d372313	0.044711184
189	0xbd12a7f4	-0.035804704
190	0xbccb25a0	-0.024798214
191	0x3b8f4928	0.0043727346
192	0xbb695e20	-0.0035609081
193	0xbc823cc4	-0.015898116
194	0xbd22648d	-0.039646674
195	0x3d11b4e0	0.035572886
196	0xbd572e32	-0.05253429
197	0xbc893082	-0.016746763
198	0x3bfeeb3a	0.007779506
199	0x3c04f604	0.008115295
200	0xba9f55c0	-0.0012156293
201	0x3bb98818	0.0056619756
202	0x3d0422d5	0.03225978
203	0x3cd6b5da	0.02620976
204	0xbd3f81f4	-0.046754792
205	0xbd25bd06	-0.04046347
206	0x3d00d279	0.031450722
207	0x3ca05e9b	0.019576361
208	0xbd2faa03	-0.042886745
209	0xbc98f9e1	-0.018673839
210	0x3be02ee4	0.0068415273
211	0x3b243fe0	0.0025062487
212	0xbd17a876	-0.03702589
213	0x3c0a99e0	0.008459538
214	0x3d335250	0.04377967
215	0xbd4c6992	-0.049905367
216	0xbd0acd01	-0.033886913
217	0xbc72a6c0	-0.014810264
218	0x3cf97ea8	0.030455902
219	0xbd1b0e7d	-0.037855614
220	0xbcc25300	-0.023721218
221	0x3c4c8780	0.012483478
222	0xbd16b2f6	-0.036791764
223	0xbd354d6f	-0.0442633
224	0x3d1f7389	0.038928542
225	0xbcd05fca	-0.0254363
226	0x3c74596b	0.014913897
227	0x3ce2cb2c	0.02768477
228	0xbd08a825	-0.03336348
229	0x3d38f895	0.04515894
230	0x3d013443	0.03154398
231	0xbcc8e526	-0.024523329
232	0xba01c2eb	-0.00049500045
233	0x3cf5e160	0.030014694
234	0x3bad5050	0.005289115
235	0xbc1bfc34	-0.009520579
236	0xbcd8a307	-0.026444925
237	0xbd1fe94d	-0.039040852
238	0xba5c4ec0	-0.00084040686
239	0xbcb5d9f7	-0.02219866
240	0x3d280c0a	0.041027106
241	0xbc597dcb	-0.01327462
242	0xbd2440de	-0.040100925
243	0x3c818490	0.015810281
244	0xbd37c01a	-0.044860937
245	0x3cbf3722	0.023341719
246	0xbba2ac76	-0.0049644066
247	0x3d1de307	0.03854659
248	0xbc28f1ec	-0.010311585
249	0xbbd538e4	-0.006507026
250	0xbd1c1378	-0.038104504
251	0x3a5a1056	0.0008318474
252	0x3ce474a0	0.027887642
253	0x3cbfe6e9	0.023425536
254	0x3cfad30a	0.03061821
255	0xbc883c38	-0.016630277

fc1.bias f4 [128]
0	0xbd25e12f	-0.040497955
1	0x3cbb79f0	0.022885293
2	0x3c15f6b6	0.009153059
3	0x3a00104c	0.0004885241
4	0x3d99f74c	0.07517871
5	0xbb15ab5f	-0.002283774
6	0xbca7027e	-0.02038693
7	0xbd19e896	-0.037575327
8	0x3bf64e23	0.007516639
9	0xbd437f30	-0.047728717
10	0xba87c5be	-0.0010358614
11	0x3cbc01fe	0.022950169
12	0xbb8b4101	-0.0042496924
13	0xbd209373	-0.03920312
14	0xbb7bf871	-0.0038447643
15	0x3d770cbc	0.06031488
16	0xbc053b3d	-0.008131799
17	0x3d2b7d7e	0.041867726
18	0xbb128c0d	-0.0022361309
19	0xbc833832	-0.016018007
20	0x3befcf4e	0.007318414
21	0x3d4e09ee	0.05030244
22	0xbc1a6466	-0.009423351
23	0x3b6a440a	0.003574612
24	0x3c0b1c9c	0.008490708
25	0xbd2b9f01	-0.041899685
26	0x3c360f82	0.011112096
27	0xbcf860fd	-0.030319685
28	0xbd43052e	-0.04761236
29	0xbcb7666f	-0.022387711
30	0x3d9fb450	0.07798064
31	0xbc6581ec	-0.014008027
32	0xbca281ca	-0.019837279
33	0x3d36ad71	0.044599
34	0xbc63f071	-0.013912306
35	0x3c8362a8	0.016038254
36	0x3cef4ab7	0.029210432
37	0x3d48c41c	0.04901515
38	0x3cd468bc	0.025928847
39	0xbb6cb7a9	-0.0036120212
40	0x3c669433	0.014073419
41	0x3d2eb0f4	0.042649224
42	0xbd2fbabf	-0.042902704
43	0xbd059189	-0.032609496
44	0xbce069b0	-0.027394146
45	0x3cac0ed3	0.021003162
46	0xbbe096d2	-0.0068539167
47	0x3d19a17a	0.03750751
48	0x3dab2043	0.08355763
49	0x3d3cb7c3	0.046073686
50	0xbc9edb45	-0.019391665
51	0x3d1e682f	0.038673576
52	0xba5b2d3f	-0.0008360929
53	0x3d7d8a9e	0.061899774
54	0xba9724f0	-0.0011531394
55	0x3c61bb09	0.013777503
56	0xbceb4f83	-0.028724438
57	0x3d0f67e9	0.035011206
58	0x3bf5e068	0.007503558
59	0x3ba5c559	0.005058926
60	0xbcfacedd	-0.030616218
61	0x3c9e78b3	0.019344663
62	0x3b2b050b	0.0026095535
63	0x3d124c17	0.035717096
64	0x3d7295fc	0.059225067
65	0x3c832f68	0.016013816
66	0xbcfcfb3a	-0.030881513
67	0xbd280faa	-0.041030563
68	0xbd5bb615	-0.053640444
69	0xbd39e30e	-0.04538255
70	0x3d2cb6a4	0.042166367
71	0xbd5451d2	-0.051835842
72	0xbc57e713	-0.013177651
73	0xba8e5240	-0.0010858253
74	0x3ba03401	0.004889012
75	0x3b9c861a	0.0047767283
76	0x3d08adb3	0.033368777
77	0x3d20fb46	0.039302133
78	0x3d40327e	0.046923153
79	0x3cba0d2e	0.022711363
80	0x3cd3fea9	0.025878267
81	0x3cda2030	0.026626676
82	0x3ccecba4	0.025243588
83	0xbc3f3a64	-0.011671636
84	0x3cdd1096	0.026985448
85	0xbd2ffa69	-0.04296342
86	0x3c8e01c9	0.017334836
87	0xbcff2283	-0.031144386
88	0xbc03d553	-0.008046466
89	0xbc0dec76	-0.008662334
90	0x3cbbbaf6	0.022916298
91	0xbcce8b19	-0.025212811
92	0x3d23e7fb	0.040016156
93	0x3c4fbe30	0.012679622
94	0xbcde0930	-0.02710399
95	0x3d6959ae	0.05697029
96	0x3cedaf24	0.029014178
97	0xbc8133d6	-0.015771788
98	0x3d3a3609	0.04546169
99	0x3cb03221	0.021508278
100	0xbca983b0	-0.020692676
101	0xbcadfa16	-0.021237414
102	0xbd4313b9	-0.04762623
103	0xbc22df15	-0.009940882
104	0x3bea531d	0.007151021
105	0x3b883601	0.0041568284
106	0x3c908d0e	0.017645385
107	0xbd3c2850	-0.045936882
108	0x3d5902fa	0.052981354
109	0x3d168029	0.036743317
110	0x3d87ec1b	0.066368304
111	0x3d3f31c0	0.046678305
112	0xbcf4cd46	-0.029883038
113	0xbd35a504	-0.044346824
114	0x3be951bc	0.007120339
115	0x3d8a98e5	0.067674436
116	0x3d71a745	0.05899741
117	0x3d8c978f	0.06864845
118	0x3d80ed3d	0.062952496
119	0x3b7014b1	0.0036633427
120	0x3c55aab9	0.013041192
121	0x3ba52e6f	0.0050409357
122	0xbc747044	-0.014919344
123	0xbd3da73d	-0.04630207
124	0x3cbe2d6b	0.023215016
125	0x3da20477	0.07911008
126	0xbce3d27f	-0.027810333
127	0x3d3cff8d	0.04614215

fc2.weight f4 [128, 128]
0	0xbd8895b4	-0.066691786
1	0xbd1e5257	-0.038652744
2	0xbc9e61b6	-0.019333702
3	0xbb7ef6d7	-0.0038904452
4	0x3d551be9	0.05202857
5	0x3d92348d	0.071389295
6	0x3c7b45a6	0.01533643
7	0xbc49d4a7	-0.012318767
8	0x3d950ccd	0.07277832
9	0x3ce41c31	0.027845474
10	0xbd9d2eda	-0.07674952
11	0xbd762a02	-0.060098656
12	0x3d874fa3	0.066069864
13	0xbd13815e	-0.036012046
14	0x3d162ebc	0.036665663
15	0x3ccbd8c0	0.024883628
16	0x3d03c0b8	0.032166213
17	0xbd63759b	-0.05553208
18	0x3db016ba	0.08598085
19	0xbccb6e55	-0.024832884
20	0x3bc246f4	0.0059288684
21	0x3bcf812e	0.006332538
22	0xbd0fac18	-0.03507623
23	0xbd2dcb16	-0.042430006
24	0x3d2fcb22	0.042918332
25	0xbd57ad5c	-0.052655563
26	0xbd4cea1d	-0.050027955
27	0x3c2d2193	0.010567087
28	0x3cecaa37	0.028889759
29	0xbd96a89a	-0.07356377
30	0xbd82b989	-0.06383044
31	0xbd889893	-0.06669726
32	0xbd23081f	-0.039802667
33	0x3cbc4a40	0.022984624
34	0xbcd99d43	-0.026564246
35	0xbc973c67	-0.01846142
36	0x3c15040b	0.009095202
37	0xbd83c6e2	-0.06434418
38	0xb90f0021	-0.00013637591
39	0xbd78d1c0	-0.06074691
40	0xbbce7602	-0.0063006887
41	0x3c29cc3c	0.010363635
42	0xbd0bef91	-0.034164015
43	0x3c82fdd6	0.015990179
44	0xbd23c4f7	-0.039982762
45	0xbd2b5860	-0.041832328
46	0xbd6d977b	-0.05800579
47	0x3db0e50d	0.08637438
48	0xbd7a2689	-0.061071906
49	0xbd945d7e	-0.07244395
50	0xbcea0b04	-0.028569706
51	0x3dbc88cf	0.09205782
52	0xbda669f1	-0.081256755
53	0xbd4aa22b	-0.04947106
54	0x3c685e6f	0.014182671
55	0x3db5e4a5	0.08881501
56	0x3c9ea1bc	0.01936423
57	0x3c960afc	0.018315785
58	0x3d71e490	0.059055865
59	0xbd29d829	-0.041465912
60	0x3d4c3dba	0.049863555
61	0x3cc820fd	0.024429793
62	0x3d003d9d	0.03130876
63	0x3db7c51a	0.08973141
64	0x3c8720b1	0.01649508
65	0x3d08ca5b	0.033396106
66	0xbced8db6	-0.028998237
67	0x3c7382f8	0.014862768
68	0x3d038d78	0.032117337
69	0x3d7b0fa2	0.061294205
70	0x3dae675e	0.085158095
71	0xbd35cda7	-0.04438558
72	0x3dba9234	0.09109917
73	0xbcd63448	-0.026147977
74	0xbd4c0a35	-0.04981442
75	0xbce6491f	-0.028111039
76	0x3d84dfcd	0.06487999
77	0x3d94b04e	0.0726019
78	0x3d000b91	0.03126103
79	0xbd7504c2	-0.05981899
80	0x3da4f20d	0.0805398
81	0xbd3519f9	-0.044214223
82	0x3d9cf5d9	0.07664079
83	0x3d9e6594	0.07734218
84	0x3d44faa2	0.048090585
85	0xbd6e82a7	-0.05823007
86	0x3da888c7	0.08229213
87	0xbd52f022	-0.05149854
88	0xbd83c674	-0.06434336
89	0xbd617989	-0.055047546
90	0xbda2b0eb	-0.07943901
91	0x3d45bfe7	0.048278715
92	0x3cac7e10	0.021056205
93	0xbd431ee5	-0.047636885
94	0x3cb18551	0.021670016
95	0x3d79fd05	0.061032314
96	0x3dc65461	0.09684063
97	0x3d5f5420	0.054523587
98	0x3da27fd7	0.0793454
99	0xbd412f77	-0.047164407
100	0x3d7c69c1	0.061624292
101	0xbda9434e	-0.082647905
102	0x3ce196d1	0.027537735
103	0xbd42fcab	-0.047604244
104	0x3cb920b7	0.022598607
105	0xbda344e4	-0.07972124
106	0xbd80b011	-0.06283582
107	0xbc16070c	-0.009156954
108	0x3cddf8f5	0.027096251
109	0x3da1d359	0.079016395
110	0xbd205a30	-0.03914851
111	0x3d74c738	0.059760302
112	0xbd62b594	-0.055348948
113	0xbda2e3ba	-0.07953592
114	0x3d0e8e33	0.03480358
115	0x3d466379	0.04843471
116	0x3d2434a5	0.04008927
117	0x3d1f8d6b	0.038953226
118	0xb9c36f86	-0.0003727639
119	0xbbe06664	-0.0068481434
120	0x3dae4fae	0.085112914
121	0xbd107a91	-0.03527314
122	0xbcbc72fc	-0.023004048
123	0x3c7299db	0.01480719
124	0x3a665b40	0.0008787401
125	0x3c7d0273	0.0154424785
126	0x3d95144d	0.07279263
127	0x3d406f7f	0.04698133
128	0xbda50a0f	-0.08058559
129	0x3d9e44d7	0.07727974
130	0xbd88e768	-0.06684762
131	0xbd3ea31a	-0.046542265
132	0xbca88902	-0.020573143
133	0xbd51d880	-0.05123186
134	0xbd8c34b6	-0.06845991
135	0x3d10aadd	0.035319198
136	0xbc367387	-0.011135942
137	0xbc84d547	-0.01621498
138	0xbbcd2460	-0.0062604398
139	0xbcc9ffa6	-0.024658035
140	0xbdaac9e4	-0.08339289
141	0xbbac33ed	-0.0052552135
142	0xbd8fc916	-0.07020776
143	0xbc1b34a2	-0.009472998
144	0xbd2eee44	-0.042707697
145	0x3c2040dc	0.009781089
146	0xbc2004c9	-0.009766766
147	0x3d9753eb	0.07389053
148	0x3d3cc068	0.04608193
149	0xbcf3e3e0	-0.029771745
150	0x3d746917	0.059670534
151	0x3a96bac9	0.0011499758
152	0x3cec3a10	0.02883628
153	0x3b6bcf4e	0.0035981718
154	0x3d5b0f81	0.053481583
155	0x3c99c61e	0.018771227
156	0xbc3ac64b	-0.011399816
157	0xbd7c51b9	-0.061601374
158	0x3cc76bc6	0.024343383
159	0xbd79fa33	-0.061029624
160	0xbd43f4ff	-0.04784107
161	0x3da404cd	0.08008728
162	0x3cf4e4c1	0.029894235
163	0x3da0862d	0.07838092
164	0xbda20912	-0.07911886
165	0xbdc24341	-0.09485484
166	0x3d86d0f9	0.06582827
167	0x3d0f3806	0.034965537
168	0xbc1879ab	-0.009306352
169	0x3da868a9	0.08223087
170	0x3d48c7d3	0.049018692
171	0x3ba8cc65	0.005151319
172	0xbc919fc3	-0.017776376
173	0x3c624c1e	0.013812093
174	0xbc53dfb3	-0.012931752
175	0xbdc08162	-0.09399678
176	0xbd932420	-0.07184625
177	0xbc9697b9	-0.018382894
178	0x3d37dc27	0.044887688
179	0x3d2e0e52	0.042494126
180	0xbc373982	-0.0111831445
181	0xbc34d469	-0.011036971
182	0x3b98a2da	0.0046580853
183	0xbd29f8c4	-0.041497007
184	0x3d0e8437	0.03479406
185	0x3db305ed	0.08741365
186	0x3b9ff640	0.00488165
187	0xbd2d64a4	-0.042332307
188	0xbd2e6820	-0.04257977
189	0xbbb70024	-0.0055847336
190	0x3d975c15	0.0739061
191	0xbd96d8ab	-0.07365545
192	0x3b8ef926	0.004363197
193	0xbad87a02	-0.0016515853
194	0x3da1927f	0.0788927
195	0x3cda4893	0.026645934
196	0xbdbdc13c	-0.09265372
197	0x3ba0a7c5	0.004902812
198	0xbd176ca8	-0.036968857
199	0xbcb06724	-0.021533556
200	0x3d8d999d	0.06914065
201	0x3d39ec90	0.04539162
202	0x3d88bef5	0.06677047
203	0xbb8b9845	-0.0042600953
204	0x3d20d2cd	0.039263535
205	0xbc133c7e	-0.00898659
206	0x3d6d03c2	0.05786491
207	0xbd8f7bb8	-0.07006019
208	0xbd103b23	-0.035212647
209	0x3b96d98f	0.0046035717
210	0x3d938411	0.07202924
211	0x3c6ba303	0.014382127
212	0xbd37706f	-0.04478496
213	0xbc61cdc0	-0.013781965
214	0x3d5c1c5b	0.05373798
215	0x3d1b3790	0.037894785
216	0x3dac1b7f	0.08403682
217	0x3c94944a	0.018137116
218	0x3d6db2c5	0.058031816
219	0x3d69e431	0.057102386
220	0xbda81846	-0.08207755
221	0x3d84c172	0.06482209
222	0xbda2412b	-0.07922586
223	0xbd582a89	-0.05277494
224	0xbc2f5b07	-0.010702855
225	0xbd865d7b	-0.06560799
226	0x3d02007b	0.03173874
227	0xbd93a973	-0.07210054
228	0xbca696e0	-0.020335615
229	0x3cb28778	0.021793112
230	0xbd1c7921	-0.038201455
231	0xbcf06695	-0.02934579
232	0x3db11c38	0.086479604
233	0x3c4a140a	0.012333879
234	0x3d1b3175	0.037888963
235	0x3d2a90b9	0.041641925
236	0x3c5424eb	0.012948255
237	0x3c9e7a23	0.019345349
238	0x3d2065e5	0.039159674
239	0xbc8c71fe	-0.0171442
240	0xbd925571	-0.07145203
241	0xbce84636	-0.028353792
242	0x3ccb5d3b	0.02482473
243	0x3d4f30f0	0.05058378
244	0x3d63e138	0.055634707
245	0x3da49bb4	0.080375105
246	0xbc8abd52	-0.016935978
247	0xbd014b80	-0.031566143
248	0xbd1dda75	-0.038538415
249	0x3d55897b	0.052133065
250	0x3ce29851	0.02766052
251	0xbda8c32a	-0.082403496
252	0xbb510cc7	-0.0031898485
253	0x3d0817c3	0.033225786
254	0xbc5fce08	-0.0136599615
255	0xbd4ffab5	-0.050776202

fc2.bias f4 [128]
0	0x3d08a2f3	0.033358525
1	0xbd670f2e	-0.05641096
2	0x3dbf35cd	0.093364336
3	0x3b8d7666	0.0043170927
4	0xbd5a734a	-0.053332604
5	0xbc9d4fcf	-0.019203095
6	0xbcf2c8f4	-0.029636838
7	0xbd13c419	-0.036075685
8	0x3d4fe0fa	0.050751664
9	0xbd118cd8	-0.03553471
10	0xbc47d897	-0.012197635
11	0x3c13215e	0.008980123
12	0x3cc851a6	0.024452996
13	0xbd4505b8	-0.048101157
14	0x3ce5e59c	0.028063588
15	0x3c5ce23f	0.013481676
16	0x3c8ecadd	0.017430717
17	0x3dbe96c1	0.09306098
18	0x3d920a4b	0.071308695
19	0xbc69e24e	-0.014275147
20	0xbd0c2a8a	-0.034220256
21	0xbd32eea4	-0.043684617
22	0x3cc26e9b	0.023734381
23	0x3c61702a	0.013759652
24	0x3c70bc56	0.01469334
25	0xbd711ab9	-0.058863375
26	0x3c0950e2	0.0083811
27	0xbc96f5fa	-0.018427838
28	0x3d32745d	0.043568004
29	0xbd1780a0	-0.0369879
30	0xbd397115	-0.04527386
31	0x3c0f1e05	0.008735185
32	0x3d88f03f	0.06686448
33	0xbca8098e	-0.020512369
34	0xbd8dc61b	-0.06922551
35	0xbd8ebf10	-0.06970036
36	0x3d86509b	0.06558343
37	0x3d6147d3	0.055000138
38	0xbd75ea4e	-0.060037903
39	0xbbe0e163	-0.0068628057
40	0xbce27129	-0.02764185
41	0x3d542218	0.051790327
42	0xbd388f57	-0.045058575
43	0x3d9b1eed	0.07574258
44	0x3d84efd0	0.06491053
45	0xbd72dfb6	-0.05929538
46	0xbcd25d24	-0.025679179
47	0xbd03a9f6	-0.03214451
48	0xbc9a9743	-0.018870955
49	0xbd32015d	-0.04345833
50	0xbd96463b	-0.07337614
51	0x3d0a9d75	0.03384157
52	0x3da645f7	0.081188135
53	0xbd217489	-0.039417777
54	0x3d9956b0	0.074872375
55	0x3d83664b	0.06415995
56	0xbd492caf	-0.04911488
57	0x3cbcec1e	0.023061808
58	0x3caa8e14	0.020819701
59	0x3c867e19	0.01641755
60	0x3db9d26f	0.0907334
61	0xba3c020e	-0.0007171937
62	0xbd9c3e35	-0.076290525
63	0xbdb3fa81	-0.08788014
64	0xbdab17a2	-0.08354117
65	0xbc418c1c	-0.01181319
66	0xbd2b7bc5	-0.041866083
67	0x3d15f6ee	0.036612444
68	0x3d924a14	0.071430355
69	0x3d30502f	0.04304522
70	0x3cce2031	0.025161834
71	0xbd9bec6a	-0.07613452
72	0xbc09f191	-0.00841941
73	0x3c0c6041	0.008567871
74	0x3ac76017	0.0015211132
75	0xbd3c5f5c	-0.04598938
76	0x3c191bad	0.009344977
77	0xbd0606d3	-0.03272135
78	0xbdad245d	-0.08454201
79	0x3c0721f7	0.008247844
80	0xbdb1a3b2	-0.086738005
81	0xbc8d467b	-0.017245522
82	0xbd65170c	-0.055930182
83	0x3d5d7c28	0.054073483
84	0xbd675015	-0.056472857
85	0x3ba26bd5	0.0049567022
86	0x3d9eb83f	0.07749986
87	0x3d400373	0.04687829
88	0xbd8cb7e4	-0.06871012
89	0x3d911320	0.07083726
90	0x3d4ca9a0	0.049966455
91	0xbc8fed5d	-0.017569238
92	0x3d81a4df	0.06330275
93	0x3d846d58	0.06466168
94	0x3ba52ceb	0.005040755
95	0xbc2987bb	-0.010347302
96	0x3d585895	0.052818853
97	0xbbac7dff	-0.0052640433
98	0x3c54db52	0.012991743
99	0xbdb6b60b	-0.08921441
100	0x3d853793	0.065047406
101	0xbd005158	-0.031327575
102	0xbc30eb5a	-0.0107983
103	0xbd97cc59	-0.07412023
104	0x3d32f44f	0.043690022
105	0x3c22ba38	0.009932093
106	0xbcad008a	-0.021118421
107	0x3bccf0f6	0.0062543107
108	0x3d165478	0.03670165
109	0xbdac590a	-0.0841542
110	0xbd51d1c7	-0.05122545
111	0xbd428564	-0.047490492
112	0x3c1bcd4f	0.009509399
113	0xbda69377	-0.081335954
114	0xbcf33ca3	-0.029692
115	0x3bcf8d24	0.006333964
116	0x3ca904ed	0.020632232
117	0xbce14fb9	-0.027503835
118	0xbb920b8c	-0.004456943
119	0xbcdc6eea	-0.026908357
120	0xbd846f53	-0.06466546
121	0x3d689462	0.056782134
122	0xbb9458af	-0.0045271735
123	0xbc62c807	-0.013841636
124	0xbcfd2e60	-0.030905902
125	0xbd950e02	-0.072780624
126	0xbd97805c	-0.073975295
127	0xbce7b311	-0.028283628

fc3.weight f4 [400, 128]
0	0xbd3db717	-0.046317186
1	0xbd8e0930	-0.06935346
2	0xbd8728fd	-0.06599615
3	0x3d51f664	0.051260367
4	0xbca60a34	-0.020268537
5	0xbd5e8625	-0.05432715
6	0xbdb08a82	-0.08620168
7	0x3dacc8cd	0.08436737
8	0x3d0abe7d	0.03387307
9	0x3d1ff72e	0.03905409
10	0x3d87af94	0.06625286
11	0xbdb65f6d	-0.0890492
12	0xbda00b13	-0.07814612
13	0xbd18ee70	-0.037336767
14	0xbd502a29	-0.050821457
15	0x3d406773	0.046973657
16	0x3d8128b7	0.06306594
17	0xbd8d2483	-0.0689173
18	0xbd17abe7	-0.037029173
19	0xbd6689ed	-0.05628388
20	0xbd41de22	-0.047330983
21	0xbc9942c0	-0.018708587
22	0x3d0867ad	0.033301998
23	0xbc7a0ae7	-0.015261388
24	0xbc2819a6	-0.010260021
25	0xbc28d9d8	-0.010305844
26	0xbda2ea8e	-0.07954894
27	0xbd62d514	-0.05537899
28	0x3d2d0dc2	0.04224945
29	0x3cf4b1e8	0.029869989
30	0xbd35ee57	-0.04441675
31	0x3d21e67e	0.039526455
32	0xbd67fef6	-0.056639634
33	0x3d98f5c1	0.07468749
34	0x3c1d37b0	0.0095957965
35	0x3b8223f0	0.0039715692
36	0xb89bd08e	-7.429822e-05
37	0x3d8cd828	0.06877166
38	0xbd880705	-0.06641964
39	0x3a82ef40	0.0009989515
40	0xbd8e0eb4	-0.06936398
41	0xbd88a34f	-0.06671774
42	0xbdb2466d	-0.08704839
43	0x3d8b2bda	0.067954734
44	0x39768511	0.0002350996
45	0xbcfde5fc	-0.030993454
46	0x3d09e8ec	0.033669397
47	0xbd955c50	-0.07292998
48	0x3d40594d	0.046960164
49	0xbd0d8fe5	-0.034561057
50	0xbd3439c1	-0.04400039
51	0xbd1a48e5	-0.037667174
52	0x3d61aa1a	0.055093862
53	0x3ccb4220	0.024811804
54	0xbd82fd42	-0.06395961
55	0x3b971380	0.004610479
56	0x39a44f00	0.00031339377
57	0xbd3988ed	-0.0452966
58	0x3cff8a6e	0.031193938
59	0xbd8d3791	-0.06895364
60	0xbd06e140	-0.03292966
61	0xbd49582f	-0.049156364
62	0xbd3332c2	-0.04374958
63	0xbc9d1978	-0.019177184
64	0x3d893b41	0.06700755
65	0xbdafc55c	-0.08582565
66	0xbd755e40	-0.059904337
67	0xbd7720d8	-0.060334057
68	0x3d3f2520	0.046666265
69	0xbc426923	-0.011865887
70	0x3d648018	0.055786222
71	0x3c8834d0	0.016626745
72	0x3d8e971e	0.06962417
73	0x3b985105	0.00464833
74	0xbbcf68c0	-0.006329626
75	0x3cd62c5d	0.026144201
76	0xbc1aa5ff	-0.009438991
77	0xbda773a0	-0.081763506
78	0xbd70139f	-0.058612462
79	0x3d9b5ee3	0.075864576
80	0xbb21d840	-0.0024695545
81	0xbd50896c	-0.050912306
82	0xbd919a78	-0.07109541
83	0xbcd2cf33	-0.025733566
84	0x3bf69b30	0.007525824
85	0xbd5d0696	-0.05396136
86	0xbd762a51	-0.06009895
87	0xbda8260c	-0.08210382
88	0x3d0485f4	0.03235431
89	0xbd8d09a6	-0.06886606
90	0xbb6e944e	-0.0036404314
91	0xbccebd6c	-0.025236808
92	0xbb86087d	-0.0040903674
93	0xbcdf5b66	-0.027265262
94	0x3d8b392f	0.06798016
95	0xbd857384	-0.065161735
96	0x3ccd5fd8	0.025070116
97	0x3d7f672e	0.06235426
98	0xbd9baaf7	-0.07600968
99	0x3d9b8453	0.07593598
100	0xbdaabc7a	-0.0833673
101	0x3ce2e998	0.027699277
102	0xbd2fa228	-0.042879254
103	0x3c221eb6	0.009895017
104	0xbda87c11	-0.08226789
105	0xbd7aa4f3	-0.061192464
106	0xbd7fa877	-0.06241652
107	0xbceb813d	-0.028748149
108	0xbce363b7	-0.027757509
109	0xbc188b38	-0.009310536
110	0xbc5c7ff8	-0.0134582445
111	0x3da7fa6b	0.0820206
112	0xbd6081e9	-0.054811392
113	0xbd3d2988	-0.046182185
114	0x3c680978	0.014162414
115	0x3c2d1d88	0.010566123
116	0xbc428c18	-0.011874221
117	0x3d7e040e	0.062015586
118	0xbd9bde1b	-0.07610723
119	0x3c9eb0f8	0.019371495
120	0x3d91b0a1	0.071137674
121	0x3d4bf573	0.049794625
122	0xbc944360	-0.018098533
123	0xbcfe4c18	-0.031042144
124	0x3caccf40	0.021094918
125	0x3db4b065	0.08822707
126	0xbd390351	-0.04516918
127	0xbd9af126	-0.07565527
128	0xbda3331e	-0.07968734
129	0xbd90d52e	-0.07071911
130	0x3da5c57e	0.08094309
131	0x3c4ef100	0.012630701
132	0x3cc2b41b	0.023767522
133	0xbb1733e0	-0.0023071691
134	0xbd8c83cc	-0.06861076
135	0xbd3698eb	-0.044579428
136	0xbd50f376	-0.051013432
137	0x3d2699a4	0.040673867
138	0x3cc440ec	0.023956738
139	0x3d7d3069	0.061813746
140	0x3ce9b088	0.02852656
141	0xbd35cd75	-0.044385392
142	0x3da5d3ee	0.08097063
143	0xbc6c8e2b	-0.014438192
144	0xbc41a412	-0.011818903
145	0x3d00eb82	0.031474598
146	0x3d8d7ced	0.06908593
147	0xbd5c4bc9	-0.05378321
148	0x3d7a6362	0.061129935
149	0x3c8863bb	0.016649118
150	0x3c8a2646	0.016863953
151	0x3d96d164	0.07364157
152	0x3d7d787b	0.061882477
153	0xbd22b176	-0.03972002
154	0x3b9b1a10	0.0047333315
155	0x3d28a4b6	0.041172706
156	0x3d5d96a6	0.054098748
157	0xbd677b89	-0.056514297
158	0xbd5cb57d	-0.05388402
159	0x3d91fc93	0.07128253
160	0xbccd5e14	-0.025069274
161	0xbdb4106e	-0.08792196
162	0xbdac4fc7	-0.08413654
163	0x3d0d0682	0.034430034
164	0x3d800b8a	0.06252201
165	0x3c9ac55c	0.018892936
166	0x3d608db6	0.054822646
167	0x3d97dc46	0.07415061
168	0x3d4f944e	0.050678544
169	0xbc55aea2	-0.013042124
170	0x3c870a44	0.016484387
171	0xbc6120da	-0.013740743
172	0x3caf7979	0.021420227
173	0x3db11445	0.08646444
174	0xbda2a808	-0.07942206
175	0x3d94ba86	0.07262139
176	0x3c9608a0	0.01831466
177	0xbc502668	-0.012704469
178	0xbcccf598	-0.025019452
179	0xbd2e6b88	-0.04258302
180	0xbd39512c	-0.045243427
181	0x3da33c03	0.07970431
182	0xbd032cdc	-0.032025203
183	0x3a7c32f7	0.00096206315
184	0x3daa67ad	0.08320556
185	0xbdb382b9	-0.08765168
186	0xbdb8e3ef	-0.0902785
187	0xbd2afbaa	-0.04174391
188	0xbda0168e	-0.07816802
189	0x3da29707	0.079389624
190	0x3d34e192	0.044160433
191	0x3d587e7e	0.052855007
192	0xbce71f2e	-0.02821311
193	0x3d36d65b	0.04463802
194	0x3d86a955	0.06575266
195	0x3d511106	0.051041625
196	0x3d07aebe	0.03312563
197	0x3d8aed82	0.06783582
198	0xbd5247e7	-0.051338103
199	0xbd844668	-0.064587414
200	0xbc120b58	-0.008913837
201	0x3d6d4784	0.05792953
202	0xbc371fb3	-0.011176991
203	0xbdae5663	-0.08512571
204	0xbc162a50	-0.0091653615
205	0x3ced0580	0.028933287
206	0x3c9c1b34	0.01905594
207	0xbda08811	-0.078384526
208	0x3d46065e	0.048345916
209	0xbd4e55bb	-0.050374728
210	0x3c8c49f8	0.017125115
211	0xbdac9386	-0.08426575
212	0x3d7d886e	0.061897688
213	0x3d60a7fa	0.054847695
214	0x3a926440	0.0011168793
215	0x3d7022d6	0.058626972
216	0x3c913f78	0.01773046
217	0xbce94d88	-0.028479353
218	0xbcdc236c	-0.02687236
219	0xbd1a0a70	-0.03760761
220	0xbd673e33	-0.056455802
221	0xbc84c9d3	-0.016209519
222	0xbb963b40	-0.0045847
223	0x3d591d96	0.05300673
224	0x3da3ba68	0.079945385
225	0x3d64c326	0.05585017
226	0x3d9b8e6b	0.075955234
227	0x3dacd861	0.084397085
228	0xbd9216fa	-0.07133289
229	0xbd8b4fee	-0.06802355
230	0xbd03a643	-0.03214098
231	0xbd2666a5	-0.040625233
232	0xbd707031	-0.058700744
233	0xbd7d6cfe	-0.06187152
234	0xbaa028e5	-0.0012219219
235	0x3d975870	0.07389915
236	0xbd9b5848	-0.07585198
237	0x3cb96940	0.022633195
238	0xbdb2890e	-0.08717547
239	0xbd043780	-0.03227949
240	0x3bfac0f8	0.007652398
241	0x3d644e2e	0.05573862
242	0xbc671870	-0.014104947
243	0xbd93b8db	-0.07212993
244	0xbd4f9965	-0.050683398
245	0xbd894509	-0.067026205
246	0xbd1aa366	-0.037753485
247	0xbb9dfdd0	-0.0048215166
248	0x3dac85f7	0.08423989
249	0x3d866b4e	0.065634355
250	0x3d941945	0.07231382
251	0xbd90d1f5	-0.07071296
252	0xbc52ba48	-0.012861796
253	0xbdac5783	-0.08415129
254	0xbcf1942e	-0.029489603
255	0xbd8893fd	-0.066688515

fc3.bias f4 [400]
0	0xbdabff66	-0.08398323
1	0xbd12e387	-0.03586152
2	0xbcbfc90d	-0.023411298
3	0x3d9779f2	0.07396306
4	0xbd8869d7	-0.06660812
5	0x3b9b7f8d	0.00474543
6	0x3d429120	0.047501683
7	0xbc95f750	-0.018306404
8	0xbcb59833	-0.0221673
9	0xbdb23c10	-0.08702862
10	0xbd1e1aae	-0.038599662
11	0xbd970c12	-0.07375349
12	0xbd6fe4ad	-0.05856769
13	0x3c56f7f3	0.013120639
14	0x3d623836	0.05522939
15	0xbd575950	-0.05257541
16	0x3d8b3dd7	0.067989044
17	0xbd3287e1	-0.043586615
18	0x3d88917b	0.06668373
19	0xbdac4129	-0.08410866
20	0xbb15f93d	-0.0022884153
21	0xbd26a823	-0.04068769
22	0x3c37199b	0.011175538
23	0x3d519e73	0.0511765
24	0x3d083d1e	0.03326141
25	0x3d801806	0.06254582
26	0xbc7566d0	-0.014978126
27	0x3d5e97de	0.05434405
28	0x3d463a41	0.0483954
29	0xba2773da	-0.00063878077
30	0x39ef9fa6	0.0004570458
31	0x3ce99da2	0.028517548
32	0xbc74de08	-0.0149455145
33	0x3bb1995d	0.0054198937
34	0xbcbf69e8	-0.02336593
35	0xbdabb563	-0.08384206
36	0x3c69ef29	0.014278212
37	0x3d881288	0.066441596
38	0xbc3b2d58	-0.011424385
39	0x3cffca78	0.031224474
40	0x3cac97b5	0.021068433
41	0xbd8a806b	-0.06762775
42	0xbcf66def	-0.030081717
43	0x3c3e5c70	0.0116187185
44	0xbdb23b7f	-0.08702754
45	0x3c9f39f9	0.019436823
46	0xbc24459a	-0.01002636
47	0x3d026971	0.031838838
48	0xbd353c3a	-0.04424689
49	0xbd3a2139	-0.04544184
50	0x3cd11ab4	0.025525428
51	0x3ca79c8c	0.02046039
52	0x3b38174c	0.0028090058
53	0x3d63803d	0.05554222
54	0x3c813413	0.015771901
55	0x3c8b06d4	0.01697103
56	0xbce49ff0	-0.027908295
57	0xbc816864	-0.015796848
58	0xbc1c32a8	-0.009533562
59	0xbd0cce4e	-0.034376435
60	0x3d1363a2	0.03598369
61	0x3c9f58b8	0.019451484
62	0xbba0ad42	-0.0049034664
63	0x3d833b79	0.06407828
64	0xbd815f12	-0.06316961
65	0xbc6653c8	-0.014058061
66	0xbc925329	-0.01786192
67	0x3d32274c	0.043494508
68	0xbd83e123	-0.06439426
69	0xbd4e7956	-0.050408684
70	0x3cc25e0e	0.02372649
71	0xbc551b44	-0.013006989
72	0xbdb783a5	-0.08960656
73	0xbda81dba	-0.08208795
74	0xbcfd70ba	-0.030937541
75	0x3c9dee4f	0.019278673
76	0xbd45975c	-0.04824005
77	0xbd6ab69d	-0.05730306
78	0x3c09c2f7	0.0084083
79	0xbccf304e	-0.025291588
80	0xbda94222	-0.08264567
81	0xbd664212	-0.056215353
82	0x3b4d9bc0	0.0031373352
83	0xbcd03a1c	-0.025418334
84	0x3ca948b4	0.02066455
85	0x3cdf7403	0.027276998
86	0xbd3b4a15	-0.045724947
87	0xbd6d60a2	-0.057953484
88	0x3d00fbfb	0.031490307
89	0x3c4c4a8d	0.012468946
90	0xbd3f4834	-0.046699718
91	0xbd278f97	-0.040908422
92	0xbd40305d	-0.046921123
93	0x3c92ac53	0.017904436
94	0x3b8a316f	0.0042173187
95	0x3d5cbd88	0.05389169
96	0xbcfe005f	-0.031006036
97	0x3d2ab87f	0.041679855
98	0xbd92fab8	-0.07176727
99	0x3d158ed9	0.036513183
100	0xbbe1614e	-0.0068780547
101	0xbd7fc07c	-0.062439427
102	0x3d61ea72	0.055155225
103	0xbd3e62b5	-0.046480853
104	0xbce4d5f6	-0.027934056
105	0x3b086afa	0.0020815716
106	0x3d6141c3	0.054994356
107	0xbd8cf234	-0.06882134
108	0xbd8b6f84	-0.06808379
109	0xbd2e5e54	-0.042570427
110	0x3d774668	0.06036988
111	0xbd074c52	-0.03303177
112	0xbd7ef524	-0.062245503
113	0x3d976714	0.073927075
114	0xbd051686	-0.032492183
115	0xbdaf5f29	-0.08563072
116	0x3cfaab0c	0.03059914
117	0x3d4562f3	0.04819007
118	0xbcb3c77c	-0.021945707
119	0x3cce5464	0.025186725
120	0x3cafcde9	0.02146049
121	0xbbc9bcae	-0.0061565256
122	0x3d0d8680	0.034552097
123	0x3d801267	0.0625351
124	0x3d6a424b	0.05719213
125	0x3b7a6649	0.003820794
126	0x3c84a91b	0.016193917
127	0x3d490188	0.049073726
128	0xbd95fb49	-0.073233195
129	0x3d3ee917	0.04660901
130	0x3ab1d7e1	0.0013568365
131	0x3d324d40	0.043530703
132	0xbd1587bd	-0.036506403
133	0xbd9ed00c	-0.077545255
134	0x3d4b656a	0.049657263
135	0x3d6bebc2	0.057597883
136	0x3d2de979	0.042458985
137	0x3c4361d4	0.0119251795
138	0xba36a6ea	-0.0006967621
139	0x3bbd3d53	0.0057751327
140	0x3d0976d7	0.0335606
141	0x3d0df865	0.034660716
142	0x3cf09cbd	0.029371614
143	0x3d7fe83b	0.06247733
144	0xbca08127	-0.019592835
145	0x3d75b046	0.05998256
146	0x3d7ce8b8	0.061745375
147	0x3d611119	0.054947946
148	0xbd5b9030	-0.053604305
149	0xbd835fdb	-0.06414767
150	0xbdb0af59	-0.08627195
151	0xbd87bfb4	-0.06628361
152	0xbd75e678	-0.060034245
153	0xbd719c6a	-0.05898706
154	0xbc527512	-0.012845295
155	0x3d271a38	0.04079649
156	0xbd232bfb	-0.039836865
157	0xbd07905c	-0.033096656
158	0x3c54a1b3	0.012978005
159	0x3d421afb	0.04738901
160	0x3d202f66	0.039107703
161	0x3c85b09b	0.016319564
162	0x3d607e4c	0.054807946
163	0x3d4026f6	0.046912156
164	0x3d930a58	0.07179707
165	0x3aa31282	0.0012441429
166	0x3d02fa33	0.03197689
167	0xbce99c31	-0.02851686
168	0x3c4f3cf0	0.012648806
169	0xbcef5d30	-0.02921924
170	0xbd6285bd	-0.055303324
171	0x3b9df89c	0.0048208963
172	0x3c627f8d	0.013824356
173	0x3d6782c7	0.056521203
174	0x3ca1e180	0.019760847
175	0x3d361b2d	0.04445951
176	0x3d85be47	0.06530433
177	0xbd242c1b	-0.040081125
178	0x3c592568	0.013253547
179	0xbc98c29f	-0.01864749
180	0xbdacd6d5	-0.084394135
181	0x3d9fac90	0.077965856
182	0xbd314b9e	-0.043285005
183	0x3d72a69c	0.059240922
184	0x3d40505d	0.04695164
185	0x3d6cd707	0.057822254
186	0xbdb62568	-0.088938534
187	0x3d150e6a	0.0363907
188	0xbda8423b	-0.082157575
189	0x3d5712a9	0.05250803
190	0xbcc43da8	-0.023955181
191	0xbd622fa8	-0.05522123
192	0xbd8dca34	-0.06923333
193	0xbc43a480	-0.011941075
194	0x3c746f67	0.0149191385
195	0x3d3a597b	0.04549549
196	0x3d2fbab2	0.042902656
197	0x3c4196b6	0.011815717
198	0x3cf43a87	0.029813064
199	0xbcfcbe22	-0.030852381
200	0xbcdf2126	-0.027237486
201	0x3c79caa2	0.015246065
202	0xbca6a59f	-0.020342646
203	0x3d3036d3	0.043021034
204	0x3d56ea6e	0.052469663
205	0xbd0673b0	-0.032825172
206	0xbd53ad19	-0.05167875
207	0x3d964aca	0.07338484
208	0xbd022786	-0.031775974
209	0xbccea2ac	-0.025224052
210	0xbc2cf9a4	-0.010557566
211	0xbc3991a7	-0.01132623
212	0x3ca390bf	0.019966481
213	0xbd62aff7	-0.055343594
214	0x3d310561	0.04321802
215	0xbd97bbef	-0.07408892
216	0x3cfa29d3	0.030537521
217	0x3bd67fd0	0.006545998
218	0xbd3af833	-0.045646857
219	0x3d271de8	0.040800005
220	0xba2306c5	-0.0006218965
221	0xbd3b67fd	-0.045753468
222	0x3c554746	0.013017481
223	0x3d2f9cda	0.042874195
224	0x3c978fef	0.01850125
225	0xbd8c75f8	-0.06858438
226	0x3c2571f9	0.010097974
227	0x3d0d261f	0.034460183
228	0x3d86e257	0.0658614
229	0xbd074b40	-0.03303075
230	0x395b2441	0.00020898973
231	0x3ca609cc	0.020268343
232	0xbbe3aa1b	-0.0069477684
233	0xbdaa04fa	-0.083017305
234	0xbc1f62bd	-0.009728131
235	0x3c96fbc8	0.018430606
236	0x3d1504df	0.0363816
237	0xbd0024d9	-0.03128514
238	0xbd4137c1	-0.04717231
239	0xbc7f6617	-0.015588305
240	0x3cb79db4	0.022414066
241	0x3d7fe35c	0.062472686
242	0x3d744e3b	0.05964492
243	0x3cf70f6f	0.030158726
244	0x3c69adf9	0.01426267
245	0xbd65256f	-0.055943903
246	0xbc2b5374	-0.0104569085
247	0xbd27bbad	-0.040950466
248	0x3cbfd26c	0.023415767
249	0x3d8c7918	0.06859034
250	0x3a74b8bd	0.00093353895
251	0xbd246bd2	-0.040141888
252	0xbc217942	-0.00985557
253	0x3cc78afc	0.024358265
254	0x3d226c6c	0.03965418
255	0xb983de46	-0.00025151874
