models/dqn_model_100.pth (torch, 480388 bytes, 6 tensors)

fc1.weight f4 [128, 400]
000000 2a 44 8c bc e3 0c 47 3d 30 d2 11 bd e6 07 a8 bc
       -0.017122347 0.048596274 -0.03560084 -0.020511579
000010 60 41 df bc 67 c4 46 bd 68 7c f8 3c 3a 4d 27 bd
       -0.027252853 -0.048527148 0.030332759 -0.040845133
000020 30 dd 7f bb 9e 5f e6 3c d4 6d 1c bc 10 52 9f 3b
       -0.003904175 0.028121766 -0.009547669 0.0048620775
000030 e6 c8 c6 3c 70 4b f8 bb 90 45 34 3d c6 0a f9 3c
       0.024265718 -0.007577352 0.044011652 0.030400645
000040 45 4a 1b 3d bd 60 a9 bc d4 da 0e bc d9 53 22 3d
       0.037912626 -0.020676011 -0.008719165 0.039630745
000050 0d 90 dd bc ce 55 fd 3c 54 28 20 bc 92 c5 9e 3c
       -0.027046228 0.030924704 -0.00977524 0.019381318
000060 3e 46 97 3c 06 83 5f 3c ce 7b 97 3c 40 f6 9c bb
       0.018466111 0.013642078 0.018491652 -0.0047900975
000070 ca e6 d9 3c ee 0b bf 3c 85 23 06 bd c0 6c 0c ba
       0.026599307 0.023321118 -0.032748718 -0.0005356781
000080 d4 72 63 bc d0 e5 e5 bc 4a cb 8f 3c ee bd 92 3c
       -0.013882358 -0.028063685 0.01755299 0.017912831
000090 8c 0b 22 bc be fd d3 3c b2 e2 9c 3c 30 3b c8 bb
       -0.009890448 0.02587783 0.019151065 -0.0061105713
0000a0 79 cd 02 3d 60 8f 3d bd 2c 3c 03 3c af 28 0c 3d
       0.031934235 -0.04627931 0.008009952 0.034218486
0000b0 22 a2 3c bd 78 8d 3a bd f0 ba a9 bb de 74 cb bb
       -0.04605306 -0.04554507 -0.0051797554 -0.006209
0000c0 29 44 42 3d 00 b6 30 bd 62 be 81 3c d8 e8 e9 3b
       0.047428284 -0.04314232 0.015837852 0.007138353
0000d0 6b 21 1c bd 3d 28 9d bc a4 fc 02 bd d9 dc 01 3d
       -0.038117807 -0.019184226 -0.031979218 0.031704757
0000e0 ba d0 c4 3c c9 d2 3e 3d 97 e5 f0 bc 40 fd 85 3b
       0.02402531 0.04658774 -0.029406352 0.0040890276
0000f0 9d ae 26 3c 31 d4 01 3d 78 cb 42 3c c1 16 e5 bb
       0.010173467 0.031696502 0.011889331 -0.006991238
000100 e8 36 83 bb 28 aa 0e bd 00 2b 25 39 70 06 ed bc
       -0.004004348 -0.034830242 0.00015751645 -0.028933734
000110 68 30 cf bb 2e 20 96 3c f2 38 23 bd f7 ea b3 bc
       -0.006322909 0.018325891 -0.03984923 -0.021962626
000120 28 e5 a1 bb 86 bb 39 3d 17 05 fd bc da 3a a9 3c
       -0.0049406476 0.045344852 -0.030886216 0.020657945
000130 0a 1c 0b bd 9b 12 12 bd 4a 8f e2 bc 0d e5 a1 bc
       -0.033962287 -0.035662275 -0.027656216 -0.01976254
000140 00 63 23 bc 8c e4 6c 3c d0 c3 9a 3b e2 61 87 3c
       -0.009972334 0.014458787 0.0047230497 0.016526166
000150 72 f1 90 3c e1 4d f9 3c d2 ae f0 3c 08 1e 00 3c
       0.017693255 0.030432643 0.029380236 0.00781966
000160 71 45 c5 bc 60 88 25 3b a2 06 a5 3c 08 d5 16 bd
       -0.024080964 0.0025258288 0.020144764 -0.036824256
000170 e6 b7 0a 3c 4a ea f8 3c 90 37 aa bb 4b 24 15 3d
       0.008466696 0.030385155 -0.005194612 0.036411565
000180 b8 ac 16 3c 10 9c c1 bb d6 e3 1a bd 0e 3b 30 3d
       0.009196453 -0.0059084967 -0.037814938 0.04302507
000190 e0 fd 9b bc 99 88 32 3d c4 b0 c3 bc a4 bc 08 bd
       -0.019041955 0.0435873 -0.023888 -0.033383027
0001a0 58 aa 1c bd a3 4c fc bc 6f 92 19 3d 4e e0 92 3c
       -0.03824839 -0.030798262 0.037493166 0.017929222
0001b0 7e c5 f1 3c 93 8b bb bc 1d 61 90 bc bd e1 27 3d
       0.029513117 -0.022893703 -0.017624432 0.040986765
0001c0 84 86 4f 3c 3c 47 b0 3c 73 9a 32 bc 7c d5 82 bc
       0.012666348 0.021518342 -0.010901081 -0.015970938
0001d0 98 12 03 bd bf 00 47 bd 3c 05 0c bd cd 27 3c bd
       -0.032000154 -0.048584696 -0.03418468 -0.045936394
0001e0 dc 07 17 3c fe 10 96 3c 70 ba 1e bd e0 52 b4 bc
       0.009218182 0.01831865 -0.03875202 -0.022012174
0001f0 48 89 d9 3c d6 05 e8 3c 18 4f 91 bb c6 a6 bf bc
       0.026554719 0.028323095 -0.0044344775 -0.023394953
000200 0d 83 06 3d 2e e8 0e bd 40 44 46 3c 4f 74 25 3c
       0.032839824 -0.034889393 0.012101233 0.010098531
000210 79 4a 47 3d 37 b6 06 3d 68 b0 46 3c 6e 08 9e bb
       0.048655007 0.032888617 0.012127019 -0.0048227822
000220 c2 67 eb 3c 66 fd ca 3c 14 25 72 bc fd 6b 36 3d
       0.028735999 0.024779033 -0.014779348 0.04453658
000230 b0 56 eb bb 62 63 a5 3c c0 e9 a2 bb 9f 4d 36 bd
       -0.007181965 0.020188991 -0.004971713 -0.04450762
000240 c0 9c fc 3b 60 8f 0f bd 60 31 7a 3b 9e d5 1a 3d
       0.0077091157 -0.035048842 0.0038176402 0.037801377
000250 48 1a 36 3d d4 41 3a bc a0 c8 3f bc 70 24 b8 3b
       0.044458658 -0.011368234 -0.011705548 0.005619578
000260 19 ae 33 3d 00 d7 50 bb 41 b7 0c 3d 48 94 2f 3d
       0.043867204 -0.0031866431 0.034354452 0.04286602
000270 35 81 4b 3d d3 d6 25 bd 80 cb 7f bb e2 68 c7 3c
       0.04968377 -0.040488075 -0.0039031208 0.024342004
000280 35 e0 06 3d e8 60 2d bd 5a e9 44 bd 6e e8 a6 bb
       0.032928664 -0.042328745 -0.048074104 -0.0050936257
000290 b9 49 5e ba d0 23 9a bc 48 ba 14 bc 02 51 83 3c
       -0.00084796135 -0.018815905 -0.009077616 0.016029838
0002a0 90 ad cf bb 27 f5 36 bd 24 ef 29 3c d0 46 79 3b
       -0.006337829 -0.04466739 0.010371957 0.0038036592
0002b0 89 dd 43 3d 4a 72 fa bc ba 1d ad 3c 5a 9f fb 3c
       0.047818694 -0.030572075 0.021132339 0.030715633
0002c0 fd 65 f2 3c b0 6a 0e bb 56 5f b2 3c c5 2b cd 3b
       0.029589647 -0.0021731071 0.021773975 0.0062613213
0002d0 c3 6f 07 3d 06 6f ef 3c 59 5b 2b 3d a9 a8 45 3d
       0.03306557 0.029227745 0.041835163 0.04825655
0002e0 a7 3e 2a 3d 0e c7 0c bd cc d1 46 bc 76 b7 2b bd
       0.041563656 -0.03436952 -0.01213498 -0.04192301
0002f0 13 23 37 3d ca c0 f9 bc a0 25 cb bc 28 49 8f 3b
       0.044711184 -0.030487437 -0.024798214 0.0043727346
000300 20 5e 69 bb c4 3c 82 bc 8d 64 22 bd c1 22 25 3d
       -0.0035609081 -0.015898116 -0.039646674 0.040316347
000310 ba f4 1f bd 90 13 93 bc 3a eb fe 3b 04 f6 04 3c
       -0.03905175 -0.017953664 0.007779506 0.008115295
000320 c0 55 9f ba 18 88 b9 3b 57 34 11 3d da b5 d6 3c
       -0.0012156293 0.0056619756 0.035450306 0.02620976
000330 84 a2 30 bd 06 bd 25 bd 79 d2 00 3d b9 23 b0 3c
       -0.043123737 -0.04046347 0.031450722 0.021501409
000340 03 aa 2f bd 4c 13 4a bc a0 b8 f1 3a e0 3f 24 3b
       -0.042886745 -0.012333702 0.0018441863 0.0025062487
000350 76 a8 17 bd e0 99 0a 3c 9a 10 39 3d 92 69 4c bd
       -0.03702589 0.008459538 0.045181848 -0.049905367
000360 13 8f e2 bc c0 a6 72 bc d9 96 11 3d a8 7b 07 bd
       -0.027656114 -0.014810264 0.03554425 -0.033076912
000370 00 53 c2 bc 80 87 4c 3c f6 b2 16 bd 6f 4d 35 bd
       -0.023721218 0.012483478 -0.036791764 -0.0442633
000380 8a 6a 54 3d ca 5f d0 bc 92 d9 81 3c 25 2d 11 3d
       0.051859416 -0.0254363 0.015850816 0.035443444
000390 7a 4e 02 bd 95 f8 38 3d cf 71 2f 3d 9a b6 e4 bc
       -0.031813122 0.04515894 0.042833146 -0.027919102
0003a0 c0 29 9c 3a f1 72 0b 3d 50 50 ad 3b 34 fc 1b bc
       0.0011914298 0.034045164 0.005289115 -0.009520579
0003b0 ea 66 c2 bc 4d e9 1f bd c0 4e 5c ba f7 d9 b5 bc
       -0.023730714 -0.039040852 -0.00084040686 -0.02219866
0003c0 c7 c7 1e 3d b5 24 99 bc d2 56 1e bd 8e 24 a0 3c
       0.03876474 -0.018694261 -0.038657017 0.01954868
0003d0 1a c0 37 bd 22 37 bf 3c 40 11 a7 bb 07 e3 1d 3d
       -0.044860937 0.023341719 -0.005098492 0.03854659
0003e0 ec f1 28 bc 0c d9 a2 bb 78 13 1c bd 18 e3 87 3b
       -0.010311585 -0.0049697217 -0.038104504 0.0041469447
0003f0 b6 74 e5 3c c2 22 f1 3c a6 ba 0b 3d 90 1b 9c bc
       0.028009754 0.02943552 0.03411355 -0.019056112

fc1.bias f4 [128]
000000 c5 38 b2 bc f3 03 bd 3b 59 a4 32 3c 30 06 d5 bc
       -0.021755585 0.005768293 0.010903441 -0.026003927
000010 ac e4 49 3d 52 cf 84 bc f7 e8 a3 bc da 4e 09 bd
       0.049290344 -0.01621214 -0.020008547 -0.033522464
000020 25 23 97 3b 2e a6 1e bd 9a c3 28 3c ce 72 94 3c
       0.004612344 -0.0387327 0.010300541 0.01812115
000030 96 73 71 bc 8b 87 d2 bc f0 37 e2 bb 5b 47 69 3d
       -0.0147370305 -0.025699398 -0.006903641 0.056952816
000040 be c2 29 ba e4 0c 00 3d 36 27 1a bb 1f 1e b0 bc
       -0.0006475857 0.031262293 -0.0023521907 -0.021498738
000050 6b 79 f4 bb 03 d8 e0 3c ed 71 0c 3c 36 f3 14 3c
       -0.007460763 0.027446752 0.008572084 0.009091189
000060 f0 0e 1c bc c2 7e 1e bd 2c 3c b9 3c 82 6e f7 bc
       -0.009525046 -0.038695104 0.0226117 -0.030204061
000070 7e 3f 5b bd 5f a3 8a bc e8 f6 45 3d 97 7c 03 bd
       -0.053527348 -0.016923605 0.04833117 -0.03210124
000080 20 43 6d bc 3e 05 bd 3c 5c 6a 80 bc c1 f3 7d 3c
       -0.014481336 0.023073789 -0.015675716 0.01550001
000090 e3 11 cf 3c 57 38 c3 3c 6d 91 43 3c 2a cf d3 bb
       0.025277084 0.023830576 0.011936528 -0.006463905
0000a0 b6 80 8d 3c 62 cb 07 3d f8 a4 26 bd e6 55 22 bd
       0.017273288 0.033152945 -0.04068467 -0.0396327
0000b0 38 b1 bf bc f4 c3 71 3c e6 d2 19 bc 6a 9a 2d 3d
       -0.023399934 0.0147561915 -0.009388661 0.04238359
0000c0 85 b1 3e 3d 81 ac 2b 3d c0 6a 07 bd e4 45 ff 3c
       0.046556015 0.04191256 -0.03306079 0.031161256
0000d0 fa 81 34 bc 06 31 23 3d 05 ea 2a bc 91 c8 bf 3a
       -0.011017317 0.039841674 -0.010431771 0.0014631917
0000e0 71 e6 f3 bc c2 fd a1 3c 98 ac f4 bb ef 49 d0 ba
       -0.029772969 0.019774321 -0.007466864 -0.0015891175
0000f0 43 02 16 bd a4 96 6c 3c 72 80 43 3a 82 3d c8 3c
       -0.03662325 0.014440212 0.00074577995 0.024443392
000100 72 93 ed 3c d4 34 73 3c f5 40 b4 bc 70 aa 05 bd
       0.029000971 0.014844138 -0.02200363 -0.032633245
000110 22 71 38 bd cf ea 4a bd 73 8e fb 3c 5b 71 4f bd
       -0.045029767 -0.049540337 0.030707574 -0.050645214
000120 2a 7d dd bc a0 6f 21 bc 69 de bf bb c8 ba 88 3a
       -0.027037222 -0.009853274 -0.005855371 0.0010431642
000130 b4 17 96 3c e7 75 40 3d 54 56 0c 3d be e9 30 3c
       0.01832185 0.04698744 0.034262016 0.010797916
000140 00 0f f0 3c 35 c5 40 3c 15 3f ec 3c 5d e7 a2 bc
       0.029304028 0.011765768 0.028838674 -0.019885713
000150 46 fd 9b 3c 96 c5 30 bd 10 d5 9e 3c dd de 03 bd
       0.019041669 -0.043157183 0.019388705 -0.03219496
000160 69 52 60 bc 13 d5 63 bc 26 7c 0f 3d 6e ca ec bc
       -0.013691523 -0.013905781 0.035030507 -0.02890512
000170 75 d3 90 3c 29 af 3a 3c a2 23 90 bc a2 b5 58 3d
       0.017678956 0.0113943005 -0.017595116 0.052907594
000180 f0 f1 0d 3d 3a 5c 99 bc 31 9a 3b 3d a4 2e d3 3c
       0.034654558 -0.018720735 0.045801345 0.025779076
000190 36 cd d2 bc ab 86 c3 bc a6 1c 40 bd 18 c9 06 bc
       -0.025732618 -0.023867926 -0.04690232 -0.008226655
0001a0 91 0f f1 3a e4 31 13 3c 81 0c 8e 3c 50 16 17 bd
       0.001839148 0.008984063 0.017339947 -0.036886513
0001b0 f3 89 34 3d 62 c6 27 3d bf aa 4c 3d e9 68 d3 3c
       0.04407687 0.040960677 0.049967524 0.025806861
0001c0 5a f8 d6 bc 91 6b 12 bd 69 78 1d 3c 1a 3b 28 3d
       -0.02624147 -0.035747115 0.009611228 0.04107199
0001d0 79 de 18 3d 08 1c 4d 3d c2 2b 23 3d 68 ad 99 3b
       0.03732154 0.05007556 0.039836653 0.004689861
0001e0 7d 55 6b 3c 87 76 ae 3b 92 89 51 bc 37 ca 28 bd
       0.014363644 0.005324188 -0.012789147 -0.041208472
0001f0 aa f8 28 3c 9d b2 1f 3d 2f db 2e bd ab 3f 1f 3d
       0.010313192 0.0389887 -0.0426895 0.038879078

fc2.weight f4 [128, 128]
000000 44 7d 8a bd 82 c1 51 bd 6f 95 90 bc 63 62 2f bc
       -0.06762174 -0.051209934 -0.01764938 -0.01070461
000010 3e d5 39 3d bf 55 85 3d a9 2a 87 3c 74 0e af bc
       0.04536938 0.065104954 0.016499834 -0.021369196
000020 96 b7 96 3d b0 fc cf 3c 10 0a a8 bd 1d d1 92 bd
       0.07359235 0.025389045 -0.08205044 -0.071687914
000030 fc de 6e 3d 01 cb 44 bd 90 74 f1 3c 1d b9 78 3c
       0.058318123 -0.048045162 0.029474527 0.015180853
000040 cb 05 05 3d 6d 37 82 bd 7a 83 a7 3d 22 90 96 bc
       0.032476228 -0.06358228 0.08179374 -0.018379275
000050 ce 4c 07 bc f6 10 f0 bb e9 4c 1e bd 73 02 71 bd
       -0.008258058 -0.0073262407 -0.038647566 -0.058840226
000060 8c 3d 20 3d c8 b0 67 bd 9c 4a 84 bd fd 17 05 3c
       0.039121196 -0.056565076 -0.06459543 0.008123395
000070 69 2a 85 3c 8c 49 9f bd b8 3f 8e bd 2e 17 90 bd
       0.016255574 -0.077777 -0.06945747 -0.07035671
000080 b1 a7 3b bd b9 24 73 3c 6d 4b 04 bd 4f 31 a0 bc
       -0.04581422 0.014840298 -0.032298494 -0.019554762
000090 9f 2b af 3b 88 30 99 bd bd dd 94 bb 1c 6a 80 bd
       0.005345776 -0.0747996 -0.004543035 -0.06270239
0000a0 04 e9 f1 bb 33 d9 2f 3c e7 ac 20 bd 00 34 60 3c
       -0.007382514 0.010732937 -0.039227393 0.013684273
0000b0 f5 5b 49 bd 6d 61 35 bd 4e eb 9a bd a9 e0 ac 3d
       -0.049159963 -0.044282366 -0.07564412 0.08441288
0000c0 b1 40 91 bd 1e 3c a9 bd 73 27 18 bd 16 36 a2 3d
       -0.07092417 -0.082634196 -0.037146997 0.07920472
0000d0 fe 6c b2 bd e8 3f 87 bd 9e 3f 1a 3c de 97 ab 3d
       -0.08712195 -0.06603986 0.009414582 0.08378576
0000e0 aa 68 c3 3c 89 22 9b 3c d7 c3 7c 3d bb f3 2f bd
       0.023853619 0.018937366 0.061710205 -0.04295705
0000f0 8d a9 1f 3d 40 3e b8 3c 2d 03 f3 3c ad e9 b4 3d
       0.038980056 0.02249062 0.0296646 0.088336326
000100 51 0c a8 3b 7a cc f8 3c 23 c4 0d bd e8 fa 4e 3c
       0.0051284214 0.03037094 -0.03461088 0.012633063
000110 99 93 03 3d 82 1e 61 3d a9 77 9b 3d 7e 21 43 bd
       0.032123182 0.054960735 0.07591183 -0.047639363
000120 f0 68 b3 3d 19 04 01 bd 2e c4 46 bd af 30 c5 bc
       0.087602496 -0.03149805 -0.048526935 -0.024071066
000130 30 e6 84 3d 38 5e 83 3d cf 60 c9 3c c9 64 87 bd
       0.06489217 0.06414455 0.024582295 -0.0661102
000140 46 73 99 3d 77 b0 4d bd 50 42 9a 3d bb e9 9d 3d
       0.0749269 -0.050217118 0.07532179 0.07710596
000150 3e 20 16 3d f0 31 93 bd 3d 4e 95 3d 35 b7 52 bd
       0.036651842 -0.07187259 0.072903134 -0.05144425
000160 a5 24 96 bd 2d 38 7e bd 24 21 a5 bd c5 ab 34 3d
       -0.07331208 -0.062065292 -0.08062962 0.044109125
000170 c0 94 1b 3c b6 c2 5c bd 6c 41 9a 3c ea d9 76 3d
       0.009495914 -0.05389663 0.018830024 0.060266413
000180 4c 2d b8 3d dd f0 6a 3d a0 97 a5 3d 5d 52 62 bd
       0.08993015 0.05735861 0.08085561 -0.05525433
000190 45 64 6b 3d 38 e1 b7 bd 84 6f be 3c 5b 9a 65 bd
       0.05746867 -0.08978504 0.023246534 -0.056055408
0001a0 87 3c 91 3b ef 57 b3 bd 7b 0e 8c bd 05 cb 50 bc
       0.0044322642 -0.087570064 -0.068386994 -0.012743716
0001b0 f2 5f 91 3c 57 48 94 3d 9e f3 56 bd 0e 1c 5a 3d
       0.017745946 0.0724036 -0.052478425 0.05324941
0001c0 a2 91 56 bd 8f da ad bd f8 85 8e 3c 64 d4 3f 3d
       -0.05238498 -0.08488952 0.017397866 0.04683341
0001d0 42 98 18 3d 49 71 fa 3c 7d ce 0a bc a5 6a 22 bc
       0.03725458 0.030571597 -0.008472082 -0.009913121
0001e0 35 22 a9 3d 67 0a 36 bd 71 d4 a9 bc 00 1d 17 3c
       0.082584776 -0.044443514 -0.020731183 0.009223223
0001f0 1e 7b da bb 21 4e d0 3b 25 ea 8a 3d ef d1 1d 3d
       -0.0066675087 0.00635697 0.06782941 0.038530286
000200 c5 da 9f bd ad 50 a1 3d 97 b1 80 bd 5f 92 26 bd
       -0.07805399 0.07876716 -0.062838726 -0.040666934
000210 5f f3 8a bc 55 36 41 bd 79 e8 79 bd 42 e6 22 3d
       -0.016961752 -0.047170956 -0.06101272 0.039770372
000220 15 14 35 bc 9d 9e 49 bc d4 1c a2 bb 5b 57 ab bc
       -0.011052151 -0.012305883 -0.0049472842 -0.020915678
000230 9d b4 9f bd 0a ac 19 b9 db ba 8b bd e2 be 60 bb
       -0.07798121 -0.00014655307 -0.06822749 -0.0034293463
000240 91 48 1f bd 67 79 51 3c 6f 37 12 bc 04 6c a5 3d
       -0.038887564 0.012785292 -0.008924349 0.08077243
000250 63 1d 49 3d 00 ae ce bc 2a 76 7a 3d eb 4c 8a 3b
       0.04910029 -0.025229454 0.061147846 0.004220595
000260 88 e4 fb 3c 25 64 2b 3c 53 13 70 3d eb d5 a6 3c
       0.03074862 0.010460888 0.05861218 0.020365676
000270 50 76 33 bc c6 20 65 bd ba c9 f9 3c d3 23 7c bd
       -0.010953501 -0.05593946 0.030491699 -0.061557602
000280 1b d0 37 bd 29 1b af 3d 8b 9f f1 3c 1e 5e a7 3d
       -0.0448762 0.08550102 0.029495021 0.08172248
000290 72 89 9e bd 0d fe b3 bd 40 28 92 3d 97 78 1d 3d
       -0.07741059 -0.08788691 0.07136583 0.03844508
0002a0 58 89 5c bb 52 c0 ae 3d a0 df 43 3d 01 0c 83 3c
       -0.00336512 0.08532776 0.047820687 0.015996935
0002b0 52 b7 82 bc 48 83 a1 3c 5c 8e 1c bc af bb b4 bd
       -0.015956555 0.01971592 -0.0095554255 -0.0882486
0002c0 e5 61 80 bd 93 1a 9c bc 86 40 5c 3d 8d e0 37 3d
       -0.06268672 -0.01905564 0.05377247 0.044891883
0002d0 b2 16 2e bc 76 77 44 bb 3e 1b eb 3b c1 bb 11 bd
       -0.010625528 -0.002997843 0.0071748784 -0.035579447
0002e0 a9 d5 26 3d 8f e9 b0 3d a5 7c 14 3c ad e4 2b bd
       0.040731106 0.08638298 0.009062921 -0.04196613
0002f0 01 f5 11 bd d6 43 db ba b4 92 a7 3d 98 3a 90 bd
       -0.035634045 -0.0016728591 0.08182278 -0.07042426
000300 68 12 05 3c a8 04 b8 3a 4e 00 9e 3d 75 47 dd 3c
       0.008122064 0.0014039474 0.07714902 0.027011612
000310 2e 55 b7 bd c3 a4 31 3c 48 db 06 bd 01 a9 be bc
       -0.089517936 0.010842505 -0.032923967 -0.023273947
000320 d0 79 9d 3d 6a ba 48 3d f4 58 9c 3d b7 d7 e7 ba
       0.076892495 0.049005903 0.07634154 -0.0017688189
000330 d0 10 22 3d e1 23 e0 bb b7 97 81 3d 83 ea 8d bd
       0.039566815 -0.0068402146 0.063277654 -0.06929495
000340 ff 11 fb bc d5 53 37 3c ba 83 94 3d b6 17 c3 3c
       -0.03064823 0.011189421 0.07251687 0.023815017
000350 6d 82 29 bd ea 39 30 bc 21 f1 6f 3d 0f c1 31 3d
       -0.04138415 -0.010755995 0.058579568 0.043397006
000360 10 a8 ac 3d 61 64 cf 3c d4 fc 82 3d 32 03 6d 3d
       0.08430493 0.02531642 0.063958794 0.057864375
000370 f0 8b 98 bd 59 26 91 3d 33 b4 a0 bd 80 80 4f bd
       -0.07448566 0.07087392 -0.0784687 -0.050659657
000380 6e c6 3f bc 63 10 81 bd bb 62 0a 3d 26 cb 8f bd
       -0.011705024 -0.06301954 0.033785563 -0.07021169
000390 36 d6 8c bc 19 3d d9 3c ab b4 0f bd 7a 63 d4 bc
       -0.017191987 0.026518391 -0.035084408 -0.02592634
0003a0 87 f7 b5 3d b4 c4 65 3c e7 6b 2b 3d 82 d3 2d 3d
       0.08885103 0.014023948 0.04185095 0.042438038
0003b0 26 6b 70 3c ab ab cf 3c 75 0a 3b 3d 82 76 40 bc
       0.014673984 0.025350412 0.04566427 -0.011747004
0003c0 78 57 90 bd 61 74 bd bc ba 46 c1 3c 72 8d 69 3d
       -0.07047933 -0.023126783 0.023593295 0.05701966
0003d0 6b e9 73 3d 74 d6 b3 3d f4 0a 34 bc b8 de c3 bc
       0.059548777 0.08781138 -0.01098894 -0.023909912
0003e0 f4 b1 0a bd bf 64 61 3d 18 8d e1 3c 71 52 9e bd
       -0.033861116 0.05502772 0.027533099 -0.07730568
0003f0 2d 8d c6 ba 52 ec 22 3d 1c 6a 1e bc bc 20 45 bd
       -0.0015148275 0.039776154 -0.009668853 -0.04812692

fc2.bias f4 [128]
000000 57 f7 c4 3c 90 8e 4e bd 7b 68 a4 3d 5a 37 cf 3b
       0.024043722 -0.050428927 0.080277406 0.006323737
000010 17 57 4b bd 72 9c 96 bc 44 d8 07 bd 75 e8 10 bd
       -0.049643602 -0.018385146 -0.03316523 -0.03537794
000020 e2 48 bd 3c 45 58 14 bd 21 6e 0a bd 19 4c aa bb
       0.023106042 -0.036216993 -0.033796433 -0.00519706
000030 8a a5 d7 3c 0b 44 3c bd 6b 5b 4f 3c 88 02 34 3c
       0.026324052 -0.04596333 0.012656073 0.010986932
000040 83 51 13 3c a4 e2 9f 3d 6b ac 5c 3d 59 fd ac bc
       0.008991602 0.078069 0.053875368 -0.0211169
000050 8a 2a 0c bd 1e 50 24 bd 62 75 8b 3c 2c 43 14 3b
       -0.034220256 -0.04011547 0.017023746 0.0022623045
000060 a8 95 30 3c 75 7e 6b bd 9d ad 1f 3c 93 b2 d0 bc
       0.010777868 -0.057493646 0.0097459825 -0.025475776
000070 eb 5f 22 3d 0e 62 0d bd 44 8a 33 bd 14 1a 62 bb
       0.039642256 -0.03451734 -0.043833032 -0.0034500407
000080 ca 98 55 3d b2 e3 93 bc 1b c6 8d bd 67 c9 8f bd
       0.052147664 -0.01805291 -0.06922551 -0.07020836
000090 43 e6 84 3d ba ab 10 3d d7 75 78 bd d2 f3 ac bb
       0.064892314 0.03532002 -0.060659256 -0.005278089
0000a0 b5 75 ce bc f9 af 2d 3d 57 d7 1a bd 12 da 88 3d
       -0.025202611 0.04240415 -0.03780302 0.066822186
0000b0 dc bb 63 3d b6 df 72 bd a4 2e ae bc fc b9 f3 bc
       0.05559908 -0.05929538 -0.021262474 -0.02975177
0000c0 38 85 bd bc 64 c3 38 bd 30 13 85 bd c6 c1 0f 3d
       -0.023134813 -0.045108214 -0.064978 0.035096906
0000d0 46 55 99 3d 5c db 15 bd b2 9f 61 3d 11 3d 8f 3d
       0.07486968 -0.03658615 0.055083938 0.06994069
0000e0 a0 13 5a bd e6 61 67 3c 06 b2 cb 3b 3e 4a b0 3c
       -0.053241372 0.014122462 0.0062162904 0.021519776
0000f0 fa c4 a4 3d 31 15 51 3a 35 3e 9c bd 81 fa b3 bd
       0.08045383 0.0007975875 -0.076290525 -0.08788014
000100 f0 19 ad bd f7 9d 65 bc f8 a0 20 bd e7 d8 b2 3c
       -0.08452213 -0.014014713 -0.03921601 0.021831943
000110 c7 5f 4b 3d 07 9e d8 3c d3 e4 64 3c 31 06 9b bd
       0.049651887 0.02644254 0.013970572 -0.0756954
000120 d2 f2 22 bb dc 6b fb 3b c5 f2 1f 3b 2e f7 52 bd
       -0.002486397 0.00767277 0.0024406177 -0.05150526
000130 7e ea 19 3b df c4 f4 bc 52 b8 ad bd 47 93 02 3c
       0.0023485716 -0.029879032 -0.08482422 0.007969684
000140 b2 a3 b1 bd 6d 89 b3 bc f8 6b 54 bd f2 15 12 3d
       -0.086738005 -0.021916116 -0.05186078 0.03566546
000150 15 50 67 bd 6a 01 73 b9 0e 8d 4a 3d 8a f5 bc 3c
       -0.056472857 -0.00023174813 0.049450926 0.0230663
000160 e4 b7 8c bd a4 6f 76 3d 38 eb 43 3d 66 c0 98 bc
       -0.06871012 0.060165063 0.047831744 -0.01864643
000170 20 8a 3c 3d 1c e3 75 3d a8 3b af 3b 07 5d e3 bc
       0.046030164 0.06003104 0.0053476878 -0.02775432
000180 a3 87 34 3d 19 a9 ec bb a7 17 70 3c b3 8e b0 bd
       0.044074666 -0.0072223064 0.014654077 -0.08620968
000190 a4 50 5b 3d f2 94 fb bc ea 52 ac bc 2b 4f 96 bd
       0.0535437 -0.030710671 -0.02103563 -0.07339319
0001a0 ea 8e c5 3c 0c 66 3a 3c 98 94 7c bc 9b bc 07 3c
       0.024115998 0.011376869 -0.015416287 0.008284713
0001b0 56 7c b0 3c 0a 59 ac bd 20 11 56 bd 61 03 32 bd
       0.021543663 -0.0841542 -0.052262425 -0.043460254
0001c0 bd 2b 1b 3c 77 93 a6 bd ad 1d dd bc 9c eb 8d 3b
       0.009470877 -0.081335954 -0.02699169 0.0043310653
0001d0 2c 66 85 3c 0d 1d b9 bc 89 0e f1 bb 4a a0 0d bd
       0.01628407 -0.02259686 -0.007356469 -0.03457669
0001e0 ba cb 7c bd dd 32 10 3d 34 04 da bb ad fa 56 bc
       -0.061717726 0.035204757 -0.006653333 -0.013121289
0001f0 7c 19 e1 bc be 04 8c bd 5c 80 97 bd 90 62 e0 bc
       -0.027477972 -0.06836842 -0.073975295 -0.027390748

fc3.weight f4 [400, 128]
000000 43 bd 33 bd 30 09 8e bd 10 2c 82 bd 3e f0 5b 3d
       -0.043881666 -0.06935346 -0.063560605 0.05369591
000010 34 0a a6 bc 25 86 5e bd 82 8a b0 bd cd c8 ac 3d
       -0.020268537 -0.05432715 -0.08620168 0.08436737
000020 60 b8 14 3d 2e f7 1f 3d 7f ac 8c 3d 82 62 b1 bd
       0.036308646 0.03905409 0.068688385 -0.08661367
000030 13 0b a0 bd 70 ee 18 bd 4e 30 46 bd 1e 61 4a 3d
       -0.07814612 -0.037336767 -0.04838591 0.049409024
000040 49 25 86 3d 96 27 88 bd 04 b2 0d bd ed 89 66 bd
       0.0655008 -0.066481754 -0.034593597 -0.05628388
000050 22 de 41 bd c0 42 99 bc 88 61 12 3d f0 23 52 bc
       -0.047330983 -0.018708587 0.035737544 -0.012825951
000060 c0 33 00 bc d8 d9 28 bc 8e ea a2 bd 14 d5 62 bd
       -0.007824838 -0.010305844 -0.07954894 -0.05537899
000070 a2 07 37 3d e8 b1 f4 3c 57 ee 35 bd 7e e6 21 3d
       0.044685014 0.029869989 -0.04441675 0.039526455
000080 19 05 5e bd c1 f5 98 3d b0 37 1d 3c f0 23 82 3b
       -0.05420408 0.07468749 0.0095957965 0.0039715692
000090 40 bf 1a 3b 15 d5 91 3d 05 07 88 bd 40 ef 82 3a
       0.002361253 0.0712072 -0.06641964 0.0009989515
0000a0 b4 0e 8e bd 62 a6 83 bd 6d 46 b2 bd c3 28 90 3d
       -0.06936398 -0.064282194 -0.08704839 0.07039025
0000b0 a0 05 2f 3b fc e5 fd bc ec e8 09 3d 50 5c 95 bd
       0.0026706234 -0.030993454 0.033669397 -0.07292998
0000c0 f6 52 4a 3d e5 8f 0d bd c1 39 34 bd 0c 4f 10 bd
       0.049395524 -0.034561057 -0.04400039 -0.035231635
0000d0 fa a3 6b 3d 20 42 cb 3c a8 00 7c bd 80 13 97 3b
       0.057529427 0.024811804 -0.061524063 0.004610479
0000e0 00 4f a4 39 ed 88 39 bd 12 bf 09 3d aa 3a 88 bd
       0.00031339377 -0.0452966 0.033629484 -0.06651814
0000f0 c2 ce f9 bc 2f 58 49 bd c2 32 33 bd 78 19 9d bc
       -0.030494098 -0.049156364 -0.04374958 -0.019177184
000100 41 3b 89 3d 5c c5 af bd 40 5e 75 bd 02 27 6d bd
       0.06700755 -0.08582565 -0.059904337 -0.05789853
000110 fe 1e 49 3d b0 81 1a bc d2 79 6e 3d d0 34 88 3c
       0.049101822 -0.009430334 0.058221646 0.016626745
000120 b3 93 93 3d d0 1f e8 3b c0 68 cf bb 0c 20 ea 3c
       0.07205906 0.0070838705 -0.006329626 0.028579734
000130 10 7d e5 bb a0 73 a7 bd 9f 13 70 bd e3 5e 9b 3d
       -0.007003434 -0.081763506 -0.058612462 0.075864576
000140 40 d8 21 bb 6c 89 50 bd 78 9a 91 bd 7c db be bc
       -0.0024695545 -0.050912306 -0.07109541 -0.023298018
000150 30 9b f6 3b 96 06 5d bd 72 30 6c bd 1f 29 a3 bd
       0.007525824 -0.05396136 -0.05766339 -0.079668276
000160 f4 85 04 3d bb 0c 88 bd c0 ec 9d ba 6c bd ce bc
       0.03235431 -0.06643053 -0.0012048706 -0.025236808
000170 80 e6 d8 ba ac 67 cb bc 2f 39 8b 3d 84 73 85 bd
       -0.0016548187 -0.024829708 0.06798016 -0.065161735
000180 94 53 e1 3c 2e 67 7f 3d 10 ae 96 bd 53 84 9b 3d
       0.027505673 0.06235426 -0.073574185 0.07593598
000190 91 bf a5 bd 98 e9 e2 3c 28 a2 2f bd d8 05 4a 3c
       -0.08093179 0.027699277 -0.042879254 0.012330495
0001a0 27 7f a3 bd 18 ab 70 bd 77 a8 7f bd aa 8d d7 bc
       -0.07983237 -0.058756918 -0.06241652 -0.026312668
0001b0 fc 6f cf bc 38 8b 18 bc f8 7f 5c bc 6b fa a7 3d
       -0.025321953 -0.009310536 -0.0134582445 0.0820206
0001c0 3b 88 56 bd 88 29 3d bd 78 09 68 3c 88 1d 2d 3c
       -0.052376013 -0.046182185 0.014162414 0.010566123
0001d0 18 8c 42 bc 0e 04 7e 3d 1b de 9b bd f8 b0 9e 3c
       -0.011874221 0.062015586 -0.07610723 0.019371495
0001e0 a1 b0 91 3d 56 ef 55 3d 60 43 94 bc 18 4c fe bc
       0.071137674 0.0522302 -0.018098533 -0.031042144
0001f0 40 cf ac 3c 65 b0 b4 3d 51 03 39 bd 26 f1 9a bd
       0.021094918 0.08822707 -0.04516918 -0.07565527
000200 1e 33 a3 bd 2e d5 90 bd 09 3a ab 3d 00 f1 4e 3c
       -0.07968734 -0.07071911 0.08360679 0.012630701
000210 9c 85 d8 3c e0 33 17 bb cc 83 8c bd eb 98 36 bd
       0.026430897 -0.0023071691 -0.06861076 -0.044579428
000220 57 0a 46 bd be 82 31 3d 28 13 da 3c c5 0c 84 3d
       -0.048349705 0.043337576 0.026620463 0.06447748
000230 88 b0 e9 3c 75 cd 35 bd 79 48 ab 3d b8 e9 40 bc
       0.02852656 -0.044385392 0.083634324 -0.011774473
000240 a0 ff 15 bc a0 d4 0b 3d 79 f1 92 3d c9 4b 5c bd
       -0.009155184 0.034138322 0.071749635 -0.05378321
000250 62 63 7a 3d dc 35 9e 3c 70 f8 9f 3c ed 45 9c 3d
       0.061129935 0.019312792 0.019527644 0.07630525
000260 c9 30 84 3d 76 b1 22 bd 10 1a 9b 3b b6 a4 28 3d
       0.064546175 -0.03972002 0.0047333315 0.041172706
000270 c2 7f 68 3d 89 7b 67 bd 7d b5 5c bd 93 fc 91 3d
       0.056762464 -0.056514297 -0.05388402 0.07128253
000280 d8 8b b7 bc 6e 10 b4 bd c7 4f ac bd 82 06 0d 3d
       -0.02240555 -0.08792196 -0.08413654 0.034430034
000290 07 80 85 3d 98 97 b0 3c b6 8d 60 3d d1 50 9d 3d
       0.0651856 0.02155666 0.054822646 0.0768143
0002a0 4e 94 4f 3d 28 0a 2a bc 44 0a 87 3c 60 7c 35 bc
       0.050678544 -0.010378398 0.016484387 -0.011077017
0002b0 b4 4b c5 3c 45 14 b1 3d 08 a8 a2 bd c7 2e 9a 3d
       0.02408395 0.08646444 -0.07942206 0.07528453
0002c0 a0 08 96 3c 68 26 50 bc 98 f5 cc bc 6c 82 23 bd
       0.01831466 -0.012704469 -0.025019452 -0.039919302
0002d0 12 68 2e bd 03 3c a3 3d 7a 87 f0 bc 80 9e 6d 3b
       -0.042579718 0.07970431 -0.029361475 0.0036257803
0002e0 ad 67 aa 3d 35 0e ae bd 65 6f b3 bd aa fb 2a bd
       0.08320556 -0.084988035 -0.08761481 -0.04174391
0002f0 04 a2 9a bd 07 97 a2 3d 92 e1 34 3d 7e 7e 58 3d
       -0.07550433 0.079389624 0.044160433 0.052855007
000300 2e 1f e7 bc 2e bf 41 3d 55 a9 86 3d 22 fa 5b 3d
       -0.02821311 0.047301464 0.06575266 0.053705342
000310 be ae 07 3d 0d 62 90 3d cd 5e 47 bd 68 46 84 bd
       0.03312563 0.07049952 -0.048674393 -0.064587414
000320 58 0b 12 bc 9e 30 78 3d 58 7b 0b bc d8 e1 a8 bd
       -0.008913837 0.06059324 -0.008513294 -0.08246201
000330 00 0c d5 bb 80 05 ed 3c 34 1b 9c 3c 11 88 a0 bd
       -0.0065016747 0.028933287 0.01905594 -0.078384526
000340 5e 06 46 3d 9f 6c 43 bd f8 49 8c 3c fa 1e a7 bd
       0.048345916 -0.04771101 0.017125115 -0.08160205
000350 6e 88 7d 3d fa a7 60 3d 00 c4 77 3b f2 0b 7b 3d
       0.061897688 0.054847695 0.0037806034 0.06129069
000360 78 3f 91 3c 4c 7b d3 bc 4c 51 c6 bc 70 0a 1a bd
       0.01773046 -0.025815628 -0.024208687 -0.03760761
000370 17 55 5c bd 30 ef 5d bc 40 3b 96 bb 5a 06 64 3d
       -0.053792085 -0.013545796 -0.0045847 0.05567012
000380 f3 2e a9 3d 26 c3 64 3d 6b 8e 9b 3d 61 d8 ac 3d
       0.08260908 0.05585017 0.075955234 0.084397085
000390 6e a2 8c bd ee 4f 8b bd 18 80 f1 bc 8c 7d 1b bd
       -0.068669185 -0.06802355 -0.029480025 -0.037961528
0003a0 15 87 65 bd fe 6c 7d bd 80 f6 bc 3a f9 cc 9c 3d
       -0.056037027 -0.06187152 0.0014416724 0.07656283
0003b0 bd e3 95 bd 40 69 b9 3c 0e 89 b2 bd 80 37 04 bd
       -0.07318828 0.022633195 -0.08717547 -0.03227949
0003c0 88 04 29 3c 2e 4e 64 3d 70 18 67 bc db b8 93 bd
       0.010316022 0.05573862 -0.014104947 -0.07212993
0003d0 65 99 4f bd 09 45 89 bd 4a ba 0f bd d0 fd 9d bb
       -0.050683398 -0.067026205 -0.03508977 -0.0048215166
0003e0 f7 85 ac 3d d9 df 8b 3d 45 19 94 3d f5 d1 90 bd
       0.08423989 0.06829805 0.07231382 -0.07071296
0003f0 48 ba 52 bc 83 57 ac bd 2e 94 f1 bc fd 93 88 bd
       -0.012861796 -0.08415129 -0.029489603 -0.066688515

fc3.bias f4 [400]
000000 78 02 a7 bd 67 fa 07 bd e4 07 a8 bc d8 ae a3 3d
       -0.08154768 -0.033197787 -0.020511575 0.07992333
000010 16 0d 83 bd 60 ef d7 3b 5c 80 65 3d 70 78 7f bc
       -0.0639898 0.006589815 0.056030616 -0.015592679
000020 b0 ac 9d bc 10 3c b2 bd 0c 18 12 bd 71 c7 8b bd
       -0.019247383 -0.08702862 -0.035667464 -0.0682515
000030 ad e4 6f bd 28 a7 ba 3c fc 3e 83 3d 50 59 57 bd
       -0.05856769 0.022784784 0.06408498 -0.05257541
000040 74 2f 9e 3d 8f 3a 26 bd 8a 74 9c 3d da f5 a6 bd
       0.07723895 -0.04058319 0.076394156 -0.08152361
000050 00 35 36 3a 23 a8 26 bd 80 f8 9b 3c c4 e2 81 3d
       0.00069506466 -0.04068769 0.019039392 0.0634208
000060 a2 8a 3b 3d 4d 38 98 3d d0 66 75 bc 01 f3 88 3d
       0.045786507 0.074326135 -0.014978126 0.06686974
000070 26 a2 64 3d 98 9b 00 3c a0 69 5f 3b 1a e9 11 3d
       0.0558187 0.007849596 0.0034090057 0.035622694
000080 08 de 74 bc 08 ba 49 3c e8 69 bf bc 16 ac a5 bd
       -0.0149455145 0.01231242 -0.02336593 -0.080894634
000090 78 9b a4 3c fb af 97 3d 58 2d 3b bc 2f 19 33 3d
       0.020093665 0.074066125 -0.011424385 0.04372519
0000a0 70 85 c4 3c 4e af 85 bd 30 f5 cd bc 70 5c 3e 3c
       0.02398941 -0.06527577 -0.025141329 0.0116187185
0000b0 7f 3b b2 bd 5e a2 f0 3c 70 16 e6 bb f6 a3 38 3d
       -0.08702754 0.029374298 -0.0070217177 0.04507824
0000c0 3a 3c 35 bd 17 d7 2d bd 2e be 00 3d b0 22 b3 3c
       -0.04424689 -0.042441454 0.03143137 0.021867126
0000d0 58 0a 2d 3c 4f 70 8b 3d b5 12 f4 3c 6c 86 af 3c
       0.010561548 0.068085305 0.029794076 0.021426402
0000e0 f0 9f e4 bc a0 e5 57 bc 60 8d 04 bb 53 2e 01 bd
       -0.027908295 -0.013177305 -0.0020225868 -0.03153832
0000f0 a7 7c 44 3d ac 91 e5 3c 40 25 86 3a 6e 8e 96 3d
       0.04797044 0.028023563 0.001023449 0.07351385
000100 12 5f 81 bd c8 53 66 bc a0 03 61 bc da 57 4a 3d
       -0.06316961 -0.014058061 -0.013733774 0.049400188
000110 38 09 7e bd 56 79 4e bd 8c af da 3c 60 f3 23 bc
       -0.06202051 -0.050408684 0.026695035 -0.010006756
000120 a5 83 b7 bd ba 1d a8 bd f2 03 e5 bc 82 97 0b 3d
       -0.08960656 -0.08208795 -0.027955983 0.034080036
000130 5c 97 45 bd 2c 8f 5a bd b0 12 5e 3c f6 4c e4 bc
       -0.04824005 -0.053359196 0.01355426 -0.02786873
000140 22 42 a9 bd 1c 52 55 bd c0 9b 4d 3b 1c 3a d0 bc
       -0.08264567 -0.05208026 0.0031373352 -0.025418334
000150 b4 48 a9 3c b8 ed fe 3c 15 4a 3b bd 94 ac 61 bd
       0.02066455 0.031119213 -0.045724947 -0.055096224
000160 69 24 2d 3d 94 00 94 3c 34 48 3f bd 97 8f 27 bd
       0.04227105 0.018066682 -0.046699718 -0.040908422
000170 99 4d 34 bd b8 f5 ee 3c 60 7a f3 3b 7b 2f 87 3d
       -0.044019315 0.029169902 0.0074303597 0.06600853
000180 14 f3 c5 bc 16 aa 5a 3d b8 fa 92 bd f6 63 3d 3d
       -0.02416376 0.053384863 -0.07176727 0.04623791
000190 c0 cc 26 3b 7c c0 7f bd a9 40 80 3d 5b 70 32 bd
       0.002545163 -0.062439427 0.06262333 -0.04356418
0001a0 f6 d5 e4 bc 50 16 a3 3b 89 a7 82 3d 34 f2 8c bd
       -0.027934056 0.004977025 0.06379611 -0.06882134
0001b0 84 6f 8b bd 27 da 22 bd 79 0d 93 3d 52 4c 07 bd
       -0.06808379 -0.039758828 0.07180304 -0.03303177
0001c0 f6 a1 74 bd 1a 10 a2 3d 86 16 05 bd 29 5f af bd
       -0.05972477 0.079132274 -0.032492183 -0.08563072
0001d0 c8 fd 0b 3d 12 b3 6b 3d f4 04 96 bc ea a2 13 3d
       0.03417757 0.05754382 -0.018312909 0.03604404
0001e0 f1 cd af 3c 00 e6 a1 ba 2b 21 25 3d 79 20 8d 3d
       0.021460505 -0.001235187 0.040314835 0.06890959
0001f0 84 31 87 3d a8 37 3e 3c c0 0f a6 3c de 78 6f 3d
       0.06601241 0.011609949 0.020271182 0.058464877
000200 49 fb 95 bd 12 c0 6e 3d 58 68 6d 3c 65 93 65 3d
       -0.073233195 0.05828864 0.0144902095 0.05604877
000210 08 c7 f4 bc d0 b1 98 bd 96 df 67 3d f9 e1 8d 3d
       -0.029880062 -0.0745579 0.056609713 0.069278665
000220 22 f3 69 3d 24 b5 a7 3c 30 31 8d 3b c8 87 0f 3c
       0.057116635 0.020472117 0.004308842 0.0087604
000230 ae d3 28 3d 56 f2 19 3d cc 7c 14 3d 1a b7 91 3d
       0.0412175 0.037584625 0.036251828 0.07115002
000240 40 93 b6 bc 67 c7 8e 3d 6d e2 8e 3d 9a 7b 88 3d
       -0.022287011 0.06971627 0.06976781 0.066642
000250 30 90 5b bd db 5f 83 bd 59 af b0 bd b4 bf 87 bd
       -0.053604305 -0.06414767 -0.08627195 -0.06628361
000260 78 e6 75 bd 33 e4 47 bd 12 75 52 bc 31 03 43 3d
       -0.060034245 -0.048801612 -0.012845295 0.047610465
000270 fb 2b 23 bd 5c 90 07 bd f8 13 c0 3c bb bf 67 3d
       -0.039836865 -0.033096656 0.023447022 0.056579333
000280 9f 5d 43 3d 78 55 b5 3c 0a 5c 87 3d d4 33 75 3d
       0.047696706 0.022135481 0.06609352 0.05986388
000290 3e 2b 9f 3d 50 e7 87 3b 96 9c 23 3d 28 c4 d1 bc
       0.0777192 0.0041474476 0.039944254 -0.02560623
0002a0 5c 2b c9 3c 74 44 dc bc 45 51 58 bd 58 d4 8d 3c
       0.024556808 -0.02688811 -0.05281188 0.017313167
0002b0 f0 4e 96 3c df b5 84 3d f8 c8 e5 3c c2 5e 5b 3d
       0.018348187 0.06480002 0.02804993 0.053557165
0002c0 7a 65 94 3d 2c df 19 bd 70 70 d9 3c d5 07 5f bc
       0.072459176 -0.03756635 0.026542872 -0.013612707
0002d0 d5 d6 ac bd b9 b7 a5 3d d8 e4 27 bd a6 8f 89 3d
       -0.084394135 0.08091683 -0.040989727 0.06716852
0002e0 ba 56 4c 3d 46 79 89 3d 80 62 b0 bd 18 d9 3a 3d
       0.049887396 0.06712584 -0.086125374 0.045617193
0002f0 3b 42 a8 bd 4a ed 6d 3d a8 3d c4 bc ce 24 52 bd
       -0.082157575 0.058087625 -0.023955181 -0.05130463
000300 34 ca 8d bd 80 a4 43 bc 1c 8a 92 3c 5a 04 5a 3d
       -0.06923333 -0.011941075 0.017888121 0.053226806
000310 f3 5e 6a 3d 20 ca c8 3c 87 3a f4 3c 22 be fc bc
       0.057219457 0.024510443 0.029813064 -0.030852381
000320 26 21 df bc 68 c5 99 3c f9 58 8d bc 12 98 45 3d
       -0.027237486 0.018770888 -0.01725434 0.04824073
000330 1d bb 77 3d d6 a4 f5 bc 66 ee 52 bd f8 34 9e 3d
       0.06048118 -0.029985826 -0.051496886 0.07724947
000340 86 27 02 bd 50 29 63 bc f0 4e 81 bb 20 b1 9f bb
       -0.031775974 -0.01386483 -0.0039461777 -0.00487341
000350 f8 c2 ce 3c f7 af 62 bd 08 92 66 3d ef bb 97 bd
       0.025239453 -0.055343594 0.05629161 -0.07408892
000360 a3 f0 30 3d d0 7f d6 3b 6e 4d 2a bd 89 a1 55 3d
       0.04319824 0.006545998 -0.04157775 0.052156005
000370 20 42 e8 3b fd 67 3b bd ea 69 80 3c 5c 85 50 3d
       0.007087961 -0.045753468 0.015675504 0.05090843
000380 ad af e1 3c f8 75 8c bd 10 ea 78 3c ae aa 2d 3d
       0.027549589 -0.06858438 0.015192524 0.0423991
000390 70 90 99 3d 40 4b 07 bd 00 30 4f 3c f4 07 fe 3c
       0.074982524 -0.03303075 0.012645721 0.031009652
0003a0 00 aa d2 39 dc 6e 9f bd d0 8f dc bb c8 fb 96 3c
       0.0004018098 -0.077848166 -0.006731011 0.018430606
0003b0 79 b0 4e 3d d9 24 00 bd c1 37 41 bd 18 53 4e bc
       0.050461266 -0.03128514 -0.04717231 -0.012593053
0003c0 e0 1b d5 3c b1 18 95 3d 73 ab 90 3d 5c 46 1a 3d
       0.026014268 0.072801 0.07063951 0.037664756
0003d0 0e 57 b6 3c 6f 25 65 bd 00 7f 22 ba ad bb 27 bd
       0.022258308 -0.055943903 -0.0006198734 -0.040950466
0003e0 6c d2 bf 3c 69 13 9f 3d f8 88 14 3c 7a 2e 18 bd
       0.023415767 0.07767374 0.009065859 -0.0371537
0003f0 4e 1d d7 bb f4 ea 10 3d a0 49 47 3d b0 93 91 3b
       -0.0065647727 0.03538032 0.0486542 0.0044426546
