models/dqn_model_800.pth (torch, 480388 bytes, 6 tensors)

fc1.weight f4 [128, 400]
0	0xbc7ecb49	-0.015551397
1	0x3d6370ee	0.05552762
2	0xbd1c24a2	-0.038120873
3	0xbcb01bf3	-0.021497702
4	0xbce7e808	-0.028308883
5	0xbd46c467	-0.048527148
6	0x3c74fff5	0.014953603
7	0xbcffefce	-0.031242277
8	0xbc52b97c	-0.012861606
9	0x3d306f77	0.04307505
10	0xbc1bff09	-0.009521254
11	0x3bb5c102	0.00554669
12	0x3c565356	0.013081392
13	0xbbb26b4d	-0.00544492
14	0x3d72d0ef	0.059281286
15	0x3d0f01f5	0.034913976
16	0x3d0edf2b	0.0348808
17	0xbcab664c	-0.020922802
18	0xbb8febf7	-0.004392143
19	0x3caca429	0.021074371
20	0xbcbe7467	-0.023248864
21	0x3ce86e4d	0.028372908
22	0xbc03a990	-0.008036032
23	0x3c56bdb5	0.013106753
24	0x3c78483c	0.015153941
25	0x3c46dfd4	0.012138326
26	0x3ca14b4e	0.019689228
27	0xbc522307	-0.012825734
28	0x3cd9001b	0.026489308
29	0x3cc46770	0.023975104
30	0xbd24b184	-0.040208355
31	0xbc0600ba	-0.008178884
32	0xbc7b8c79	-0.0153533155
33	0xbce1b087	-0.027549995
34	0x3ccfec06	0.0253811
35	0x3bb6f089	0.0055828732
36	0xbc01ff0a	-0.007934341
37	0x3cda3008	0.026634231
38	0x3ca1aa64	0.019734569
39	0xbc6b2e76	-0.014354339
40	0x3c9908d7	0.018680973
41	0xbd4944aa	-0.04913775
42	0x3b6f572b	0.0036520462
43	0x3cd3510e	0.025795486
44	0xbd30a77a	-0.043128468
45	0xbd59a9ba	-0.05314038
46	0x3adf55ef	0.001703916
47	0xbc3cd154	-0.011524517
48	0x3d0befc9	0.034164224
49	0xbd2c7797	-0.042106237
50	0x3bfc125a	0.0076926174
51	0x3c0b9a59	0.008520686
52	0xbd315c42	-0.043300875
53	0xbce3dac4	-0.027814277
54	0xbcbe592d	-0.023235882
55	0x3cff63a5	0.031175444
56	0x3cc07be3	0.023496574
57	0x3d33a42f	0.04385775
58	0xbce7b725	-0.028285572
59	0x3a072b86	0.0005156327
60	0x3ca6be9f	0.020354567
61	0x3cd2d976	0.02573846
62	0x3c9d4c7b	0.019201508
63	0xbc49482d	-0.012285274
64	0xbc139609	-0.009007939
65	0xbd140bde	-0.03614413
66	0xbba7d95a	-0.005122346
67	0xbd0eb9e8	-0.034845263
68	0xbbbc331f	-0.005743399
69	0x3c2508fb	0.010072942
70	0xbd196ad9	-0.037455413
71	0xbc96595a	-0.018353153
72	0x3a89f14c	0.0010524183
73	0x3d01b946	0.03167083
74	0xbd10f044	-0.035385385
75	0x3c7f72ae	0.015591307
76	0xbcda0cab	-0.026617369
77	0xbcddc3ce	-0.027070906
78	0xbd014961	-0.03156412
79	0xbcc4e36d	-0.024034226
80	0xbc8122b1	-0.015763612
81	0x3cecb96b	0.028897008
82	0x3bfed9cf	0.0077774297
83	0x3ca6f8be	0.020382281
84	0x3c9c3925	0.019070217
85	0x3cafe82f	0.021473018
86	0x3cb34a13	0.021885907
87	0x3c12a237	0.008949808
88	0xbd02cf4b	-0.03193597
89	0xbb76354e	-0.0037568393
90	0x3c4070ee	0.011745675
91	0xbd16d508	-0.036824256
92	0x3ca456aa	0.020060856
93	0x3cb8659a	0.022509385
94	0xbc3a3763	-0.011365744
95	0x3d173eec	0.03692524
96	0xb9b90bba	-0.00035294687
97	0xbc34ee02	-0.011043074
98	0xbd2d74c2	-0.042347677
99	0x3d0b6f5a	0.03404174
100	0xbcd6789a	-0.026180554
101	0x3d338ef8	0.043837517
102	0xbcd05733	-0.025432205
103	0xbd14650e	-0.036229186
104	0xbd1caa58	-0.03824839
105	0xbcfc4ca3	-0.030798262
106	0x3d08984b	0.033348363
107	0x3c3389c3	0.010958138
108	0x3d0af37b	0.033923607
109	0xbceff9c2	-0.029293898
110	0xbc7b8fb5	-0.015354087
111	0x3d2af7b3	0.04174013
112	0x3c3eba43	0.011641088
113	0x3caaa446	0.020830285
114	0xbc86266c	-0.016375743
115	0xbc2a94de	-0.010411469
116	0xbd0802cd	-0.033205796
117	0xbd4700bf	-0.048584696
118	0xbd1584c9	-0.036503587
119	0xbd380f16	-0.044936262
120	0x3a05b613	0.00051006785
121	0x3c99fc44	0.018797047
122	0xbd2c0d4d	-0.042004872
123	0xbccc5891	-0.024944576
124	0x3c38976d	0.0112665715
125	0x3cd8646f	0.026415078
126	0xbc113ebc	-0.008865055
127	0xbcd0d634	-0.025492765
128	0x3cefa282	0.029252294
129	0xbce0babf	-0.027432797
130	0x3b38d05f	0.002820037
131	0x3c37e786	0.011224633
132	0x3d592e91	0.053022925
133	0x3d067eed	0.03283589
134	0x3bfd79f9	0.0077354875
135	0xbc630b93	-0.01385774
136	0x3ce7bf53	0.028289473
137	0x3cf520dd	0.029922897
138	0xbc71fb6e	-0.014769418
139	0x3d251f3b	0.040312987
140	0xbc4b57a7	-0.012411035
141	0x3c7758d5	0.015096863
142	0xbc4229b7	-0.011850766
143	0xbd15167c	-0.036398396
144	0x3bd83b60	0.006598875
145	0xbd27e36e	-0.04098838
146	0x3b7e7276	0.0038825548
147	0x3d32c705	0.04364683
148	0x3d1f930c	0.038958594
149	0xbc9ac6c4	-0.018893607
150	0xbbb035ed	-0.005377522
151	0xbc1591af	-0.009128972
152	0x3d1a63fb	0.037693005
153	0x3a46b1ae	0.0007579577
154	0x3d0f5878	0.03499648
155	0x3d370413	0.04468162
156	0x3d72ed1f	0.059308168
157	0xbd04e20e	-0.032442145
158	0x3c4e9d81	0.012610794
159	0x3ccc9127	0.024971558
160	0x3cfa71d5	0.030571857
161	0xbd3c005c	-0.04589878
162	0xbd47c5c6	-0.048772596
163	0xbc7e1a1d	-0.015509156
164	0xbb723ef9	-0.0036963804
165	0xbc9a23d0	-0.018815905
166	0xbc6bfd01	-0.014403583
167	0x3ba71a10	0.0050995424
168	0xbc43ae18	-0.011943363
169	0xbd29fd0f	-0.0415011
170	0x3c9ebd5a	0.0193774
171	0xbbefc68c	-0.00731737
172	0x3d28fa4f	0.041254338
173	0xbd12db34	-0.03585358
174	0x3c89e0bf	0.0168308
175	0x3d00fd95	0.031491835
176	0x3cdbadb9	0.026816236
177	0xbbf39777	-0.0074338275
178	0x3c1bb467	0.0095034605
179	0x3b3093d6	0.0026943586
180	0x3d080f4f	0.033217724
181	0x3d1fd9fb	0.03902624
182	0x3d24af07	0.04020598
183	0x3d376338	0.044772357
184	0x3d141448	0.036152154
185	0xbd07f272	-0.0331902
186	0xbca2039f	-0.019777117
187	0xbd276c29	-0.040874634
188	0x3d1d366f	0.03838199
189	0xbd215522	-0.03938783
190	0xbccb25a0	-0.024798214
191	0xba2c86af	-0.0006581349
192	0xbc116b3a	-0.008875662
193	0xbc5fed6a	-0.013667444
194	0xbd132091	-0.03591973
195	0x3d2e37af	0.042533573
196	0xbd53c424	-0.051700726
197	0xbcb37348	-0.021905556
198	0x3c0d5b4a	0.008627722
199	0x3c499ac3	0.0123049645
200	0x3a48eac1	0.00076643756
201	0x3c5f4a1f	0.013628512
202	0x3d0300cb	0.031983178
203	0x3d054516	0.03253659
204	0xbd3f81f4	-0.046754792
205	0xbd32bc5c	-0.043636665
206	0x3d0cfa35	0.034418304
207	0x3c92b62e	0.017909136
208	0xbd317fc8	-0.043334752
209	0xbc9cfd8f	-0.019163875
210	0x3bfefa79	0.0077813235
211	0xbbf9c4d2	-0.0076223398
212	0xbd17a876	-0.03702589
213	0x3c523371	0.012829647
214	0x3d3de701	0.04636288
215	0xbd460aea	-0.048350252
216	0xbd04e208	-0.032442123
217	0xbc891450	-0.016733319
218	0x3cfff466	0.031244468
219	0xbd18892a	-0.037240185
220	0xbd003298	-0.03129825
221	0x3cc022df	0.023454128
222	0xbd2030e5	-0.03910913
223	0xbd3ffefb	-0.046874028
224	0x3d2f7872	0.042839475
225	0xbcd5c44c	-0.026094578
226	0x3bb25c81	0.005443156
227	0x3cddacab	0.027059874
228	0xbd08a825	-0.03336348
229	0x3d545aea	0.051844515
230	0x3cf1ae08	0.02950193
231	0xbcb40c17	-0.021978421
232	0xbab45835	-0.0013759198
233	0x3cac126d	0.02100488
234	0x3aa17ce5	0.0012320547
235	0xbc54507d	-0.012958643
236	0xbcf39883	-0.02973581
237	0xbd04aac9	-0.032389436
238	0x3cbb4065	0.022857854
239	0xbcbe13cb	-0.023202797
240	0x3d138001	0.036010746
241	0xbc271cb0	-0.010199711
242	0xbd1c0706	-0.038092636
243	0x3c251d56	0.010077795
244	0xbd37c01a	-0.044860937
245	0x3c743837	0.014905981
246	0xbba4839c	-0.005020572
247	0x3cd85d76	0.026411753
248	0xbc9149d6	-0.017735403
249	0xba71cb64	-0.0009223728
250	0xbd0f0c89	-0.034924064
251	0xbc1b5492	-0.009480612
252	0x3d0fc795	0.035102446
253	0x3c9fb450	0.01949516
254	0x3d0d5482	0.03450442
255	0xbc1c51d9	-0.009540998

fc1.bias f4 [128]
0	0xbd11848b	-0.035526793
1	0x3eb952c4	0.36195958
2	0x3ea19aa2	0.31563288
3	0x3ebe62b3	0.37184677
4	0x3edd1521	0.43180183
5	0x3ea8c5d6	0.32963437
6	0x3e81fcf2	0.25388294
7	0x3e1fe089	0.15612997
8	0x3ea9a215	0.3313147
9	0x3d059035	0.03260823
10	0x3e7a1384	0.24421507
11	0x3ea2ae18	0.31773448
12	0x3eafcb98	0.34335017
13	0x3e0917ee	0.13388035
14	0x3ea30a26	0.3184368
15	0x3eb99586	0.3624689
16	0x3e6c6c0a	0.23088089
17	0x3eba0721	0.36333564
18	0x3e8e4411	0.27786306
19	0x3e9f13c1	0.3106976
20	0x3eaec659	0.34135702
21	0x3ed655d0	0.41862345
22	0x3e5b18d6	0.21396193
23	0x3e7abd5d	0.24486299
24	0x3ebb694d	0.36603776
25	0xbd238845	-0.03992488
26	0x3e901981	0.28144458
27	0x3e49bd01	0.19701006
28	0x3e8387e9	0.2568963
29	0x3e10ff93	0.14159994
30	0x3ee631be	0.44959825
31	0x3eabf290	0.33583498
32	0x3e227441	0.1586466
33	0x3ec82a49	0.3909476
34	0x3e9dd191	0.3082395
35	0x3ea33a39	0.31880358
36	0x3ec19023	0.3780528
37	0x3eceb77c	0.40374362
38	0x3ebe1f3e	0.3713321
39	0x3ea79998	0.3273437
40	0x3e9c47ca	0.3052352
41	0x3ec3b0b3	0.38220748
42	0x3e34097f	0.17581747
43	0x3e94fff9	0.29101542
44	0x3e8d577f	0.27605817
45	0x3ebd5926	0.36982077
46	0x3ea08395	0.3135039
47	0x3ea62f7e	0.3245811
48	0x3eee0510	0.46488237
49	0x3eae21af	0.34010074
50	0x3ea86402	0.328888
51	0x3eba6b09	0.36409786
52	0x3eb193f7	0.346832
53	0x3ee16dc3	0.44029054
54	0x3ea89e07	0.32933065
55	0x3eb94ae0	0.36189938
56	0x3e94f43a	0.2909258
57	0x3ec5280c	0.38507116
58	0x3eb186a1	0.34673026
59	0x3ea9fc52	0.33200318
60	0x3e97c1e0	0.29640102
61	0x3eac303e	0.33630556
62	0x3e9bc878	0.30426383
63	0x3ec5839e	0.38576978
64	0x3edb551f	0.4283838
65	0x3ea89576	0.3292653
66	0x3e29c922	0.16580632
67	0x3e14a08c	0.14514369
68	0x3d7a4dc2	0.061109312
69	0x3e737213	0.23773985
70	0x3ec55d5a	0.38547784
71	0x3d9eff53	0.07763543
72	0x3eaaaaf0	0.3333354
73	0x3e9178da	0.28412515
74	0x3e9c97c3	0.30584535
75	0x3e8a4d98	0.27012324
76	0x3ecbf976	0.3983876
77	0x3ea4f20b	0.32215914
78	0x3ece2143	0.40259752
79	0x3eb62ee7	0.3558266
80	0x3e99222a	0.29908878
81	0x3ebc634a	0.36794502
82	0x3e9c45c0	0.30521965
83	0x3e900707	0.2813036
84	0x3eba1e8d	0.36351433
85	0x3e3fcaa1	0.1872964
86	0x3eb14b06	0.3462755
87	0x3e5e63e3	0.21717791
88	0x3e995b6c	0.29952562
89	0x3e93cb0e	0.28865856
90	0x3e812e57	0.25230667
91	0x3e9299cf	0.28632972
92	0x3ed35017	0.4127204
93	0x3ea5280c	0.32257116
94	0x3dd3f294	0.103490025
95	0x3ece3b74	0.40279734
96	0x3eaecb79	0.34139612
97	0x3e92d22b	0.2867597
98	0x3eba9c00	0.36447144
99	0x3e9bfd7a	0.30466825
100	0x3e5b7363	0.21430735
101	0x3e4f96c4	0.20272356
102	0x3e1a1092	0.15045384
103	0x3e77bc55	0.24192937
104	0x3eb11a45	0.34590355
105	0x3e9508d1	0.2910829
106	0x3ea5101e	0.3223886
107	0xbd75faad	-0.060053516
108	0x3ec863b9	0.39138582
109	0x3eb232c4	0.34804356
110	0x3edf5a1b	0.43623433
111	0x3ed17a4f	0.40913627
112	0x3de58b6f	0.112082355
113	0x3e27ede9	0.1639935
114	0x3ea8b95f	0.32953927
115	0x3ee3e5b3	0.44511184
116	0x3ee83753	0.4535471
117	0x3edde1a2	0.43336207
118	0x3ee5338b	0.44765887
119	0x3e8426e7	0.2581093
120	0x3ea15f17	0.3151786
121	0x3e8fc8e9	0.2808297
122	0x3e5ca33e	0.21546647
123	0x3dabd036	0.083893225
124	0x3eb21423	0.34780988
125	0x3ef74310	0.48293352
126	0x3ea38cdb	0.31943402
127	0x3eced7a2	0.4039889

fc2.weight f4 [128, 128]
0	0xbd2cb8b3	-0.04216833
1	0x3da646e8	0.08118993
2	0x3db5dad8	0.08879632
3	0x3df7e996	0.121051
4	0x3e31e485	0.1737233
5	0x3e42b1ac	0.19013089
6	0x3df291e5	0.118442334
7	0x3d989ac0	0.07451391
8	0x3e4cee58	0.20012796
9	0x3da90ab4	0.082539946
10	0x3d3ebbc8	0.0465658
11	0x3d89cfd8	0.06729096
12	0x3e3a62b0	0.18201709
13	0x3d346d5d	0.04404961
14	0x3e27366a	0.16329351
15	0x3e0ee6ed	0.13955279
16	0x3e07c8b4	0.13260156
17	0x3d8a9bd7	0.06768005
18	0x3e4750d3	0.19464426
19	0x3dbf2bc5	0.0933452
20	0x3e09c13c	0.1345262
21	0x3e02441f	0.12721299
22	0x3d4ee12f	0.05050772
23	0x3d926fc9	0.071502276
24	0x3e2f7f7b	0.17138474
25	0xbd05530a	-0.032549895
26	0x3d7e9a0f	0.06215864
27	0x3dd84d39	0.10561604
28	0x3e1298ba	0.14316073
29	0x3c304d10	0.010760561
30	0x3d5b7536	0.053578578
31	0x3d408aa1	0.047007207
32	0x3d2bbc1a	0.041927435
33	0x3e10a293	0.14124517
34	0x3d9b79d7	0.075915985
35	0x3dd306db	0.10304042
36	0x3e05425b	0.13013594
37	0x3d5eecc4	0.054425016
38	0x3dec0112	0.11523642
39	0x3d724639	0.059149
40	0x3de87056	0.113495514
41	0x3df47739	0.119368024
42	0x3d51b246	0.051195405
43	0x3dfdeb54	0.12398401
44	0x3d9ca50e	0.07648669
45	0x3da4f92f	0.080553405
46	0x3d93fa05	0.07225422
47	0x3e481e93	0.19542913
48	0x3d82ff23	0.0639632
49	0x3d4e2d2c	0.050336048
50	0x3dc9ba95	0.09850041
51	0x3e5ce69c	0.21572345
52	0x3d25ebc8	0.04050806
53	0x3d96b017	0.07357805
54	0x3e10be08	0.14134991
55	0x3e58375b	0.21114866
56	0x3e0c95bd	0.13728996
57	0x3e115ac3	0.14194779
58	0x3e33fa96	0.1757606
59	0x3db9f579	0.09080023
60	0x3e332e3d	0.17498107
61	0x3e139d5f	0.14415501
62	0x3e1c7721	0.15279819
63	0x3e54ad40	0.20769215
64	0x3e119170	0.14215636
65	0x3e177da6	0.14794025
66	0x3d7c975a	0.061667778
67	0x3dd3e595	0.10346524
68	0x3dae2cfb	0.08504673
69	0x3e2614e8	0.16218913
70	0x3e506b4b	0.20353429
71	0x3cae5ab1	0.02128348
72	0x3e514a37	0.20438467
73	0x3dc23ef6	0.09484665
74	0x3d876db2	0.066127196
75	0x3d93d6a8	0.07218677
76	0x3e34f5a0	0.17671824
77	0x3e406f2a	0.18792406
78	0x3e1d2a51	0.15348174
79	0x3d878845	0.06617788
80	0x3e450a94	0.19242316
81	0x3d9c8e0c	0.07644281
82	0x3e362a0b	0.17789476
83	0x3e3a976b	0.18221824
84	0x3e2a3e67	0.16625367
85	0x3d30b584	0.043141857
86	0x3e486483	0.19569592
87	0x3d4cb80c	0.04998021
88	0x3d652e3c	0.055952296
89	0x3d81f7b9	0.063460775
90	0x3d0cac4b	0.034344
91	0x3e24a185	0.1607724
92	0x3e11664c	0.1419918
93	0x3d9d4fcb	0.07681235
94	0x3dbe7a7f	0.09300708
95	0x3e427eda	0.18993703
96	0x3e5e3f97	0.21703945
97	0x3e25a4f1	0.16176201
98	0x3e4849bf	0.19559382
99	0x3d9c5270	0.07632911
100	0x3e0ce24e	0.13758203
101	0x3b9dff8f	0.0048217247
102	0x3deb41c0	0.1148715
103	0x3d631020	0.0554353
104	0x3e1a148a	0.15046898
105	0x3cf72c60	0.030172527
106	0x3d7c87c8	0.06165293
107	0x3ca52789	0.020160453
108	0x3e16d9eb	0.14731567
109	0x3e48ceb4	0.19610101
110	0x3da12177	0.07867711
111	0x3e39a662	0.18129876
112	0xbb8109c9	-0.003937934
113	0x3c4479d5	0.011991938
114	0x3e20855d	0.15675874
115	0x3e28458d	0.16432782
116	0x3e28eda7	0.16496907
117	0x3e25fe31	0.16210248
118	0x3dee8500	0.116464615
119	0x3dc66015	0.09686295
120	0x3e4e781c	0.20163006
121	0x3db0b916	0.08629052
122	0x3da50404	0.080574065
123	0x3d901187	0.07034593
124	0x3de6a7dc	0.112624854
125	0x3e0d37fe	0.1379089
126	0x3e3e327a	0.18573943
127	0x3e318e04	0.17339331
128	0xbd847173	-0.06466951
129	0x3e09898d	0.13431378
130	0xbb1db303	-0.0024062998
131	0x3c062a26	0.00818876
132	0x3d184869	0.03717843
133	0xbb9a7bb2	-0.0047144527
134	0xbc058dfd	-0.008151528
135	0x3da74ebe	0.08169316
136	0x3d493760	0.049125075
137	0x3c4c590a	0.0124724
138	0x3d09ccb3	0.033642482
139	0x3d2651f7	0.04060551
140	0xbcc56612	-0.024096522
141	0x3cf7c90a	0.03024723
142	0xbc6bfe69	-0.014403918
143	0x3d411afb	0.04714487
144	0x3c0c80bd	0.0085756155
145	0x3d64bd8a	0.05584482
146	0x3d40869f	0.047003385
147	0x3df1e6ac	0.11811575
148	0x3dcfcb66	0.10146217
149	0x3d088aa2	0.033335336
150	0x3df20deb	0.11819061
151	0x3d3bf338	0.04588625
152	0x3da128be	0.07869099
153	0x3c7b87a6	0.015352165
154	0x3dc6b972	0.0970334
155	0x3d93b1d7	0.07211655
156	0x3d08ce05	0.0333996
157	0xbcb52bb5	-0.022115568
158	0x3d9c9107	0.07644849
159	0xbc41352c	-0.011792462
160	0xbb03cdf0	-0.0020111762
161	0x3e0ae177	0.1356257
162	0x3d80f675	0.06297008
163	0x3e0b19ee	0.1358411
164	0xbcfa49bf	-0.030552743
165	0xbd3f086c	-0.04663889
166	0x3df39853	0.11894288
167	0x3db5eff8	0.08883661
168	0x3d53e587	0.051732566
169	0x3e0a0e45	0.13482006
170	0x3dbd6d90	0.09249413
171	0x3d3f0b83	0.046641838
172	0x3d1691ea	0.03676025
173	0x3d8696af	0.06571709
174	0x3d31a241	0.043367628
175	0xbd0d58fe	-0.034508698
176	0xbcbcc8b2	-0.023044918
177	0x3d0f8b86	0.03504517
178	0x3dc9f7e1	0.09861732
179	0x3dbe04c2	0.09278251
180	0x3d2e0dbd	0.04249357
181	0x3d289ec1	0.041167025
182	0x3d8527b1	0.06501711
183	0x3c4356b6	0.011922529
184	0x3d9af636	0.07566492
185	0x3e142d9c	0.14470524
186	0x3d7f32f0	0.062304437
187	0x3c244e70	0.010028467
188	0x39b5aeeb	0.00034653334
189	0x3d27dbd6	0.040981136
190	0x3e03413c	0.12817854
191	0xbc842b30	-0.016133875
192	0x3d572140	0.052521944
193	0x3d46ee52	0.048567124
194	0x3e018ebf	0.1265211
195	0x3d664a7f	0.05622339
196	0xbd71b687	-0.059011962
197	0x3d5e741a	0.05430994
198	0x3c9e16db	0.019298008
199	0x3bd27cf1	0.0064235856
200	0x3e01697b	0.12637894
201	0x3dc27667	0.0949524
202	0x3df28e25	0.11843518
203	0x3d296963	0.04136027
204	0x3dc752c8	0.09732586
205	0x3d061296	0.03273257
206	0x3dd8aff0	0.105804324
207	0xbc688d4f	-0.014193847
208	0x3cd0541b	0.02543073
209	0x3d75eb11	0.06003863
210	0x3de74b9b	0.112937175
211	0x3d8363d6	0.064155266
212	0x3bf8a746	0.0075883
213	0x3d16325d	0.036669124
214	0x3ddfe59c	0.109324664
215	0x3db1be23	0.08678844
216	0x3e0cd05a	0.13751355
217	0x3d8eeee4	0.069791585
218	0x3df4f09c	0.11959955
219	0x3de335f1	0.11094273
220	0xbcc80d8f	-0.024420528
221	0x3de5840c	0.112068266
222	0xbd27840e	-0.04089742
223	0xbbbfb8ca	-0.005850886
224	0x3d26cdaa	0.04072348
225	0xbc0c6a7a	-0.008570308
226	0x3dbf740b	0.09348305
227	0xbca8d265	-0.020608136
228	0x3c9eba5a	0.019375969
229	0x3d932a6d	0.071858265
230	0xbc15cbcc	-0.009142827
231	0x3c5e7c81	0.013579489
232	0x3e0a0f9d	0.13482518
233	0x3d875267	0.06607514
234	0x3dc337b3	0.09532108
235	0x3d3bcdd4	0.04585059
236	0x3d87a588	0.066233695
237	0x3d9a8a38	0.075458944
238	0x3dba3b66	0.090933606
239	0x3d15da5d	0.0365852
240	0xbce87798	-0.02837734
241	0x3c90432c	0.017610155
242	0x3d9284f9	0.07154269
243	0x3dde654d	0.10859165
244	0x3ddaa560	0.10676074
245	0x3e04f732	0.12984923
246	0x3d1ea97b	0.038735848
247	0x3c600bf1	0.013674722
248	0x3c789490	0.015172139
249	0x3dda10e8	0.10647756
250	0x3d927988	0.071520865
251	0xbd26c364	-0.040713683
252	0x3d705b01	0.058680538
253	0x3db3b201	0.08774186
254	0x3d02ede7	0.031965163
255	0xb9ecb439	-0.00045147704

fc2.bias f4 [128]
0	0x3e02b685	0.12764938
1	0xbc6a0b44	-0.0142849125
2	0x3e39a811	0.18130518
3	0x3d7caf1e	0.061690442
4	0xbd5e41cc	-0.054261968
5	0xbc8dce93	-0.017310416
6	0xbd0cdf32	-0.034392543
7	0xbc3123c7	-0.010811753
8	0x3e2f2415	0.17103608
9	0xbd1981e9	-0.037477408
10	0x3d954890	0.07289231
11	0x3dca8753	0.09889092
12	0x3cb996c2	0.022654895
13	0xbd5ac46b	-0.053409975
14	0x3e0162d6	0.12635359
15	0x3d2a1613	0.041524958
16	0x3dc79609	0.09745414
17	0x3e4ebc21	0.20188953
18	0x3e32a972	0.17447451
19	0x3d7b415a	0.06134162
20	0xbd148e92	-0.03626878
21	0xbd5af17a	-0.053452946
22	0x3df5e5e7	0.12006741
23	0x3e029ce8	0.12755167
24	0x3db41a39	0.08794064
25	0xbd7992c6	-0.06093099
26	0x3bd72110	0.0065652207
27	0x3d77e8f2	0.06052489
28	0x3e01c455	0.12672551
29	0xbca9a635	-0.020709137
30	0xbd42e55a	-0.047582008
31	0x3dc9d029	0.098541565
32	0x3e275291	0.1634009
33	0xbca8450b	-0.020540735
34	0xbd9535bb	-0.07285639
35	0xbcc44127	-0.023956848
36	0x3e1b0b3c	0.15141004
37	0x3e2f1bba	0.1710042
38	0xbd85632a	-0.06513055
39	0x3c6e3bb0	0.014540598
40	0xbcfaac3c	-0.030599706
41	0x3e109530	0.1411941
42	0xbd534474	-0.051578954
43	0x3e24d9d9	0.16098727
44	0x3e2eef8a	0.17083564
45	0xbd85e65d	-0.06538079
46	0xbcd9cfb1	-0.026588293
47	0xbcf5df18	-0.030013606
48	0x3d6860dd	0.056733
49	0xbd4370f0	-0.047715127
50	0xbd9b46bc	-0.07581851
51	0x3dc1cfc6	0.09463458
52	0x3e194a5a	0.14969769
53	0xbd2e32ff	-0.042529102
54	0x3e4003ed	0.18751498
55	0x3dd09c22	0.1018603
56	0xbd5e300e	-0.054245047
57	0x3e02261a	0.12709847
58	0x3de588da	0.11207743
59	0x3c896bf2	0.016775105
60	0x3e3562b1	0.17713429
61	0xbba01815	-0.0048856833
62	0xbda2b7cd	-0.079452135
63	0xbdb3fa81	-0.08788014
64	0xbdb46f4b	-0.0881029
65	0x3d1d0f2b	0.038344543
66	0xbd2d872d	-0.04236524
67	0x3e073861	0.132051
68	0x3e33f6f9	0.17574681
69	0x3e1318f6	0.1436499
70	0x3dc5077f	0.096205704
71	0xbd9f2103	-0.07769968
72	0xbbece1b8	-0.007229056
73	0x3db9d26e	0.090733394
74	0x3b595dd3	0.0033167496
75	0x3d14ba01	0.0363102
76	0x3dc6125b	0.0967147
77	0xbd0d08c2	-0.03443218
78	0xbdba2734	-0.09089509
79	0x3bccbcf9	0.0062481132
80	0xbd357666	-0.044302367
81	0x3d297a03	0.041376125
82	0xbd7b896e	-0.06141036
83	0x3e0d71cb	0.1381294
84	0xbc822baf	-0.01588997
85	0x3d48eb7a	0.049052693
86	0x3e4798d1	0.19491889
87	0x3e32d1cc	0.17462844
88	0xbd943b89	-0.07237918
89	0x3e46e029	0.19421448
90	0x3e18a638	0.14907157
91	0xbca46771	-0.020068856
92	0x3e329ac1	0.17441846
93	0x3e1c742d	0.15278693
94	0x3b66a7ef	0.003519531
95	0x3d9d142b	0.07669862
96	0x3e2b9a8d	0.16758175
97	0xbba69ad6	-0.005084376
98	0x3c8370ab	0.016044935
99	0xbdb6b612	-0.08921446
100	0x3e096cb8	0.13420379
101	0xbd005158	-0.031327575
102	0x3d95e89c	0.07319757
103	0xbdb35d5e	-0.08758043
104	0x3e1b8c1e	0.15190169
105	0x3de2d1ec	0.11075196
106	0x3d2fd1e8	0.04292479
107	0x3d5dcffc	0.054153427
108	0x3e0f5edc	0.1400103
109	0xbdac590a	-0.0841542
110	0xbc78f03f	-0.015193998
111	0xbd3d0f07	-0.04615691
112	0x3ce812cb	0.028329274
113	0xbdaab3a8	-0.08335048
114	0x3cc4f092	0.024040494
115	0x3bbae654	0.005703727
116	0x3dcc06a2	0.099622026
117	0xbce9d388	-0.028543249
118	0x3d94ae44	0.07259801
119	0x3cb5fae3	0.022214359
120	0xbd583c88	-0.052792102
121	0x3e14cf1e	0.14532134
122	0xbbf82008	-0.007572178
123	0xbc825451	-0.015909346
124	0xbd0b5dbf	-0.03402495
125	0xbd9e4f16	-0.07729928
126	0xbd97805c	-0.073975295
127	0xbcfa2a16	-0.030537646

fc3.weight f4 [400, 128]
0	0xbd63cc3c	-0.055614695
1	0xbda1a550	-0.07892859
2	0xbd99290e	-0.07478534
3	0x3d2817ac	0.0410382
4	0xbca60a34	-0.020268537
5	0xbd5e8625	-0.05432715
6	0xbdb08a82	-0.08620168
7	0x3d934021	0.07189966
8	0x3ccd5b31	0.025067898
9	0x3d1ff72e	0.03905409
10	0x3d6aa79e	0.05728876
11	0xbdc89545	-0.09794096
12	0xbda00b13	-0.07814612
13	0xbd18ee70	-0.037336767
14	0xbd74ed46	-0.059796594
15	0x3d108736	0.035285197
16	0x3d5c6af3	0.053812932
17	0xbd9f0482	-0.07764532
18	0xbd3b26fe	-0.045691483
19	0xbd87334e	-0.066015825
20	0xbd41de22	-0.047330983
21	0xbc9942c0	-0.018708587
22	0x3cc70950	0.024296433
23	0xbcca0453	-0.024660265
24	0xbca42978	-0.020039305
25	0xbc28d9d8	-0.010305844
26	0xbda2ea8e	-0.07954894
27	0xbd854e91	-0.06509126
28	0x3d081c5d	0.033230174
29	0x3cd96f02	0.02654219
30	0xbd35ee57	-0.04441675
31	0x3cf2e68c	0.029650949
32	0xbd85de2c	-0.065365165
33	0x3d98f5c1	0.07468749
34	0x3c1d37b0	0.0095957965
35	0xbbf93878	-0.0076056086
36	0xbc1048a0	-0.008806378
37	0x3d755f8f	0.059905585
38	0xbd880705	-0.06641964
39	0xbba66963	-0.005078481
40	0xbd8e0eb4	-0.06936398
41	0xbd9acae0	-0.075582266
42	0xbdb2466d	-0.08704839
43	0x3d715ac3	0.058924448
44	0xbc13e15b	-0.009025897
45	0xbcfde5fc	-0.030993454
46	0x3d09e8ec	0.033669397
47	0xbd955c50	-0.07292998
48	0x3d19e5d5	0.0375727
49	0xbd0d8fe5	-0.034561057
50	0xbd412fb0	-0.04716462
51	0xbd39897f	-0.045297142
52	0x3d3d5bb7	0.046230044
53	0x3ccb4220	0.024811804
54	0xbd94e46b	-0.0727013
55	0xbbedc6b7	-0.0072563547
56	0x39a44f00	0.00031339377
57	0xbd5fb00f	-0.054611262
58	0x3cb4f15b	0.022087744
59	0xbd8d3791	-0.06895364
60	0xbd2a5e99	-0.04159412
61	0xbd49582f	-0.049156364
62	0xbd3332c2	-0.04374958
63	0xbc9d1978	-0.019177184
64	0x3d893b41	0.06700755
65	0xbdbcd75b	-0.09220763
66	0xbd755e40	-0.059904337
67	0xbd8e3837	-0.06944316
68	0x3d1a7e0b	0.03771786
69	0xbcaac734	-0.02084694
70	0x3d3c7bdf	0.04601657
71	0x3c8834d0	0.016626745
72	0x3d8e971e	0.06962417
73	0xbb47fae5	-0.0030514535
74	0xbbcf68c0	-0.006329626
75	0x3c8aaf44	0.016929276
76	0xbc95942d	-0.018259132
77	0xbda773a0	-0.081763506
78	0xbd70139f	-0.058612462
79	0x3d9b5ee3	0.075864576
80	0xbc6bb6ec	-0.014386874
81	0xbd7bceaf	-0.061476406
82	0xbd919a78	-0.07109541
83	0xbd0e3b79	-0.034724686
84	0x38393730	4.4158834e-05
85	0xbd8937de	-0.06700109
86	0xbd8d6cee	-0.06905542
87	0xbdb9fac5	-0.090810336
88	0x3d0485f4	0.03235431
89	0xbd9f8a25	-0.07790021
90	0xbc4c47f7	-0.01246833
91	0xbccebd6c	-0.025236808
92	0xbc56ae7a	-0.013103122
93	0xbd1239de	-0.035699718
94	0x3d8b392f	0.06798016
95	0xbd985f0a	-0.07440002
96	0x3c85163c	0.016245954
97	0x3d7f672e	0.06235426
98	0xbd9baaf7	-0.07600968
99	0x3d9b8453	0.07593598
100	0xbdbd71c4	-0.09250215
101	0x3ce2e998	0.027699277
102	0xbd56a298	-0.052401155
103	0x3c221eb6	0.009895017
104	0xbdbb41c8	-0.09143406
105	0xbd8f7db5	-0.070063986
106	0xbd961aeb	-0.07329353
107	0xbd1e6558	-0.038670868
108	0xbd15f95b	-0.036614757
109	0xbc188b38	-0.009310536
110	0xbccf0179	-0.025269257
111	0x3d95a9c1	0.073077686
112	0xbd82708b	-0.06369122
113	0xbd3d2988	-0.046182185
114	0x3bf87162	0.0075818757
115	0x3c2d1d88	0.010566123
116	0xbcb03800	-0.021511078
117	0x3d7e040e	0.062015586
118	0xbdaf1999	-0.08549804
119	0x3b97d44e	0.004633463
120	0x3d81c0cb	0.063356005
121	0x3d283b0f	0.041071948
122	0xbc944360	-0.018098533
123	0xbcfe4c18	-0.031042144
124	0x3caccf40	0.021094918
125	0x3db4b065	0.08822707
126	0xbd390351	-0.04516918
127	0xbd9af126	-0.07565527
128	0xbdda182b	-0.10649141
129	0xbdbf7aa3	-0.09349563
130	0x3d5cfc6e	0.053951673
131	0xbc5c0217	-0.013428233
132	0x3ca8dcc6	0.020613085
133	0xbb1733e0	-0.0023071691
134	0xbd8c83cc	-0.06861076
135	0xbd7881d8	-0.060670704
136	0xbda2ada4	-0.079432756
137	0x3d2699a4	0.040673867
138	0xbb52739f	-0.0032112373
139	0x3d0a418e	0.033753924
140	0x3cbfe132	0.023422811
141	0xbd35cd75	-0.044385392
142	0x3d56d711	0.052451197
143	0xbd1b5db9	-0.037931178
144	0xbd26443b	-0.040592413
145	0x3b81d3f6	0.0039620353
146	0x3d2a9306	0.04164412
147	0xbda23fa3	-0.07922294
148	0x3d7a6362	0.061129935
149	0x3c5513c0	0.013005197
150	0xbc54d030	-0.012989089
151	0x3d35db84	0.0443988
152	0x3d08780d	0.033317614
153	0xbd22b176	-0.03972002
154	0xbb267640	-0.0025400072
155	0x3c3f8e8d	0.011691702
156	0x3cd68809	0.026187913
157	0xbd833e9a	-0.06408425
158	0xbd5cb57d	-0.05388402
159	0x3d2a995c	0.04165016
160	0xbd5a355f	-0.053273555
161	0xbdb4106e	-0.08792196
162	0xbdb2c48e	-0.08728896
163	0x3c5530da	0.013012135
164	0x3d123000	0.035690308
165	0xbc12f142	-0.008968653
166	0x3d608db6	0.054822646
167	0x3d69ab3e	0.057048075
168	0x3d4f944e	0.050678544
169	0xbd24aff4	-0.040206864
170	0x3c5b3276	0.01337873
171	0xbd2a71c5	-0.041612405
172	0xbc013ca0	-0.007887989
173	0x3db11445	0.08646444
174	0xbdabac2b	-0.08382448
175	0x3d94ba86	0.07262139
176	0xbc1ee33f	-0.009697734
177	0xbc502668	-0.012704469
178	0xbd00dda6	-0.03146138
179	0xbd900469	-0.07032091
180	0xbd972029	-0.07379181
181	0x3da33c03	0.07970431
182	0xbd7344d8	-0.059391826
183	0xbc4384ed	-0.011933547
184	0x3daa67ad	0.08320556
185	0xbdf006b1	-0.11720026
186	0xbdf2aeda	-0.118497565
187	0xbd2afbaa	-0.04174391
188	0xbdda26e6	-0.106519505
189	0x3da29707	0.079389624
190	0x3d34e192	0.044160433
191	0x3d587e7e	0.052855007
192	0xbd008a6c	-0.03138201
193	0x3ce7d53c	0.02829992
194	0x3d803019	0.06259174
195	0x3cbb90a6	0.022896122
196	0x3bb3a33a	0.0054821046
197	0x3d214569	0.039372835
198	0xbda19bfb	-0.07891079
199	0xbd844668	-0.064587414
200	0xbc44e44a	-0.012017319
201	0x3cebb778	0.028774008
202	0xbc3b0d29	-0.011416712
203	0xbdea5754	-0.11442438
204	0xbd1df8e0	-0.038567424
205	0x3ced0580	0.028933287
206	0x3c9c1b34	0.01905594
207	0xbda08811	-0.078384526
208	0x3d031d59	0.03201041
209	0xbd9a1efa	-0.075254396
210	0x3c8c49f8	0.017125115
211	0xbde58e8e	-0.11208831
212	0x3d2fdfd6	0.042938076
213	0x3cdab43d	0.026697272
214	0xbcd7585f	-0.026287256
215	0x3cf6b7fb	0.030117026
216	0x3c913f78	0.01773046
217	0xbd6d0359	-0.05786452
218	0xbd645903	-0.05574895
219	0xbd26bbe9	-0.04070655
220	0xbdadee59	-0.08492727
221	0xbd315695	-0.04329546
222	0xbc138360	-0.00900349
223	0x3cd37368	0.025811866
224	0x3d52fdcc	0.05151157
225	0x3d64c326	0.05585017
226	0x3d9b8e6b	0.075955234
227	0x3dacd861	0.084397085
228	0xbdcb0c60	-0.0991447
229	0xbd8b4fee	-0.06802355
230	0xbd801537	-0.062540464
231	0xbd28538c	-0.0410953
232	0xbdb5372b	-0.08848413
233	0xbdc0d0e3	-0.09414842
234	0xbcefedeb	-0.029288253
235	0x3d3eb93f	0.046563383
236	0xbdd513d6	-0.10404174
237	0x3cb96940	0.022633195
238	0xbdd9edac	-0.106410354
239	0xbd1da5b5	-0.03848811
240	0xba8f4db0	-0.0010933187
241	0x3d644e2e	0.05573862
242	0xbd1310dd	-0.035904754
243	0xbd93b8db	-0.07212993
244	0xbda18596	-0.078868076
245	0xbd894509	-0.067026205
246	0xbd8e6f11	-0.06954778
247	0xbccf6e2e	-0.025321092
248	0x3d99ab0c	0.07503328
249	0x3d1d0321	0.038333062
250	0x3d8db94b	0.069201075
251	0xbd90d1f5	-0.07071296
252	0xbc52ba48	-0.012861796
253	0xbdac5783	-0.08415129
254	0xbcf1942e	-0.029489603
255	0xbd8893fd	-0.066688515

fc3.bias f4 [400]
0	0xbdb9e0c8	-0.09076077
1	0xbd5f8b61	-0.05457628
2	0xbd2f768f	-0.042837676
3	0x3d8374de	0.06418775
4	0xbdb53128	-0.088472664
5	0xbc0bf70c	-0.008542787
6	0x3d18c416	0.037296377
7	0xbd1c2b95	-0.0381275
8	0xbd2bc5cd	-0.041936684
9	0xbde1178d	-0.1099082
10	0xbd51a00a	-0.051178016
11	0xbdbc743c	-0.092018574
12	0xbda37dd6	-0.07982986
13	0xbb5345df	-0.0032237691
14	0x3d38fdf9	0.045164082
15	0xbd87a473	-0.06623163
16	0x3d6e6feb	0.058212202
17	0xbd7b06aa	-0.061285652
18	0x3d67c3e0	0.056583285
19	0xbdcfccfd	-0.1014652
20	0xbcc211e4	-0.023690172
21	0xbd5534c5	-0.052052278
22	0xbb22c04e	-0.002483386
23	0x3d229968	0.03969708
24	0x3ca25563	0.019816106
25	0x3d6dd98c	0.058068797
26	0xbd11b05e	-0.035568587
27	0x3d373eab	0.0447375
28	0x3d11695a	0.03550086
29	0xbc8514cd	-0.01624527
30	0xbc950014	-0.018188514
31	0x3c82097a	0.01587366
32	0xbd15a5f2	-0.03653521
33	0xbbd35d7d	-0.0064503537
34	0xbd38f6de	-0.045157306
35	0xbdcb6a73	-0.09932413
36	0xba841693	-0.0010077528
37	0x3d67dd87	0.05660775
38	0xbcb380b3	-0.021911955
39	0x3c8f4730	0.01749
40	0x3b966891	0.004590102
41	0xbdb40c80	-0.08791447
42	0xbd4e2e68	-0.050337225
43	0xbb3dbfcf	-0.0028953438
44	0xbde554ea	-0.11197837
45	0x3c04eb90	0.008112803
46	0xbd01ca21	-0.031686906
47	0x3c9bdc97	0.019026084
48	0xbd741ed9	-0.05959973
49	0xbd8b9cc8	-0.06817013
50	0x3c4739c5	0.012159769
51	0x3b43cc8b	0.0029876556
52	0xbc3e7c2c	-0.011626285
53	0x3d3530f4	0.04423614
54	0x3b6d52c0	0.0036212653
55	0x3bb49f45	0.0055121505
56	0xbd377505	-0.044789333
57	0xbd02c1b5	-0.031923015
58	0xbcfe50dd	-0.031044418
59	0xbd2d69f2	-0.042337365
60	0x3cab040e	0.020875957
61	0x3b99d205	0.0046942257
62	0xbcdc6db1	-0.026907774
63	0x3d5ab6e6	0.05339708
64	0xbda9880e	-0.082779035
65	0xbcf6df7a	-0.030135859
66	0xbd1a31d8	-0.03764519
67	0x3cd78074	0.026306368
68	0xbda77dc7	-0.08178287
69	0xbd875982	-0.06608869
70	0x3c363907	0.011121995
71	0xbd03e161	-0.03219736
72	0xbdd81ea5	-0.1055272
73	0xbdd3c02d	-0.10339389
74	0xbd58f29d	-0.05296575
75	0x3bbb1449	0.0057092053
76	0xbd88cf93	-0.06680217
77	0xbda5c046	-0.08093314
78	0xbc43464b	-0.011918615
79	0xbd31461d	-0.043279756
80	0xbdd95bf3	-0.10613241
81	0xbd9aeccb	-0.07564696
82	0xbbd1d436	-0.0064034713
83	0xbd41364c	-0.047170922
84	0x3bb14fd8	0.0054111294
85	0x3c66903e	0.014072476
86	0xbd817cbb	-0.063226186
87	0xbd97e2ff	-0.07416343
88	0x3c8f8ccb	0.01752319
89	0xbbc64d3b	-0.006051687
90	0xbd823475	-0.06357662
91	0xbd83a837	-0.06428569
92	0xbd8493b2	-0.06473483
93	0x3ba2d2b8	0.0049689673
94	0xbc5c9831	-0.01346402
95	0x3d35b804	0.044364944
96	0xbd4d5e6e	-0.050138883
97	0x3d03c50b	0.032170337
98	0xbdbd6bb2	-0.09249057
99	0x3cafc66d	0.021456921
100	0xbcd69ba5	-0.026197264
101	0xbdb78e75	-0.089627184
102	0x3d33a1e3	0.04385556
103	0xbd868591	-0.065684445
104	0xbd3dd3c7	-0.046344545
105	0xbc6c3888	-0.014417775
106	0x3d36a726	0.044593
107	0xbdaa65ba	-0.08320184
108	0xbdb4bff9	-0.088256784
109	0xbd8878f0	-0.06663692
110	0x3d4f3754	0.050589874
111	0xbd60707b	-0.05479477
112	0xbd9de061	-0.077088125
113	0x3d8701c8	0.065921366
114	0xbd462f7f	-0.04838514
115	0xbdd79fca	-0.10528524
116	0x3ca7c412	0.020479236
117	0x3d239953	0.039941143
118	0xbd26017f	-0.04052877
119	0x3c144c7e	0.00905144
120	0x3bba94bf	0.0056940014
121	0xbcbbbe25	-0.022917816
122	0x3c95f2e3	0.018304294
123	0x3d54e145	0.051972646
124	0x3d3d3c1f	0.046199914
125	0xbc23ae92	-0.009990351
126	0x3ac5f677	0.001510336
127	0x3d1d3c81	0.03838778
128	0xbdc4aeb4	-0.096036345
129	0x3d0a22f0	0.033724725
130	0xbc5b50a8	-0.013385929
131	0x3d053962	0.032525428
132	0xbd757b79	-0.059932206
133	0xbdb6fc88	-0.08934885
134	0x3d18dc27	0.03731933
135	0x3d39956e	0.045308523
136	0x3cf3d9d3	0.029766953
137	0xbb5def4a	-0.0033864551
138	0xbc956d12	-0.018240485
139	0xbc37f5ca	-0.011228034
140	0x3c98d61c	0.018656783
141	0x3caa2e1a	0.020773936
142	0x3c787982	0.0151656885
143	0x3d631811	0.055442873
144	0xbd19deb1	-0.03756589
145	0x3d548371	0.051883165
146	0x3d585308	0.05281356
147	0x3d36ba46	0.044611238
148	0xbd884af2	-0.0665492
149	0xbd9f55f3	-0.077800654
150	0xbde2d101	-0.110750206
151	0xbdad50f5	-0.08462707
152	0xbdb1f6ff	-0.08689689
153	0xbda8e390	-0.08246529
154	0xbd14051c	-0.036137685
155	0x3ce7686d	0.028248036
156	0xbd56d24d	-0.052446652
157	0xbd4fa854	-0.05069764
158	0xbb066942	-0.0020509516
159	0x3d0f7b55	0.035029728
160	0x3cdfc997	0.027317805
161	0x3b515c4a	0.0031945878
162	0x3d348b52	0.04407818
163	0x3d1ce532	0.038304515
164	0x3d7c58e2	0.061608203
165	0xbc839be9	-0.016065555
166	0x3c8d5ec0	0.017257094
167	0xbd368920	-0.044564366
168	0xba7c83d3	-0.00096326804
169	0xbd54081f	-0.051765557
170	0xbd83c49c	-0.06433985
171	0xbc354dfe	-0.011065958
172	0xbb7668a4	-0.0037598992
173	0x3d33b884	0.04387714
174	0x3c1475cb	0.009061287
175	0x3d14d5c3	0.03633667
176	0x3d69f310	0.057116568
177	0xbd7085bc	-0.05872129
178	0xbaa62c0f	-0.0012677925
179	0xbd0e89be	-0.03479933
180	0xbdd8f679	-0.10593886
181	0x3d902727	0.07038718
182	0xbd7a7ba3	-0.061153065
183	0x3d3e12a5	0.0464045
184	0x3d0a5271	0.03377003
185	0x3d391450	0.045185387
186	0xbde2f162	-0.11081196
187	0x3cdb445b	0.026765993
188	0xbdd9d5e0	-0.106364965
189	0x3d2db599	0.042409513
190	0xbd233b8e	-0.039851718
191	0xbd9433dc	-0.07236454
192	0xbdbb4af0	-0.091451526
193	0xbd060f8f	-0.03272968
194	0x3bb6b421	0.0055756723
195	0x3d0e31bc	0.0347154
196	0x3d038513	0.03210933
197	0xbb929ee2	-0.0044745067
198	0x3ca03fb7	0.019561632
199	0xbd5f8c64	-0.054577246
200	0xbd280e80	-0.041029453
201	0x3aed8fb2	0.001812449
202	0xbd254220	-0.040346265
203	0x3ce316b2	0.027720783
204	0x3d327f32	0.043578334
205	0xbd650be7	-0.055919554
206	0xbd93de97	-0.0722019
207	0x3d8894aa	0.066689804
208	0xbd4f85d0	-0.050664723
209	0xbd338e99	-0.043837164
210	0xbceb6fcd	-0.028739834
211	0xbcd94f82	-0.02652717
212	0x3c2fae6e	0.01072274
213	0xbda16a9d	-0.07881663
214	0x3d1a6ae7	0.037699606
215	0xbdb67c9a	-0.089104846
216	0x3cc20da7	0.02368815
217	0xbc471b11	-0.012152449
218	0xbd677a79	-0.056513283
219	0x3ccd8c46	0.025091302
220	0xbc90913c	-0.017647378
221	0xbd8916a4	-0.066937715
222	0xbb9fc928	-0.0048762746
223	0x3cfe0f84	0.031013258
224	0x3bfd72f7	0.007734652
225	0xbdb173c7	-0.08664661
226	0xbbd057ca	-0.0063581215
227	0x3cc47998	0.023983762
228	0x3d6ee51a	0.058323957
229	0xbd40cfb5	-0.047073085
230	0xbc672907	-0.014108903
231	0x3be4e8b4	0.006985748
232	0xbcae66c8	-0.021289244
233	0xbdc953e9	-0.09830458
234	0xbcdf21f1	-0.027237864
235	0x3b6e246f	0.0036337634
236	0x3cec0860	0.028812587
237	0xbd5302de	-0.051516406
238	0xbd85f93a	-0.06541677
239	0xbd0d6c1f	-0.03452694
240	0x3baba289	0.0052378816
241	0x3d604868	0.054756552
242	0x3d4e246a	0.050327696
243	0x3c90c182	0.017670397
244	0x3b54f3d1	0.0032493959
245	0xbda7cd8b	-0.08193501
246	0xbcf22d85	-0.029562721
247	0xbd6c52ad	-0.057696033
248	0xb940c2e6	-0.00018383152
249	0x3d8301b6	0.06396811
250	0xbc3b54bc	-0.0114337765
251	0xbd7ee97f	-0.062234398
252	0xbcda06ea	-0.026614625
253	0x3c2c8054	0.010528643
254	0x3cffcabd	0.031224603
255	0xbc9d05a3	-0.019167727
