models/dqn_model_600.pth (torch, 480388 bytes, 6 tensors)

fc1.weight f4 [128, 400]
000000 26 0a a6 bc bd 4f 4f 3d a2 24 1c bd f3 1b b0 bc
       -0.020268511 0.050613154 -0.038120873 -0.021497702
000010 08 e8 e7 bc 67 c4 46 bd e6 cd a8 3c 85 ad 09 bd
       -0.028308883 -0.048527148 0.020605993 -0.033612747
000020 19 29 12 bc a2 98 23 3d d4 6d 1c bc 2c ce a7 3a
       -0.008920931 0.039940484 -0.009547669 0.0012802533
000030 67 e8 48 3c 0c 6b b2 bb 03 1a 50 3d f5 01 0f 3d
       0.01226244 -0.00544489 0.050806057 0.034913976
000040 f3 fd f9 3c bd 60 a9 bc 7b 9e 3c bc c0 a2 cc 3c
       0.0305166 -0.020676011 -0.011512394 0.024979949
000050 e9 03 ba bc b3 cd e6 3c 93 7c 3c bc b5 bd 56 3c
       -0.022706943 0.028174257 -0.01150431 0.013106753
000060 69 11 72 3c d4 df 46 3c 2d 78 73 3c 07 23 52 bc
       0.014774659 0.012138326 0.014860195 -0.012825734
000070 f6 b6 d2 3c 06 5f 9b 3c 84 b1 24 bd 90 4d d1 bb
       0.025722008 0.01896621 -0.040208355 -0.00638742
000080 79 8c 7b bc 87 b0 e1 bc b7 68 c8 3c 8b 08 1f 3c
       -0.0153533155 -0.027549995 0.024463994 0.009706627
000090 83 ea 34 bc 4d 5c c7 3c 10 8d 81 3c 76 2e 6b bc
       -0.01104224 0.024336005 0.015814334 -0.014354339
0000a0 7e d7 a0 3c 5c 8d 3f bd fa 3c a9 3a 57 3d d8 3c
       0.019634005 -0.04676567 0.0012911849 0.026396437
0000b0 7a a7 30 bd dc f9 46 bd a5 11 79 bb 2f c4 44 bc
       -0.043128468 -0.04857813 -0.0038004902 -0.012009664
0000c0 30 81 10 3d 97 77 2c bd e5 cd 0a 3c d7 d0 bd 3b
       0.035279453 -0.042106237 0.008471941 0.005792718
0000d0 42 5c 31 bd 7a 58 ca bc ae fe d5 bc f5 21 e6 3c
       -0.043300875 -0.024700392 -0.026122417 0.028092364
0000e0 e3 7b c0 3c 94 31 25 3d 25 b7 e7 bc 7d 78 08 3b
       0.023496574 0.040330485 -0.028285572 0.002082377
0000f0 c6 f8 79 3c 8b dc c8 3c 83 0a 36 3c 2d 48 49 bc
       0.015257066 0.024519226 0.011110905 -0.012285274
000100 d6 c9 42 bc de 0b 14 bd 49 b1 bd bb 3c 1a 04 bd
       -0.011888942 -0.03614413 -0.0057889563 -0.03225158
000110 1f 33 bc bb 84 d4 48 3c 68 a2 23 bd 5a 59 96 bc
       -0.005743399 0.012257699 -0.039949805 -0.018353153
000120 94 0e e9 ba 7f 01 f6 3c 3b 3f 1d bd b9 e6 64 3c
       -0.0017780834 0.03003001 -0.03839038 0.013971024
000130 38 c4 ed bc 4e 1d fb bc d6 9f 03 bd 4c 17 c5 bc
       -0.029024228 -0.030653622 -0.032134853 -0.02405896
000140 7d 84 7b bc 20 44 ca 3c d0 c3 9a 3b 43 1d 9f 3c
       -0.015351412 0.024690688 0.0047230497 0.019423133
000150 36 db a1 3c 95 5c a3 3c 15 87 ba 3c 59 8d fb 3a
       0.019757848 0.019941607 0.02276949 0.0019191905
000160 5f 19 fd bc 1b 39 76 bb 0f 23 68 3c 08 d5 16 bd
       -0.030895887 -0.0037570659 0.014168515 -0.036824256
000170 43 28 4c 3c 4f e0 c8 3c 63 37 3a bc 8a 58 15 3d
       0.012460771 0.024521021 -0.011365744 0.03646139
000180 86 07 34 3b 02 ee 34 bc c2 74 2d bd 1c 83 09 3d
       0.0027470305 -0.011043074 -0.042347677 0.0335723
000190 9a 78 d6 bc 77 cf 29 3d 33 57 d0 bc aa 67 1a bd
       -0.026180554 0.04145762 -0.025432205 -0.037696518
0001a0 58 aa 1c bd a3 4c fc bc 65 7d 06 3d 41 d1 72 3c
       -0.03824839 -0.030798262 0.03283443 0.014820398
0001b0 a8 3a f9 3c c2 f9 ef bc 06 b4 9a bc ae f7 2a 3d
       0.030423477 -0.029293898 -0.01888467 0.041740112
0001c0 2a e1 68 3c da d9 4b 3c 95 da 56 bc f0 95 2a bc
       0.01421384 0.012442077 -0.013113637 -0.010411724
0001d0 98 12 03 bd bf 00 47 bd b3 0e 18 bd ec 5f 44 bd
       -0.032000154 -0.048584696 -0.037123393 -0.04794304
0001e0 3d 9f aa 3b c0 06 86 3c 4d 0d 2c bd 91 58 cc bc
       0.005206971 0.01636064 -0.042004872 -0.024944576
0001f0 e5 03 2b 3c 99 6a c9 3c de 28 1c bc 34 d6 d0 bc
       0.01043794 0.024586963 -0.009531228 -0.025492765
000200 63 a2 ef 3c 10 6f f3 bc 5f d0 38 3b 63 97 64 3c
       0.029252237 -0.029716045 0.002820037 0.013952109
000210 45 54 3b 3d 9a f7 f6 3c f9 79 fd 3b 93 0b 63 bc
       0.045734663 0.030147363 0.0077354875 -0.01385774
000220 21 7c b6 3c b2 bd b6 3c 2b 61 73 bc f5 fc 2e 3d
       0.022275986 0.02230725 -0.01485471 0.042721707
000230 b0 56 eb bb 99 5b 4e 3c 0b 79 5f bc f8 72 27 bd
       -0.007181965 0.012595081 -0.013639699 -0.040881127
000240 3f 0c bd 3b 6e e3 27 bd 5f f7 89 bb 66 c4 25 3d
       0.005769282 -0.04098838 -0.004210397 0.040470503
000250 0c 93 1f 3d c4 c6 9a bc f5 6b 32 bc bf 2e 09 bc
       0.038958594 -0.018893607 -0.010889997 -0.008372962
000260 d8 6d 14 3d 30 c4 59 3b e0 96 2b 3d af 7f 23 3d
       0.036237568 0.003322851 0.041891932 0.03991669
000270 98 70 58 3d 0e e2 04 bd 06 8b 37 3b 65 18 c6 3c
       0.052841753 -0.032442145 0.0028006448 0.024181554
000280 e3 23 f8 3c 5c 00 3c bd 46 37 52 bd 1d 1a 7e bc
       0.03029055 -0.04589878 -0.051322244 -0.015509156
000290 f9 3e 72 bb d0 23 9a bc ec da 94 bc 56 9f 05 3c
       -0.0036963804 -0.018815905 -0.018170796 0.008155664
0002a0 ce fc 70 bc 27 f5 36 bd 4b 0f 35 3c 62 b8 a3 bb
       -0.014708711 -0.04466739 0.011051009 -0.0049963454
0002b0 9d 32 30 3d 9f a4 1f bd bf e0 89 3c 46 83 c4 3c
       0.04301702 -0.038975354 0.0168308 0.023988377
0002c0 30 d3 df 3c 99 4c 16 bc c3 76 32 3c 17 a9 40 3b
       0.027322382 -0.009173536 0.010892573 0.002939766
0002d0 5d f7 fb 3c f7 41 d7 3c 43 cc 16 3d ac c6 2b 3d
       0.0307576 0.026276572 0.036815893 0.041937515
0002e0 48 14 14 3d 72 f2 07 bd 8c 51 b2 bc 29 6c 27 bd
       0.036152154 -0.0331902 -0.0217674 -0.040874634
0002f0 fb c3 21 3d 22 55 21 bd a0 25 cb bc af 86 2c ba
       0.039493542 -0.03938783 -0.024798214 -0.0006581349
000300 25 57 01 bc c7 20 86 bc 8d 64 22 bd 7a 39 1f 3d
       -0.007894312 -0.016373051 -0.039646674 0.038873173
000310 a6 9a 5e bd 9a 6f c1 bc 82 33 ca 3b 21 1a 6f 3c
       -0.054346703 -0.023612786 0.006170691 0.014593632
000320 c0 55 9f ba 18 88 b9 3b cb 00 03 3d 13 0b 04 3d
       -0.0012156293 0.0056619756 0.031983178 0.032237124
000330 f4 81 3f bd 06 bd 25 bd 93 fb 07 3d 9b 5e a0 3c
       -0.046754792 -0.04046347 0.033198904 0.019576361
000340 da 46 3c bd 8f fd 9c bc 7b f6 cc 3b 84 c4 f9 bb
       -0.045966007 -0.019163875 0.0062549687 -0.0076223034
000350 76 a8 17 bd 71 33 52 3c d4 c3 33 3d 2b 58 48 bd
       -0.03702589 0.012829647 0.043887928 -0.04891221
000360 08 e2 04 bd f3 77 a2 bc e4 75 fe 3c 2a 89 18 bd
       -0.032442123 -0.019832587 0.031062074 -0.037240185
000370 b3 13 f8 bc 4e 83 5f 3c 25 31 20 bd fb fe 3f bd
       -0.03028283 0.013642145 -0.039109368 -0.046874028
000380 29 8d 0a 3d 4c c4 d5 bc 7e ad 1a 3c 31 5c db 3c
       0.033826027 -0.026094578 0.009440778 0.026777359
000390 25 a8 08 bd e6 b0 4f 3d bd 46 cf 3c 17 0c b4 bc
       -0.03336348 0.050705813 0.025302285 -0.021978421
0003a0 35 58 b4 ba 54 74 b7 3c 71 53 af bb 34 fc 1b bc
       -0.0013759198 0.022394337 -0.005350523 -0.009520579
0003b0 ed 57 02 bd 77 f6 0e bd 1c 08 23 3c f7 d9 b5 bc
       -0.031822134 -0.034903016 0.009950664 -0.02219866
0003c0 07 d3 14 3d b0 1c 27 bc 06 07 1c bd aa 48 00 3c
       0.036334064 -0.010199711 -0.038092636 0.007829824
0003d0 1a c0 37 bd cf 58 6e 3c 9c 83 a4 bb c0 4c f0 3c
       -0.044860937 0.014547541 -0.005020572 0.029333472
0003e0 a9 49 86 bc 56 9d 05 bb 91 af 0f bd 8b 38 e0 bb
       -0.016392546 -0.002038797 -0.035079543 -0.006842678
0003f0 02 5a 0d 3d 82 88 87 3c 24 61 01 3d 65 74 6f bc
       0.034509666 0.016544584 0.03158678 -0.014615153

fc1.bias f4 [128]
000000 a5 83 5a bd f4 96 1b 3e 1b 07 c8 3d e0 92 24 3e
       -0.053348202 0.15194303 0.0976698 0.16071653
000010 c1 e1 64 3e b3 de e1 3d ad e8 15 3d 60 8d c3 bc
       0.22351743 0.11028805 0.03659885 -0.023871124
000020 f7 cb ed 3d bc 22 5e bd 23 06 22 3d 76 26 da 3d
       0.11611169 -0.054232344 0.039556634 0.10651867
000030 c4 f6 04 3e a2 12 01 bd 4f 42 ce 3d 2a 08 1a 3e
       0.12984759 -0.03151191 0.10071241 0.15042177
000040 d7 b7 a8 3c 72 11 1e 3e f3 2b 77 3d 49 f3 b5 3d
       0.020595474 0.15436342 0.060344648 0.088842936
000050 1a 5d 05 3e e3 1e 55 3e 12 42 55 3c b6 0c 0c 3d
       0.13023797 0.20812564 0.013016241 0.03419181
000060 a1 4f 21 3e 0c 94 71 bd ba 9a 82 3d a3 50 c1 ba
       0.15753032 -0.05897908 0.06377168 -0.0014748763
000070 9f 31 03 3d 50 6a a2 bc 47 4a 79 3e 1c b0 ff 3d
       0.032029744 -0.019826084 0.24344741 0.12484762
000080 5f 71 2b bc 76 d9 3c 3e 02 12 b8 3d 1c c7 d5 3d
       -0.0104640415 0.1844233 0.0898781 0.10438368
000090 06 4a 29 3e fd ac 4a 3e e1 cb 25 3e 97 e8 e8 3d
       0.16532144 0.19792552 0.16191055 0.11372488
0000a0 37 58 b1 3d a4 ee 2f 3e 01 e0 90 bc d6 b3 90 3d
       0.08659404 0.17180878 -0.017684938 0.07065551
0000b0 47 b1 61 3d b9 ec 1f 3e 30 a0 ca 3d 00 b7 dd 3d
       0.055100705 0.15617646 0.098938346 0.1082592
0000c0 3b 5a 83 3e bd d7 fd 3d 35 66 e6 3d 13 b3 1d 3e
       0.25654778 0.123946644 0.11249963 0.15400343
0000d0 0e 78 06 3e 12 24 72 3e 1c 86 e3 3d 01 05 16 3e
       0.13131735 0.23646572 0.11109564 0.14650346
0000e0 3b 52 8b 3d fd 4b 31 3e 42 36 08 3e fe 74 f2 3d
       0.068027936 0.17314143 0.13301948 0.11838721
0000f0 94 42 a7 3d ff 26 fb 3d cb a3 bc 3d 90 57 35 3e
       0.08166996 0.12263297 0.092109285 0.17709184
000100 0d 66 63 3e 0e 51 df 3d ef b3 86 bc ff 84 fd bc
       0.22206898 0.10904132 -0.01644322 -0.030947207
000110 ee 21 51 bd 38 32 7b 3c 6d 24 34 3e a9 b3 4e bd
       -0.05105775 0.015331797 0.1759202 -0.050464306
000120 22 1c f4 3d ff 5e 8f 3d 2f bb bc 3d 6d 41 6f 3d
       0.119194284 0.07000541 0.0921539 0.058412004
000130 3f cc 3d 3e 3d d8 e7 3d b0 e0 47 3e 5c 40 15 3e
       0.18534945 0.11320541 0.19519305 0.14575332
000140 ba 28 b2 3d 9e fc 21 3e 84 af ab 3d c3 9d 87 3d
       0.08699174 0.15819022 0.08383086 0.066218875
000150 65 46 1a 3e 0f 8c 44 bc 6f 54 04 3e 98 1d 1c 3c
       0.15065916 -0.011996283 0.12922834 0.00952854
000160 4e 5c b2 3d d4 ec 9c 3d 7b 9b 5c 3d 40 49 8b 3d
       0.08709012 0.07662359 0.053859215 0.06801081
000170 ce 1d 52 3e bd 72 da 3d 08 2c c3 bc 46 0f 46 3e
       0.20519182 0.10666416 -0.023824707 0.19341764
000180 96 34 00 3e 9e 57 8f 3d b3 9d 17 3e 46 9c b7 3d
       0.1252006 0.069991335 0.14806251 0.08965354
000190 b9 fa 20 3c 92 63 f5 3b 3d f6 dd bc a3 40 f5 3c
       0.009825402 0.0074886763 -0.027094955 0.029938048
0001a0 4f d7 04 3e 49 54 a2 3d 60 78 df 3d 11 51 87 bd
       0.12972759 0.07926232 0.109116316 -0.06607259
0001b0 90 7b 37 3e 20 22 0c 3e fe 0b 69 3e d8 ee 4b 3e
       0.17918229 0.13684893 0.22758481 0.1991533
0001c0 ef f8 cb bc 64 5b e8 bc 02 d2 e6 3d bc 2c 70 3e
       -0.024898974 -0.028363891 0.112705246 0.23454565
0001d0 3f fe 7a 3e a6 75 65 3e ed 6b 76 3e dc 2e 27 3d
       0.2451105 0.2240816 0.24064608 0.040816173
0001e0 14 9f cf 3d 0c 61 86 3d 7d 2b 26 3c 70 f0 48 bd
       0.101377636 0.06561479 0.010142204 -0.049057424
0001f0 d3 e5 09 3e d7 3f 8d 3e 70 ff cb 3d f4 a1 48 3e
       0.13466577 0.27587768 0.0996083 0.1959303

fc2.weight f4 [128, 128]
000000 88 de 69 bd 37 91 8a 3b 92 06 01 3c 69 23 32 3d
       -0.057096988 0.0042287367 0.007875102 0.0434908
000010 86 1b ce 3d 8b af dc 3d 65 4f 19 3d 1f 29 eb 3b
       0.100638434 0.1077567 0.037429232 0.007176533
000020 dd 41 ef 3d eb ec 28 3d c6 a3 0c bd a9 4a 58 bc
       0.11682484 0.041241568 -0.034335874 -0.013201394
000030 6e 73 d2 3d ab 9f 90 bc 6c e8 a3 3d b2 f3 7c 3d
       0.10275923 -0.01765426 0.08003315 0.061755843
000040 90 5d 50 3d 6a 90 59 bc 60 2a e7 3d f4 e4 3b 3c
       0.05087048 -0.01327906 0.11287379 0.011468161
000050 57 24 61 3d be 96 56 3d 9b de c2 bc db 57 53 bc
       0.054966297 0.052389853 -0.023787787 -0.012899364
000060 aa eb bd 3d 8f 39 4e bd 62 b0 a2 bc b5 36 02 3d
       0.09273465 -0.05034786 -0.019859497 0.031790454
000070 bc c5 77 3d 68 28 5f bd 49 95 96 bc f4 94 00 bd
       0.06049131 -0.054481894 -0.018381732 -0.031392053
000080 3c 11 d4 bc 9a c8 86 3d d0 bc 88 bb 1e c8 a2 3c
       -0.025887124 0.065812305 -0.004172899 0.019870814
000090 86 55 4e 3d 95 f9 b1 bc e2 0e 20 3d 93 ef a2 bc
       0.05037453 -0.021725455 0.039076693 -0.019889629
0000a0 93 64 f1 3c e9 94 3a 3d 54 bd b2 bc 4a 83 2b 3d
       0.029466903 0.045552168 -0.021818794 0.041873254
0000b0 74 d0 40 bc 06 d0 74 3b 6d 96 23 bc 30 b9 ea 3d
       -0.011768449 0.0037355437 -0.009984595 0.11461103
0000c0 e6 03 18 bc c7 22 04 bd 97 02 8f 3c 1c 97 0b 3e
       -0.009278273 -0.03225973 0.01745729 0.13631862
0000d0 05 5c 27 bd 16 2b 4e 3a b6 f3 74 3d 65 34 06 3e
       -0.04085924 0.00078646967 0.059802733 0.13105924
0000e0 dd 9a 67 3d 1d 95 80 3d 6e 8c c0 3d b4 03 02 3c
       0.056544174 0.06278441 0.09401785 0.007935453
0000f0 d5 0c c1 3d f3 5e 89 3d 41 03 95 3d 8f b2 05 3e
       0.09426276 0.06707563 0.07276011 0.13056396
000100 95 d6 88 3d 18 0b 88 3d 2b 54 26 bc a3 59 01 3d
       0.06681553 0.06642741 -0.010151903 0.031579625
000110 94 60 1d 3d fb 88 a9 3d 50 f2 fe 3d 7e f4 01 bd
       0.038422182 0.0827808 0.12448561 -0.031727307
000120 74 14 fd 3d d1 48 3a 3c 95 db 6d bc 43 f1 c0 bb
       0.12357417 0.0113699 -0.0145176845 -0.0058881356
000130 e8 48 cd 3d a0 20 dd 3d f3 8c 9f 3d 9c 02 55 bc
       0.100236714 0.10797238 0.07790556 -0.01300111
000140 bd 65 e5 3d 75 d5 de ba 2b f5 c1 3d 8f d9 cf 3d
       0.11201046 -0.0017000871 0.0947059 0.10148918
000150 df c2 b2 3d 6e 51 09 bd 15 7b e5 3d 26 fd fa bc
       0.08728575 -0.033524923 0.11205117 -0.030638289
000160 78 f8 d2 bc f8 a5 87 bc e6 91 48 bd 9b 08 a4 3d
       -0.025753245 -0.016558632 -0.048967265 0.08009454
000170 99 b9 85 3d 0e c2 f0 bb 75 98 23 3d f2 fa eb 3d
       0.065295406 -0.007347352 0.039940316 0.115224734
000180 c0 01 09 3e ca f8 a4 3d 55 25 ed 3d 86 92 01 bc
       0.13379574 0.08055265 0.11579386 -0.007908469
000190 c9 c7 6d 3d 14 89 8a bd da 70 42 3d 36 9b 9c bc
       0.058051858 -0.06764427 0.047470905 -0.01911698
0001a0 a5 37 94 3d 22 f8 56 bd b6 5f 99 bc 9b 32 00 3c
       0.07237176 -0.05248273 -0.018722396 0.007824565
0001b0 cc a8 8f 3d d5 3d f0 3d 0b 70 b5 3b 5f d2 d3 3d
       0.07014617 0.117305435 0.005537038 0.103428595
0001c0 6a f9 48 bd 08 21 87 bd d9 47 a0 3d df cd b8 3d
       -0.049065985 -0.06598097 0.07826204 0.09023642
0001d0 98 61 bc 3d df ed b2 3d 2e 20 2c 3d 74 1e a0 3c
       0.09198302 0.087367766 0.042022876 0.019545771
0001e0 88 b1 f2 3d 3f 29 13 3b d2 15 1d ba 88 27 e7 3c
       0.11850268 0.0022455005 -0.0005992326 0.028217092
0001f0 3f fc fb 3c 83 75 86 3d 3e 53 d2 3d d7 0c c9 3d
       0.030759929 0.06565382 0.102697834 0.09816902
000200 76 7f a0 bd 5b 9e c2 3d fe a8 38 bd d8 18 fd bc
       -0.07836811 0.0950286 -0.04508304 -0.030895635
000210 8a 89 32 b9 40 29 3e bd 48 33 5b bd bb 0b 3e 3d
       -0.0001702664 -0.046426058 -0.053515702 0.046397906
000220 71 97 c4 3b 4b 03 4c bc 7c b0 d1 bb de c1 2a bb
       0.0059994985 -0.012451957 -0.0063992124 -0.0026055495
000230 ab d8 83 bd d7 ca eb b8 94 5d 6a bd 89 10 e2 3b
       -0.064378105 -0.00011243455 -0.05721815 0.006898944
000240 5c 14 0b bd 5f 52 82 3c bc a9 11 3b 80 c3 9b 3d
       -0.033954963 0.015908418 0.0022226414 0.07605648
000250 ad 87 72 3d 17 bb e8 bb 91 e5 a2 3d 35 1f d6 3b
       0.05921142 -0.007102381 0.079539426 0.006534482
000260 e2 d5 1f 3d 79 68 cc 3b 51 81 61 3d ff c1 ef 3c
       0.039022334 0.00623804 0.055054966 0.02926731
000270 2f db 27 bc bb 20 66 bd 03 19 24 3d 6d ad 55 bd
       -0.010245129 -0.056183558 0.040062916 -0.052167345
000280 5a 5e 27 bd 1f 47 c3 3d 9a 01 ae 3c 33 d8 bf 3d
       -0.040861465 0.0953505 0.021240998 0.093674086
000290 0b ae 92 bd 35 8a b1 bd 25 36 a5 3d 39 34 45 3d
       -0.07162102 -0.08668939 0.08066968 0.048145507
0002a0 43 b2 86 3b f7 ba c3 3d 42 2c 5d 3d 86 fe 9d 3b
       0.004110606 0.09557145 0.053997286 0.0048216013
0002b0 78 82 d2 bb 3a 9d e2 3c 12 d2 6c 3b 43 af 9c bd
       -0.0064242445 0.027662862 0.0036135954 -0.07650616
0002c0 71 b6 75 bd 69 78 af bb be b7 61 3d f4 5e 59 3d
       -0.059988443 -0.00535493 0.05510687 0.05306907
0002d0 e4 aa 8f 39 1d fe 62 3b d0 fc ad 3c ef d0 ee bc
       0.0002740241 0.0034636327 0.021238714 -0.029152362
0002e0 c6 5a 11 3d 2c 5e d5 3d 0d 55 b3 3c e6 30 f1 bc
       0.03548696 0.104183525 0.021891141 -0.029442262
0002f0 8b ac 27 bd e2 57 9b 3a f5 be af 3d 37 11 63 bd
       -0.040936034 0.0011851753 0.08581344 -0.05543634
000300 69 7c 85 3c ca e7 d6 3b ea 6e af 3d 49 a2 e8 3c
       0.016294675 0.006558393 0.08566077 0.028397696
000310 72 65 b6 bd fe 30 3a 3c 6d f0 a2 bc 82 99 ae bc
       -0.08906068 0.01136422 -0.019890035 -0.021313433
000320 4b fd af 3d de 93 60 3d 1e 97 9f 3d 64 07 69 bb
       0.08593234 0.054828517 0.07792495 -0.0035557384
000330 5a 15 6b 3d 5a 44 e6 bb 90 eb 8c 3d 49 15 5c bd
       0.05739341 -0.007027191 0.068808675 -0.053731237
000340 ea ba a5 bc 01 e3 9c 3c 97 93 93 3d 56 c4 c0 3c
       -0.02023073 0.019151213 0.07205885 0.02353112
000350 b3 37 08 bd 36 fc 03 bc 9c 38 8c 3d 03 ed 4a 3d
       -0.033256244 -0.008055737 0.06846735 0.04954244
000360 6f 05 c5 3d 9a 67 db 3c bb 0e 9e 3d 8d 18 8c 3d
       0.09620177 0.0267828 0.07717653 0.0684062
000370 03 89 81 bd cf 0f 97 3d 06 93 8d bd 80 87 38 bd
       -0.06324961 0.07376062 -0.06912808 -0.045051098
000380 e3 3c 22 3b 3e 7c 52 bd ff ed 54 3d 26 36 7b bd
       0.002475553 -0.051388018 0.051984783 -0.061330937
000390 e4 85 bd bc e4 ae fd 3c 6f 0f 2c bd 11 8d e2 bc
       -0.023135133 0.030967183 -0.042006906 -0.027655156
0003a0 02 62 bc 3d 4d 50 c0 3c 1b 8e 5f 3d 4d bd 27 3d
       0.09198381 0.02347579 0.05457888 0.040952016
0003b0 a6 59 dd 3c 9f d2 0b 3d dd 43 56 3d ab ef 09 bb
       0.027020287 0.03413641 0.052310813 -0.0021047394
0003c0 a4 fe 83 bd 78 e2 be bc 75 31 f4 3c 66 d7 8f 3d
       -0.06445053 -0.023301348 0.02980874 0.07023506
0003d0 19 b9 8e 3d ce 70 bb 3d a4 3f b6 39 62 67 e9 bc
       0.06968898 0.09152375 0.0003476116 -0.02849168
0003e0 9a 0b da bc af 86 88 3d 14 e7 fd 3c c4 9c 8c bd
       -0.02661686 0.06666314 0.030993976 -0.06865838
0003f0 98 11 8b 3c 72 ad 4f 3d 28 dc 2f bc b0 bf 1c bd
       0.016976163 0.05070252 -0.010733642 -0.038268745

fc2.bias f4 [128]
000000 18 dd 92 3d 4e e6 30 bd e0 5a 03 3e dd 5d b7 3c
       0.071710765 -0.043188386 0.12827635 0.022383625
000010 8b ae 4e bd 93 ce 8d bc 32 df 0c bd 6e ac da bc
       -0.050459426 -0.017310416 -0.034392543 -0.026693549
000020 98 4a d2 3d e9 81 19 bd 38 d3 a6 3c 70 1b 35 3d
       0.10268134 -0.037477408 0.020364389 0.04421562
000030 c2 96 b9 3c 6b c4 5a bd d0 e8 8a 3d 3c 29 8a 3c
       0.022654895 -0.053409975 0.06782687 0.016865365
000040 76 40 3f 3d 8f 1c 14 3e 9f 7c e5 3d a9 5e 53 3c
       0.046692334 0.14464019 0.1120541 0.012900987
000050 92 8e 14 bd 8e 7f 4a bd 8b 74 88 3d 80 44 8d 3d
       -0.03626878 -0.049438052 0.06662854 0.06897831
000060 e2 ce 21 3d c6 92 79 bd 10 21 d7 3b c6 4c 48 3c
       0.03950394 -0.06093099 0.0065652207 0.012225335
000070 3d 9d a2 3d cd b4 1b bd 5a e5 42 bd cd 5a 36 3d
       0.07940147 -0.038014222 -0.047582008 0.044520188
000080 ed 57 e0 3d 0b 45 a8 bc bb 35 95 bd 35 5b 60 bd
       0.109542705 -0.020540735 -0.07285639 -0.05477448
000090 49 7f cd 3d 9e c6 d7 3d 5b c6 81 bd 02 e9 28 bb
       0.10034043 0.1053593 -0.063366614 -0.002577365
0000a0 3c ac fa bc 01 5c b0 3d 74 44 53 bd 2e cc e8 3d
       -0.030599706 0.08611298 -0.051578954 0.11367069
0000b0 a8 62 e3 3d 5d e6 85 bd b1 cf d9 bc 28 02 ef bc
       0.111028016 -0.06538079 -0.026588293 -0.029175833
0000c0 f2 51 0c 3c f0 70 43 bd 7c df 96 bd f9 e4 58 3d
       0.008564459 -0.047715127 -0.07366845 0.05295274
0000d0 62 ec d8 3d ff 32 2e bd 39 7c ff 3d 44 61 98 3d
       0.105919614 -0.042529102 0.124748655 0.07440427
0000e0 0e 30 5e bd 15 b7 8a 3d 38 04 70 3d f2 6b 89 3c
       -0.054245047 0.067732014 0.058597773 0.016775105
0000f0 98 84 03 3e 15 18 a0 bb cd b7 a2 bd 81 fa b3 bd
       0.12843549 -0.0048856833 -0.079452135 -0.08788014
000100 de 8b b2 bd 60 09 61 3b a1 09 2a bd b1 27 9d 3d
       -0.08718084 0.0034337863 -0.04151309 0.07673586
000110 11 6f f0 3d 16 59 ae 3d 67 a0 4d 3d b7 29 a2 bd
       0.11739934 0.085130855 0.0502018 -0.07918113
000120 b8 e1 ec bb c8 72 26 3d d3 5d 59 3b 11 f9 5b bc
       -0.007229056 0.040636808 0.0033167496 -0.013426081
000130 0a 68 35 3d c2 08 0d bd 34 27 ba bd f9 bc cc 3b
       0.044288673 -0.03443218 -0.09089509 0.0062481132
000140 48 db 95 bd 8c 66 e9 3a 6e 89 7b bd bc e4 b4 3d
       -0.07317215 0.0017807051 -0.06141036 0.0883269
000150 8b b7 35 bd cf 17 73 3c de e3 07 3e 9b 6d d6 3d
       -0.044364493 0.014837219 0.13270518 0.10470124
000160 89 3b 94 bd 3a 0f 02 3e e0 58 c1 3d 71 67 a4 bc
       -0.07237918 0.12701121 0.0944078 -0.020068856
000170 f0 7a e8 3d 03 0d ce 3d ef a7 66 3b e0 f7 c6 3c
       0.113515735 0.100610755 0.003519531 0.024288118
000180 77 60 d6 3d d6 9a a6 bb ab 70 83 3c 12 b6 b6 bd
       0.10467618 -0.005084376 0.016044935 -0.08921446
000190 71 8f b4 3d 58 51 00 bd 4d e0 c1 3c 6b c8 ae bd
       0.08816422 -0.031327575 0.023666525 -0.085343204
0001a0 09 d0 b8 3d dc 6f 6b 3d a9 78 b8 3a 4b d1 90 3c
       0.090240546 0.057479724 0.0014074045 0.017677924
0001b0 a3 05 a6 3d 0a 59 ac bd 36 ba 44 bd 5b 50 53 bd
       0.08106544 -0.0841542 -0.048029147 -0.051590305
0001c0 cd e6 04 3c 0c 01 ad bd e3 5e 6b bc 54 e6 ba 3b
       0.008111668 -0.08447465 -0.0143658845 0.005703727
0001d0 06 aa 5a 3d 88 d3 e9 bc 9d 9f d0 3c 83 27 1c bc
       0.053384803 -0.028543249 0.025466735 -0.009530905
0001e0 e7 e3 86 bd a5 09 bd 3d 08 20 f8 bb 51 54 82 bc
       -0.06586438 0.09230355 -0.007572178 -0.015909346
0001f0 bf 5d 0b bd 5f c9 9a bd 5c 80 97 bd a2 39 f3 bc
       -0.03402495 -0.0755794 -0.073975295 -0.029690567

fc3.weight f4 [400, 128]
000000 5a 98 3d bd 90 f9 8d bd 5e 24 86 bd da a4 54 3d
       -0.046287872 -0.06932366 -0.06549905 0.051915027
000010 34 0a a6 bc 25 86 5e bd 82 8a b0 bd cd c8 ac 3d
       -0.020268537 -0.05432715 -0.08620168 0.08436737
000020 4f c7 0b 3d 2e f7 1f 3d c8 fd 87 3d 66 01 b6 bd
       0.034125622 0.03905409 0.06640202 -0.088869855
000030 13 0b a0 bd 70 ee 18 bd f7 d6 4f bd 73 67 40 3d
       -0.07814612 -0.037336767 -0.050742116 0.046973657
000040 44 2a 81 3d 3e 62 8c bd 58 fe 15 bd 8d 79 66 bd
       0.0630689 -0.06854676 -0.036619514 -0.056268264
000050 22 de 41 bd c0 42 99 bc 2a 93 09 3d 89 27 7a bc
       -0.047330983 -0.018708587 0.033587612 -0.015268215
000060 15 d8 27 bc d8 d9 28 bc 8e ea a2 bd b9 e0 62 bd
       -0.010244389 -0.010305844 -0.07954894 -0.055390093
000070 d2 e8 2f 3d a0 3b 07 3d 57 ee 35 bd 9e e2 21 3d
       0.042946644 0.033015847 -0.04441675 0.03952276
000080 01 06 67 bd c1 f5 98 3d b0 37 1d 3c f0 23 82 3b
       -0.05640221 0.07468749 0.0095957965 0.0039715692
000090 d9 82 0f 3a 2f 47 8d 3d 05 07 88 bd 39 d3 87 3b
       0.0005474515 0.06898343 -0.06641964 0.0041450527
0000a0 b4 0e 8e bd 04 72 87 bd 6d 46 b2 bd df 7c 8b 3d
       -0.06936398 -0.06613544 -0.08704839 0.06810927
0000b0 57 22 9a 39 fc e5 fd bc ec e8 09 3d 50 5c 95 bd
       0.00029398754 -0.030993454 0.033669397 -0.07292998
0000c0 34 6c 40 3d e5 8f 0d bd c1 39 34 bd ee f0 0d bd
       0.04697819 -0.034561057 -0.04400039 -0.034653597
0000d0 a4 4d 63 3d 20 42 cb 3c ed 78 82 bd 80 13 97 3b
       0.055493966 0.024811804 -0.06370721 0.004610479
0000e0 00 4f a4 39 16 78 39 bd 54 81 00 3d 91 37 8d bd
       0.00031339377 -0.04528054 0.031373337 -0.06895364
0000f0 f8 dd 04 bd 2f 58 49 bd c2 32 33 bd 78 19 9d bc
       -0.03243825 -0.049156364 -0.04374958 -0.019177184
000100 41 3b 89 3d e3 53 a9 bd 40 5e 75 bd 6b f5 76 bd
       0.06700755 -0.08267953 -0.059904337 -0.060292643
000110 0e 1d 40 3d d2 4d 3f bc 36 41 64 3d d0 34 88 3c
       0.04690271 -0.011676269 0.055726252 0.016626745
000120 1e 97 8e 3d c0 cb e0 3b c0 68 cf bb 0c 26 d7 3c
       0.06962417 0.0068602264 -0.006329626 0.02626326
000130 a3 7e 0f bc a0 73 a7 bd 9f 13 70 bd e3 5e 9b 3d
       -0.00875822 -0.081763506 -0.058612462 0.075864576
000140 40 d8 21 bb 2d 77 50 bd 78 9a 91 bd 67 df d1 bc
       -0.0024695545 -0.050894905 -0.07109541 -0.025619222
000150 00 d9 2e 3c 78 d6 62 bd 4b cd 75 bd 01 88 a7 bd
       0.010671854 -0.055380315 -0.060010236 -0.081802376
000160 f4 85 04 3d da 9c 8c bd 5a 5c 55 bb 6c bd ce bc
       0.03235431 -0.068658546 -0.0032556267 -0.025236808
000170 f0 7f 84 bb 45 25 d7 bc 2f 39 8b 3d ab 7a 85 bd
       -0.0040435717 -0.026262889 0.06798016 -0.06517538
000180 75 50 d0 3c 2e 67 7f 3d f7 aa 9b bd 53 84 9b 3d
       0.02542899 0.06235426 -0.07600968 0.07593598
000190 01 7f aa bd 98 e9 e2 3c 62 97 2f bd b6 1e 22 3c
       -0.08325005 0.027699277 -0.04286898 0.009895017
0001a0 54 37 a8 bd f4 37 77 bd c5 8a 7f bd d8 dc ea bc
       -0.08213678 -0.060356095 -0.0623882 -0.02866976
0001b0 89 19 e2 bc 38 8b 18 bc f8 7f 5c bc 6b fa a7 3d
       -0.027600067 -0.009310536 -0.0134582445 0.0820206
0001c0 e9 81 60 bd 88 29 3d bd 9f ca 8d 3c 88 1d 2d 3c
       -0.054811392 -0.046182185 0.017308531 0.010566123
0001d0 c6 1d 42 bc 0e 04 7e 3d 77 df 9b bd 38 27 85 3c
       -0.011847919 0.062015586 -0.07610982 0.016254053
0001e0 a1 b0 91 3d 2b 6e 4d 3d 60 43 94 bc 18 4c fe bc
       0.071137674 0.050153892 -0.018098533 -0.031042144
0001f0 40 cf ac 3c 65 b0 b4 3d 51 03 39 bd 26 f1 9a bd
       0.021094918 0.08822707 -0.04516918 -0.07565527
000200 8e 21 c9 bd 0e 29 ad bd b1 2e 7f 3d a4 76 95 bb
       -0.09820853 -0.08455096 0.062300388 -0.004561262
000210 c6 dc a8 3c e0 33 17 bb cc 83 8c bd 6c 09 50 bd
       0.020613085 -0.0023071691 -0.06861076 -0.050790235
000220 78 ff 91 bd a4 99 26 3d 83 5c a0 3b f6 9c 2b 3d
       -0.07128805 0.040673867 0.0048938408 0.041897736
000230 32 e1 bf 3c 75 cd 35 bd 74 5f 78 3d a4 1d ef bc
       0.023422811 -0.044385392 0.060637906 -0.029188938
000240 6d e8 03 bd 1b ac 45 3c 3e f9 4b 3d 38 a1 90 bd
       -0.03220408 0.012064959 0.049798243 -0.07062
000250 62 63 7a 3d c0 13 55 3c ec f1 97 bb 92 cc 57 3d
       0.061129935 0.013005197 -0.0046369936 0.052685328
000260 7f 3c 2b 3d 76 b1 22 bd 40 76 26 bb 4a fc a3 3c
       0.04180574 -0.03972002 -0.0025400072 0.020017762
000270 1a 2b 0d 3d 89 7b 67 bd 7d b5 5c bd 5b 14 4d 3d
       0.034464933 -0.056514297 -0.05388402 0.05006824
000280 19 e9 38 bd 6e 10 b4 bd 8e c4 b2 bd 65 18 b1 3c
       -0.045144174 -0.08792196 -0.08728896 0.021618078
000290 40 e8 34 3d 58 9c 65 ba b6 8d 60 3d 95 b9 87 3d
       0.044166803 -0.0008758954 0.054822646 0.06627194
0002a0 4e 94 4f 3d ec ef 02 bd 76 32 5b 3c 67 82 08 bd
       0.050678544 -0.03196709 0.01337873 -0.033327486
0002b0 96 1c e3 39 45 14 b1 3d 2b ac ab bd 86 ba 94 3d
       0.00043318112 0.08646444 -0.08382448 0.07262139
0002c0 ab 1f 9b ba 68 26 50 bc a6 dd 00 bd ac e7 7b bd
       -0.0011834999 -0.012704469 -0.03146138 -0.061500236
0002d0 31 2e 86 bd 03 3c a3 3d 89 e9 51 bd 1d 19 28 bb
       -0.06551779 0.07970431 -0.051248107 -0.0025649734
0002e0 ad 67 aa 3d bd c6 de bd 9e e3 e1 bd aa fb 2a bd
       0.08320556 -0.1087775 -0.11029743 -0.04174391
0002f0 81 30 c9 bd 07 97 a2 3d 92 e1 34 3d 7e 7e 58 3d
       -0.098237045 0.079389624 0.044160433 0.052855007
000300 2e 1f e7 bc b8 0b 18 3d 19 30 80 3d e1 8f ff 3c
       -0.02821311 0.03712055 0.06259174 0.031196536
000310 f8 23 61 3c 06 b4 42 3d 83 2e 90 bd 68 46 84 bd
       0.013741486 0.047534965 -0.070401214 -0.064587414
000320 4a e4 44 bc 4e 6c 18 3d 29 0d 3b bc a7 36 d9 bd
       -0.012017319 0.037212662 -0.011416712 -0.10606127
000330 bd 60 f7 bc 80 05 ed 3c 34 1b 9c 3c 11 88 a0 bd
       -0.030197496 0.028933287 0.01905594 -0.078384526
000340 51 0f 29 3d c5 70 88 bd f8 49 8c 3c 37 d5 d4 bd
       0.041274372 -0.06662134 0.017125115 -0.1039223
000350 92 1f 55 3d f4 07 13 3d 9d aa 95 bc 90 b0 1c 3d
       0.05203206 0.035896257 -0.018269831 0.03825432
000360 78 3f 91 3c fc e9 4a bd 34 0e 42 bd e9 bb 26 bd
       0.01773046 -0.04953955 -0.047376826 -0.04070655
000370 7e 39 9d bd 8e 58 0e bd 60 83 13 bc 49 73 0b 3d
       -0.076769814 -0.03475242 -0.00900349 0.03404549
000380 03 56 74 3d 26 c3 64 3d 6b 8e 9b 3d 61 d8 ac 3d
       0.05965234 0.05585017 0.075955234 0.084397085
000390 46 a4 b9 bd ee 4f 8b bd 39 dc 5d bd 8c 53 28 bd
       -0.09064536 -0.06802355 -0.0541651 -0.0410953
0003a0 94 47 a4 bd 58 a6 af bd f7 ff a8 bc 58 8f 62 3d
       -0.08021465 -0.085766494 -0.020629866 0.055312485
0003b0 ee 85 c4 bd 40 69 b9 3c 56 ed c6 bd 80 37 04 bd
       -0.095958576 0.022633195 -0.09713237 -0.03227949
0003c0 f8 c0 fa 3b 2e 4e 64 3d a9 cd db bc db b8 93 bd
       0.007652398 0.05573862 -0.026831465 -0.07212993
0003d0 a9 27 90 bd 09 45 89 bd d6 4a 7a bd 3a 8b 86 bc
       -0.070388146 -0.067026205 -0.061106525 -0.01642381
0003e0 f7 85 ac 3d c1 ab 3e 3d 4b b9 8d 3d f5 d1 90 bd
       0.08423989 0.046550516 0.069201075 -0.07071296
0003f0 48 ba 52 bc 83 57 ac bd 2e 94 f1 bc fd 93 88 bd
       -0.012861796 -0.08415129 -0.029489603 -0.066688515

fc3.bias f4 [400]
000000 2d eb a9 bd 0f e6 4f bd 88 50 16 bd 73 0a 90 3d
       -0.08296809 -0.05075651 -0.036697894 0.07033243
000010 28 71 a5 bd c7 1e 5d bb e5 fc 33 3d 0a bd 03 bd
       -0.080782235 -0.0033740269 0.04394235 -0.032162704
000020 76 4f 10 bd d6 e4 d7 bd 20 b6 3b bd c4 c1 ab bd
       -0.03523203 -0.10541694 -0.045827985 -0.08386567
000030 b7 d4 95 bd d0 d9 fb 3a 41 6c 4a 3d ea f8 70 bd
       -0.07315963 0.0019214693 0.049419645 -0.058831133
000040 1a 57 85 3d 00 09 60 bd ba 49 7d 3d 8b c0 c2 bd
       0.06510754 -0.054696083 0.06183789 -0.09509381
000050 58 8a 8a bc 98 4f 3b bd 4f 4a 6c 3b 5e 79 36 3d
       -0.01691167 -0.045730203 0.0036055034 0.04454934
000060 0a 68 db 3c 70 2a 7a 3d 26 87 f3 bc 23 aa 47 3d
       0.026783008 0.061075628 -0.02972753 0.04874624
000070 6c 37 2d 3d 4e 9d 00 bc 7a 4d 50 bc bc cd bd 3c
       0.042289183 -0.007850004 -0.012713784 0.02316939
000080 70 cc ed bc 9d 2d be ba e1 81 1e bd d9 b5 c2 bd
       -0.029028147 -0.0014509443 -0.03869808 -0.09507341
000090 84 e2 66 3b 54 92 80 3d 3d 1c 9e bc 72 44 cc 3c
       0.0035230229 0.0627791 -0.019300574 0.024934981
0000a0 69 66 23 3c b6 97 a3 bd ed 3f 33 bd 2b 33 e7 3a
       0.009973147 -0.07987921 -0.043762136 0.0017639151
0000b0 60 d1 dd bd 59 e9 54 3c 7f 06 bb bc d9 bb c0 3c
       -0.10830951 0.012995088 -0.022830246 0.023527073
0000c0 8a db 59 bd 3a 84 81 bd 3e 3a 8a 3c 2f 9d 13 3c
       -0.053187884 -0.06324048 0.016873475 0.009009643
0000d0 b2 4c d8 bb 25 ed 50 3d 9d 5d e6 3b 66 ff 40 3c
       -0.0066009397 0.05100741 0.0070302025 0.011779642
0000e0 4c 68 20 bd 11 03 ca bc 46 6b c5 bc 4e ce 0c bd
       -0.039161965 -0.024659665 -0.024099004 -0.034376435
0000f0 0f 24 ea 3c 31 2c 41 3c dc 5d 9c bc d0 92 70 3d
       0.028581647 0.011790321 -0.019087724 0.05873376
000100 ee 9c 9e bd 8d 06 d1 bc a8 9b fe bc 7b ec 08 3d
       -0.07744776 -0.025515819 -0.031080082 0.03342865
000110 b3 a0 9a bd 23 20 74 bd 2c ae 6f 3c 08 21 cf bc
       -0.07550182 -0.05960096 0.014628928 -0.025284305
000120 08 6a c8 bd 36 f2 c6 bd 72 e8 3e bd fc 9f 3a 3c
       -0.09785849 -0.09714167 -0.046608396 0.011390682
000130 ed 04 75 bd 96 5d 99 bd 6a 20 b1 bb 98 d4 17 bd
       -0.05981915 -0.07488553 -0.0054054754 -0.03706798
000140 99 36 ce bd e8 7d 92 bd 54 a1 d9 b7 64 9c 2c bd
       -0.100690074 -0.07152921 -2.594354e-05 -0.042141333
000150 95 aa 3b 3c 30 8e 9d 3c 61 32 6a bd 58 e1 88 bd
       0.011454244 0.01923284 -0.05717695 -0.06683606
000160 5c 20 c6 3c 7a ae b5 b9 8b 89 6a bd 9b be 72 bd
       0.024185352 -0.00034653005 -0.057260077 -0.059263807
000170 db fd 71 bd 6e 15 3f 3c e1 97 e7 bb f4 8c 4c 3d
       -0.059079986 0.011662824 -0.007067666 0.04993911
000180 29 86 36 bd 4f b8 13 3d ff 52 b4 bd 15 a5 ea 3c
       -0.04456154 0.036064442 -0.08804893 0.02864317
000190 4c 2c a5 bc 9b 62 ab bd 82 c9 4f 3d 62 1d 72 bd
       -0.020162724 -0.08368417 0.050729282 -0.059110053
0001a0 7f 91 25 bd 52 06 0e bc 78 54 4e 3d b2 4f 9a bd
       -0.04042196 -0.008668499 0.050373524 -0.07534732
0001b0 1d 63 a4 bd 58 f6 75 bd 23 30 6c 3d d3 07 4c bd
       -0.08026717 -0.060049385 0.057663094 -0.04981215
0001c0 ce ed 8f bd c0 87 93 3d fa 8c 2c bd ec 50 cc bd
       -0.070277795 0.07203627 -0.042126633 -0.09976372
0001d0 21 61 ce 3c c8 67 32 3d ef ce 14 bd 9d d7 87 3c
       0.025192799 0.043556005 -0.03633016 0.016582305
0001e0 89 1d 60 3c 57 46 8b bc f0 28 c2 3c 6e 77 71 3d
       0.013678917 -0.017001314 0.023701161 0.058951788
0001f0 5b ed 58 3d ea fb a7 bb c9 d2 d8 3b d2 c6 2d 3d
       0.052960735 -0.005126466 0.0066169244 0.042425938
000200 2d f6 b9 bd b4 39 26 3d 3a 8b 04 bc 9d 10 18 3d
       -0.090801574 0.040582374 -0.008089835 0.03712522
000210 9c bd 5d bd 85 7c ad bd e9 e5 30 3d f8 a9 4e 3d
       -0.054135904 -0.08471016 0.04318801 0.050455064
000220 03 d5 0c 3d 63 f1 30 3b 5d 19 49 bc ef 31 b3 bb
       0.03438283 0.0026999346 -0.0122741135 -0.005468599
000230 cb 33 ce 3c fa 9e e3 3c c0 85 b0 3c 45 f3 74 3d
       0.025171181 0.027785767 0.021548152 0.059802312
000240 be d4 05 bd 90 3c 5d 3d 3d 0f 74 3d 18 b2 51 3d
       -0.03267359 0.054012835 0.059584845 0.051195234
000250 c8 4d 75 bd 6d 63 8e bd e4 81 d3 bd d4 36 a5 bd
       -0.05988863 -0.06952558 -0.10327509 -0.08067098
000260 9e dc a5 bd 34 dd 9d bd ab c5 eb bc 69 a0 05 3d
       -0.0809872 -0.07708207 -0.028780779 0.032623682
000270 72 73 3c bd 66 85 3d bd d5 4a 2b 3b 0b a2 2b 3d
       -0.046008535 -0.046269797 0.0026137133 0.041902583
000280 d3 29 ff 3c 20 db 45 3c 59 05 52 3d 53 21 33 3d
       0.031147873 0.012076169 0.05127463 0.043732952
000290 0e 9e 8f 3d e7 97 13 bc c4 15 be 3c 1b 86 20 bd
       0.070125684 -0.009008384 0.023203738 -0.039190393
0002a0 00 de 98 3b ea 30 33 bd 7f 0a 62 bd ab 09 d2 bb
       0.0046651363 -0.04374782 -0.05518579 -0.006409844
0002b0 2b db 49 3b 9d ed 4d 3d 3e 4b 83 3c d4 cd 26 3d
       0.00308008 0.050275434 0.01602709 0.040723637
0002c0 2e 33 79 3d 10 79 55 bd 06 d6 a4 3b 26 26 f9 bc
       0.060839824 -0.052117407 0.0050303964 -0.030413698
0002d0 7d f5 cb bd 90 ac 9f 3d ec 1b 59 bd f2 97 5b 3d
       -0.099589325 0.077965856 -0.053005144 0.053611703
0002e0 c9 da 1f 3d 6e 7d 53 3d 6f 05 d9 bd f0 d2 06 3d
       0.03902701 0.05163329 -0.105967395 0.03291601
0002f0 c3 cc ce bd 88 79 43 3d 88 5c 06 bd cf 78 8c bd
       -0.10097649 0.047723323 -0.03280309 -0.0685898
000300 fd 5c ae bd 9f f3 c5 bc 36 0a 48 3c 32 b3 2a 3d
       -0.0851383 -0.02416402 0.012209466 0.0416748
000310 2c 92 20 3d 33 0d 0b 3b 64 4d db 3c 4e 29 44 bd
       0.0392019 0.0021217584 0.026770301 -0.047890954
000320 b9 02 08 bd 51 e9 d7 3b f2 e5 07 bd 45 7b 14 3d
       -0.03320572 0.006589093 -0.033178277 0.03625037
000330 8c 63 4a 3d 9c a0 50 bd 3e 45 8a bd ca 4a 96 3d
       0.04941134 -0.05093442 -0.06751488 0.07338484
000340 36 39 39 bd 8a 55 1d bd 76 f6 b6 bc c2 8b c8 bc
       -0.045220576 -0.038411655 -0.022334319 -0.024480704
000350 88 ae 6f 3c 26 60 94 bd cd 73 24 3d f2 13 aa bd
       0.014629014 -0.07244901 0.0401495 -0.083045855
000360 86 cb d5 3c cc a8 a6 bb c0 81 4c bd 1e 40 fe 3c
       0.026098024 -0.00508604 -0.049928427 0.031036433
000370 03 a4 49 bc 11 5d 7d bd cb 3f eb 38 5e a1 17 3d
       -0.01230717 -0.061856333 0.000112175556 0.037019126
000380 17 ac 32 3c c4 ed a3 bd 2c 97 ad ba f3 d4 ea 3c
       0.010905287 -0.080043346 -0.0013243905 0.028665995
000390 a3 5d 81 3d cb 90 26 bd 92 5b 07 bc 52 5f 40 3c
       0.06316688 -0.04066543 -0.008261578 0.011741476
0003a0 ce 9e 97 bc 87 98 bd bd d8 bd b6 bc 25 50 38 3c
       -0.018508341 -0.09257608 -0.022307321 0.011249577
0003b0 44 e9 01 3d cd 4c 3a bd 90 24 73 bd 98 2b dc bc
       0.0317166 -0.0454834 -0.05936104 -0.026876256
0003c0 7c c1 31 3c 1d d4 71 3d 43 6a 68 3d 07 de c1 3c
       0.010849353 0.059040178 0.056741964 0.023665441
0003d0 ed dc 1d 3c 46 2c 9b bd f0 8f cb bc 7a 50 56 bd
       0.009635192 -0.07576804 -0.024848908 -0.052322842
0003e0 5a 1c d8 3b e4 c1 8b 3d 33 12 08 bc b5 64 67 bd
       0.0065951766 0.06824091 -0.00830512 -0.056492526
0003f0 a3 bc a5 bc 39 b0 7a 3c 50 55 1c 3d ae 22 46 bc
       -0.02023155 0.015300804 0.038167298 -0.012093229
