models/dqn_model_500.pth (torch, 480388 bytes, 6 tensors)

fc1.weight f4 [128, 400]
0	0xbca5c17e	-0.020233866
1	0x3d5930e1	0.05302513
2	0xbd11d230	-0.03560084
3	0xbcb01bf3	-0.021497702
4	0xbce7e808	-0.028308883
5	0xbd46c467	-0.048527148
6	0x3ca8cde6	0.020605993
7	0xbd15e167	-0.036591914
8	0xbc122919	-0.008920931
9	0x3d093f6b	0.033507746
10	0xbc1c6dd4	-0.009547669
11	0x3a42f111	0.00074364344
12	0x3c774b24	0.0150935985
13	0xbabeed90	-0.0014566649
14	0x3d4f7108	0.050644904
15	0x3cf90ac6	0.030400645
16	0x3cf9fdf3	0.0305166
17	0xbca960bd	-0.020676011
18	0xbc3c9e7b	-0.011512394
19	0x3d01f161	0.031724337
20	0xbcba03e9	-0.022706943
21	0x3cfd55ce	0.030924704
22	0xbc3c7c93	-0.01150431
23	0x3c6bb738	0.0143869445
24	0x3c8ed945	0.017437587
25	0x3c46dfd4	0.012138326
26	0x3c69ac9c	0.014262345
27	0xbc522307	-0.012825734
28	0x3cd2b6f6	0.025722008
29	0x3c9ba61b	0.019000104
30	0xbd24b184	-0.040208355
31	0xbbd14d90	-0.00638742
32	0xbc6372d4	-0.013882358
33	0xbce1b087	-0.027549995
34	0x3cc31b34	0.023816682
35	0x3c329ae5	0.010901188
36	0xbc34ea83	-0.01104224
37	0x3cc75c4d	0.024336005
38	0x3ca8bbb9	0.020597326
39	0xbc6b2e76	-0.014354339
40	0x3ccc1b3e	0.024915334
41	0xbd3d8f60	-0.04627931
42	0xba87769f	-0.0010335034
43	0x3cf18bbf	0.029485581
44	0xbd2fb46b	-0.04289667
45	0xbd46f9dc	-0.04857813
46	0xbba9baf0	-0.0051797554
47	0xbc44c42f	-0.012009664
48	0x3d30662c	0.04306619
49	0xbd2c7797	-0.042106237
50	0x3c10aac7	0.008829779
51	0x3b947131	0.004530095
52	0xbd315c42	-0.043300875
53	0xbcca587a	-0.024700392
54	0xbcd5feae	-0.026122417
55	0x3ce621f5	0.028092364
56	0x3cc09010	0.023506194
57	0x3d272f61	0.04081667
58	0xbccb7ebb	-0.024840703
59	0x3b08787d	0.002082377
60	0x3c79f8c6	0.015257066
61	0x3cb6f3a2	0.02233297
62	0x3c4488e0	0.011995524
63	0xbc5f90a6	-0.013645327
64	0xbc42c9d6	-0.011888942
65	0xbd140bde	-0.03614413
66	0xbbbdb149	-0.0057889563
67	0xbd0401ba	-0.03222821
68	0xbbbc331f	-0.005743399
69	0x3c89548d	0.01676395
70	0xbd2c93f6	-0.042133294
71	0xbcb3eaf7	-0.021962626
72	0xbba1e528	-0.0049406476
73	0x3d1fa7bd	0.038978327
74	0xbd1058dc	-0.035240993
75	0x3c641330	0.01392059
76	0xbd0b1c0a	-0.033962287
77	0xbcfb0432	-0.030641649
78	0xbd039fd6	-0.032134853
79	0xbca1e50d	-0.01976254
80	0xbc55bfd8	-0.013046227
81	0x3cb82395	0.022477904
82	0x3b9ac3d0	0.0047230497
83	0x3c93199c	0.017956547
84	0x3c9c9517	0.01911406
85	0x3cc15f2e	0.023604956
86	0x3ce7eec4	0.028312095
87	0x3b7ea0e4	0.0038853223
88	0xbce07a4f	-0.027402071
89	0xbbd63f01	-0.0065382724
90	0x3c837dac	0.016051136
91	0xbd16d508	-0.036824256
92	0x3c33c485	0.010972147
93	0x3ced1a4d	0.028943205
94	0xbbb1623c	-0.005413322
95	0x3d15588a	0.03646139
96	0x3b340786	0.0027470305
97	0xbc34ee02	-0.011043074
98	0xbd2d7483	-0.042347442
99	0x3d09831c	0.0335723
100	0xbcd6789a	-0.026180554
101	0x3d3e8e58	0.04652247
102	0xbcd05733	-0.025432205
103	0xbd1286ec	-0.035773203
104	0xbd1caa58	-0.03824839
105	0xbcfc4ca3	-0.030798262
106	0x3d04caa9	0.032419834
107	0x3c72d141	0.014820398
108	0x3d0c0b39	0.03419039
109	0xbceff9c2	-0.029293898
110	0xbc9ab406	-0.01888467
111	0x3d292c29	0.04130188
112	0x3c4f8684	0.012666348
113	0x3c4bd9da	0.012442077
114	0xbc329a73	-0.010901081
115	0xbc82d57c	-0.015970938
116	0xbd031298	-0.032000154
117	0xbd4700bf	-0.048584696
118	0xbd22f172	-0.03978104
119	0xbd445fec	-0.04794304
120	0x3c170809	0.009218224
121	0x3c78e3b3	0.0151910065
122	0xbd2c0d4d	-0.042004872
123	0xbccc5891	-0.024944576
124	0x3c2b03e5	0.01043794
125	0x3cdc2dec	0.026877366
126	0xbc1c288f	-0.009531154
127	0xbcd0d634	-0.025492765
128	0x3cd749ba	0.026280273
129	0xbcf36f10	-0.029716045
130	0x3b38d05f	0.002820037
131	0x3c649763	0.013952109
132	0x3d3b544f	0.0457347
133	0x3cfc3411	0.030786546
134	0x3bfd79f9	0.0077354875
135	0xbc630b93	-0.01385774
136	0x3cb67c21	0.022275986
137	0x3cbf869f	0.023379622
138	0xbc5519cf	-0.0130066415
139	0x3d2efcf5	0.042721707
140	0xbbeb56b0	-0.007181965
141	0x3c9039cb	0.017605683
142	0xbc5f790b	-0.013639699
143	0xbd2772f8	-0.040881127
144	0x3bab25eb	0.005223026
145	0xbd27e36e	-0.04098838
146	0xbb89f75f	-0.004210397
147	0x3d1fd004	0.03901674
148	0x3d2c976e	0.042136602
149	0xbc3a41d4	-0.011368234
150	0xbc3fc8a0	-0.011705548
151	0xbbc0811d	-0.0058747665
152	0x3d146c8d	0.036236335
153	0x3b2a95e3	0.002602928
154	0x3d209a48	0.039209634
155	0x3d2b39a2	0.04180301
156	0x3d4b8135	0.04968377
157	0xbd04e20e	-0.032442145
158	0x3b378b06	0.0028006448
159	0x3cc61865	0.024181554
160	0x3cf5722e	0.029961672
161	0xbd4527d4	-0.048133686
162	0xbd523746	-0.051322244
163	0xbc7e1a1d	-0.015509156
164	0xbb723ef9	-0.0036963804
165	0xbc9a23d0	-0.018815905
166	0xbc89954f	-0.016794829
167	0x3c3867bf	0.011255204
168	0xbc70fcce	-0.014708711
169	0xbd36f527	-0.04466739
170	0x3c350f4b	0.011051009
171	0xbb3185b9	-0.0027087762
172	0x3d26f535	0.04076119
173	0xbd1fa49f	-0.038975354
174	0x3c89e0bf	0.0168308
175	0x3cc48346	0.023988377
176	0x3cdfd330	0.027322382
177	0xbc204ffd	-0.009784696
178	0x3c3276c3	0.010892573
179	0x3b40a917	0.002939766
180	0x3d0eb0a9	0.034836445
181	0x3cd741f7	0.026276572
182	0x3d322d2c	0.04350011
183	0x3d365f49	0.044524465
184	0x3d3425b8	0.043981284
185	0xbd0fc8bd	-0.03510355
186	0xbcb2518c	-0.0217674
187	0xbd276c29	-0.040874634
188	0x3d2f27ef	0.042762693
189	0xbd215522	-0.03938783
190	0xbccb25a0	-0.024798214
191	0x3bd24512	0.006416925
192	0xbc05e87d	-0.008173105
193	0xbc823cc4	-0.015898116
194	0xbd22648d	-0.039646674
195	0x3d1f397a	0.038873173
196	0xbd5e9aa6	-0.054346703
197	0xbcc16f9a	-0.023612786
198	0x3bca3382	0.006170691
199	0x3c267401	0.010159493
200	0xba9f55c0	-0.0012156293
201	0x3bb98818	0.0056619756
202	0x3ceef44e	0.029169228
203	0x3d023114	0.031785086
204	0xbd3f81f4	-0.046754792
205	0xbd25bd06	-0.04046347
206	0x3d0813c1	0.033221964
207	0x3ca05e9b	0.019576361
208	0xbd3c46da	-0.045966007
209	0xbc9f7a8d	-0.019467616
210	0x3bf7a9e9	0.0075580967
211	0xbb33a617	-0.002741223
212	0xbd17a876	-0.03702589
213	0x3c3dfa4b	0.011595319
214	0x3d33c3d4	0.043887928
215	0xbd4c6992	-0.049905367
216	0xbd04e208	-0.032442123
217	0xbc930598	-0.017947003
218	0x3cf97ea8	0.030455902
219	0xbd18892a	-0.037240185
220	0xbce482ef	-0.027894465
221	0x3c5f834e	0.013642145
222	0xbd243ef7	-0.04009911
223	0xbd3ffefb	-0.046874028
224	0x3d15f065	0.03660621
225	0xbcd05fca	-0.0254363
226	0x3c1b269a	0.009469653
227	0x3cdb5c31	0.026777359
228	0xbd08a825	-0.03336348
229	0x3d4593e2	0.048236735
230	0x3cf3795f	0.02972096
231	0xbcb40c17	-0.021978421
232	0xba4f4ea7	-0.00079081435
233	0x3cf5e160	0.030014694
234	0xba922df9	-0.0011152617
235	0xbc1bfc34	-0.009520579
236	0xbd0257ed	-0.031822134
237	0xbd0ef9d9	-0.034906242
238	0xba5c4ec0	-0.00084040686
239	0xbcb5d9f7	-0.02219866
240	0x3d2b63fa	0.041843392
241	0xbc271cb0	-0.010199711
242	0xbd2440de	-0.040100925
243	0x3c678074	0.014129747
244	0xbd37c01a	-0.044860937
245	0x3c87a73a	0.016559232
246	0xbb4dcef9	-0.0031403883
247	0x3cfdaded	0.030966723
248	0xbc6b55be	-0.014363704
249	0xbb059d56	-0.002038797
250	0xbd0faf91	-0.035079543
251	0xbb9ff0d3	-0.0048810034
252	0x3d0b72af	0.034044918
253	0x3c8f9aa9	0.017529802
254	0x3d016124	0.03158678
255	0xbc5d9296	-0.013523718

fc1.bias f4 [128]
0	0xbd37882e	-0.044807605
1	0x3d8d9d44	0.06914762
2	0x3cefa921	0.029255452
3	0x3d7e668a	0.062109508
4	0x3e0856fd	0.13314433
5	0x3ce9bf98	0.028533742
6	0xbc29ad4f	-0.010356261
7	0xbd02d6f7	-0.031943288
8	0x3d1d1aa0	0.03835547
9	0xbd5dcb70	-0.05414909
10	0x3bca7016	0.0061779125
11	0x3d320752	0.043464012
12	0x3d1eb13e	0.03874325
13	0xbd268777	-0.040656533
14	0x3cf9cb42	0.030492429
15	0x3d9f1d13	0.07769217
16	0xbbbb9898	-0.0057249777
17	0x3d9c2312	0.07623877
18	0x3bcb9e4c	0.006213939
19	0x3c38da4e	0.011282517
20	0x3d3d37b3	0.046195697
21	0x3de6b7c2	0.11265518
22	0xbc378af4	-0.011202563
23	0x3b2a0910	0.0025945343
24	0x3d83c495	0.064339794
25	0xbd4b0c4a	-0.049572267
26	0x3c9131f0	0.017724007
27	0xbcbf5c69	-0.023359494
28	0xbceccc78	-0.028906092
29	0xbcd94d0d	-0.026525998
30	0x3e151844	0.14560038
31	0x3cfe20bc	0.031021468
32	0xbca53857	-0.020168466
33	0x3dc1faac	0.0947164
34	0x3c7663f7	0.015038482
35	0x3d1c8b38	0.038218707
36	0x3d9ab410	0.075538754
37	0x3dd82ed8	0.1055581
38	0x3d93d418	0.07218188
39	0x3d01eb8a	0.03171877
40	0x3cd0da0d	0.0254946
41	0x3db8db67	0.09026223
42	0xbd25960a	-0.04042629
43	0x3ab6a5b6	0.0013934884
44	0xbbdf5607	-0.006815675
45	0x3d884f38	0.06655735
46	0x3cd17408	0.025568023
47	0x3d4ab473	0.049488496
48	0x3e2021aa	0.15637842
49	0x3d75cf36	0.060012065
50	0x3cc4f505	0.024042616
51	0x3d92b31f	0.07163071
52	0x3d22492d	0.039620567
53	0x3e0cefdf	0.13763379
54	0x3d041cc5	0.032254
55	0x3d5e3132	0.054246135
56	0xbb7f4c3e	-0.0038955356
57	0x3da33d2a	0.079706505
58	0x3d3ce791	0.046119276
59	0x3d2787c5	0.040900964
60	0x3b3bba9c	0.0028645163
61	0x3d366e3c	0.04453872
62	0x3cbc456b	0.02298232
63	0x3dad20aa	0.08453496
64	0x3e01ee66	0.12688598
65	0x3d124462	0.035709746
66	0xbcf1d937	-0.029522521
67	0xbd2f4cb8	-0.042797774
68	0xbd62ba1e	-0.055353276
69	0xbd001f75	-0.03128
70	0x3db5a2b2	0.08868922
71	0xbd5b4abc	-0.05353807
72	0x3cd8dedf	0.02647346
73	0x3c85eb0f	0.016347436
74	0x3cdb6713	0.026782548
75	0x3c940a20	0.018071234
76	0x3daea250	0.085270524
77	0x3d556d75	0.05210634
78	0x3dd1dd6f	0.10247313
79	0x3d802280	0.0625658
80	0x3d14b32d	0.036303688
81	0x3d8df81c	0.06932089
82	0x3d147dc8	0.036252767
83	0x3c0655da	0.00819918
84	0x3d80269c	0.06257364
85	0xbd184ac5	-0.03718068
86	0x3d2ff857	0.042961445
87	0xbcc390a8	-0.023872688
88	0x3cb1f5a4	0.021723576
89	0x3c70c6d5	0.014695843
90	0x3cd266e8	0.025683835
91	0xba28d01e	-0.0006439703
92	0x3ddab7f1	0.10679615
93	0x3d0c79b5	0.034295756
94	0xbceeb970	-0.029141158
95	0x3dd2ed34	0.10299149
96	0x3d60ebb2	0.054912277
97	0x3bdb7e5c	0.006698413
98	0x3d8ade56	0.067806885
99	0x3d03cfba	0.032180525
100	0xbc9b1d05	-0.018934736
101	0xbc8405c0	-0.016116023
102	0xbd47fc77	-0.048824754
103	0xbb425645	-0.0029653471
104	0x3d269ea4	0.040678635
105	0x3cbaa1d7	0.02278225
106	0x3d35ec14	0.044414595
107	0xbd77d439	-0.060505126
108	0x3dc020d3	0.09381261
109	0x3d7a58b2	0.061119743
110	0x3e05d3c8	0.1306907
111	0x3dd05efa	0.10174365
112	0xbcfe2598	-0.031023785
113	0xbd3b0179	-0.0456557
114	0x3d0ee305	0.03488447
115	0x3e0a35ad	0.13497038
116	0x3e106371	0.14100434
117	0x3dff7569	0.12473566
118	0x3e0e5270	0.13898635
119	0x3bab56b8	0.0052288435
120	0x3d1502b1	0.03637952
121	0x3c2496f3	0.010045755
122	0xbc4bffd7	-0.012451134
123	0xbd5a1f9d	-0.053252805
124	0x3d6c7605	0.05772974
125	0x3e309d60	0.17247534
126	0x3c2bd1ae	0.010487003
127	0x3dce72fb	0.100805245

fc2.weight f4 [128, 128]
0	0xbd886f7f	-0.06661891
1	0xbcb62ecb	-0.02223911
2	0xbc88e95a	-0.016712833
3	0x3c507d46	0.01272518
4	0x3d9211b0	0.0713228
5	0x3da9102a	0.08255036
6	0x3ca85f5f	0.020553289
7	0xba164586	-0.00057324057
8	0x3db05b61	0.08611179
9	0x3cfca6b9	0.030841218
10	0xbd64cdbe	-0.055860274
11	0xbd246674	-0.04013677
12	0x3d99e2fe	0.075139984
13	0xbcf70e79	-0.030158268
14	0x3d5d28a7	0.053993847
15	0x3d1b79f8	0.037958115
16	0x3d2ac81c	0.041694745
17	0xbd272493	-0.040806364
18	0x3db9da8f	0.0907489
19	0xbc786755	-0.015161355
20	0x3cce5227	0.025185658
21	0x3cbfa149	0.023392336
22	0xbd089460	-0.033344626
23	0xbcec9d8b	-0.028883716
24	0x3d7d0831	0.06177539
25	0xbd56fb82	-0.05248595
26	0xbd35f018	-0.044418424
27	0x3c8d8607	0.017275823
28	0x3d174b64	0.036937132
29	0xbd800a3f	-0.06251954
30	0xbd479971	-0.048730318
31	0xbd72fe21	-0.059324387
32	0xbd026057	-0.031830158
33	0x3d16b346	0.036792062
34	0xbccd4538	-0.02505742
35	0xbbd1b217	-0.006399404
36	0x3c8b9918	0.017040774
37	0xbd593e06	-0.053037666
38	0x3c2f6c65	0.010706996
39	0xbd44a155	-0.04800542
40	0x3bf07efa	0.0073393555
41	0x3ca0c480	0.019624949
42	0xbcea10a0	-0.02857238
43	0x3cad8b9f	0.02118474
44	0xbd0852b7	-0.033282008
45	0xbcd4470f	-0.02591279
46	0xbd115bc7	-0.035487916
47	0x3dbb0bae	0.09133087
48	0xbd236e0b	-0.039899867
49	0xbd6b1a37	-0.057398047
50	0xbc14dfc0	-0.009086549
51	0x3ddc338e	0.10752021
52	0xbd9103eb	-0.070808254
53	0xbcdcff33	-0.026977157
54	0x3d003aef	0.031306203
55	0x3dd2ceba	0.10293336
56	0x3d02b206	0.031908058
57	0x3d0a3522	0.033742078
58	0x3d83a238	0.06427425
59	0xbcab21c6	-0.020890128
60	0x3d8ab2b8	0.06772369
61	0x3d20d036	0.039261065
62	0x3d2def22	0.042464383
63	0x3dd1ad9c	0.102381915
64	0x3d14ed1b	0.036358934
65	0x3d2c643b	0.042087775
66	0xbca08204	-0.019593246
67	0x3cc2f82c	0.023799978
68	0x3d123fd1	0.03570539
69	0x3d8803b9	0.06641335
70	0x3dc998fd	0.09843633
71	0xbd38ea90	-0.04514557
72	0x3dc8857d	0.09791086
73	0xbc248df7	-0.010043613
74	0xbd22d117	-0.039750185
75	0xbcbf4a11	-0.023350747
76	0x3d97c898	0.07411307
77	0x3daa8ed5	0.08328024
78	0x3d4c7d43	0.049924146
79	0xbd2c8276	-0.042116605
80	0x3dbc3eed	0.0919169
81	0xbd009f39	-0.031401847
82	0x3dac0644	0.083996326
83	0x3daa06e2	0.08302094
84	0x3d748248	0.05969456
85	0xbd413b65	-0.047175784
86	0x3db72994	0.08943477
87	0xbd3c23a1	-0.045932416
88	0xbd536ea2	-0.05161918
89	0xbd21c243	-0.039491903
90	0xbd8beee2	-0.06832673
91	0x3d71fda6	0.05907979
92	0x3d15b855	0.036552746
93	0xbd0d0fa9	-0.034438763
94	0x3ce3da6b	0.02781411
95	0x3db1d798	0.08683699
96	0x3de08323	0.10962512
97	0x3d6e3186	0.058152698
98	0x3dba3618	0.09092349
99	0xbd09b9c1	-0.033624414
100	0x3d64b00c	0.055831954
101	0xbda05bab	-0.07829984
102	0x3d196e5b	0.03745876
103	0xbd1e914e	-0.038712792
104	0x3d2bf086	0.041977428
105	0xbd9be74f	-0.07612478
106	0xbd34f17c	-0.04417561
107	0x3b0ffa5f	0.00219693
108	0x3d2fa98a	0.042886294
109	0x3db84e56	0.089993164
110	0xbcb60b80	-0.02222228
111	0x3d990bb3	0.074729346
112	0xbd68eae9	-0.056864653
113	0xbd93b80c	-0.072128385
114	0x3d4260cb	0.04745559
115	0x3d824374	0.06360522
116	0x3d796bbd	0.060893763
117	0x3d6da34b	0.058017056
118	0x3c4f9a65	0.012671088
119	0xb99bc7dd	-0.00029712814
120	0x3dc702b3	0.09717312
121	0xbc9c48df	-0.019077716
122	0xbc773faa	-0.015090862
123	0x3ca6b60b	0.020350477
124	0x3bcc2f0c	0.0062311944
125	0x3d11cb8c	0.035594508
126	0x3d99dc27	0.07512694
127	0x3d879684	0.066205055
128	0xbda453a9	-0.080237694
129	0x3dad6bdb	0.084678374
130	0xbd6bbe85	-0.05755474
131	0xbd2dd2aa	-0.042437233
132	0xbc226a86	-0.0099130925
133	0xbd5edbb8	-0.05440876
134	0xbd85ec13	-0.06539168
135	0x3d303fc1	0.04302955
136	0xbb8515e3	-0.004061447
137	0xbc305711	-0.010762946
138	0xbc0494d7	-0.008092127
139	0xbc804b4f	-0.01566091
140	0xbd9ec098	-0.07751578
141	0xbb65dbdb	-0.003507367
142	0xbd86f6cf	-0.06590044
143	0xbbd7d46f	-0.0065866034
144	0xbd112be0	-0.035442233
145	0x3c25ca11	0.010118977
146	0xbb9a75fb	-0.0047137714
147	0x3d92a159	0.07159681
148	0x3d35c54f	0.04437762
149	0xbca6e057	-0.020370645
150	0x3d8b522f	0.06802785
151	0x3b8130e7	0.003942597
152	0x3cf30eb4	0.029670097
153	0x3b6a30ec	0.0035734726
154	0x3d5e57bc	0.05428289
155	0x3cc8251a	0.024431754
156	0xbc67fba0	-0.014159113
157	0xbd68a494	-0.05679758
158	0x3d001027	0.031265404
159	0xbd796e83	-0.060896408
160	0xbd37717c	-0.04478596
161	0x3dae0120	0.08496308
162	0x3ca93a95	0.020657817
163	0x3db53a60	0.08849025
164	0xbda021b3	-0.078189276
165	0xbdc4819b	-0.09595033
166	0x3d940598	0.072276294
167	0x3d135ef3	0.035979223
168	0xbbd29994	-0.0064269993
169	0x3db325a3	0.08747413
170	0x3d4f6277	0.050631013
171	0x3bb2d8d9	0.005457979
172	0xbbfe75d5	-0.0077655115
173	0x3ca1bbfd	0.01974296
174	0xbbf122b2	-0.0073588723
175	0xbdb63f77	-0.08898824
176	0xbd8c3a03	-0.06847002
177	0xbc923902	-0.017849449
178	0x3d3e716e	0.046494894
179	0x3d3e10ce	0.046402745
180	0xbc1e725b	-0.009670819
181	0xbbb7184e	-0.005587614
182	0x3c2cd4c5	0.010548775
183	0xbd17eaf9	-0.03708932
184	0x3d0241c9	0.03180102
185	0x3dba43e0	0.090949774
186	0x3c1d1170	0.009586677
187	0xbd29624a	-0.0413535
188	0xbd25bea0	-0.040464997
189	0xba6866a4	-0.00088653923
190	0x3d9b4a44	0.075825244
191	0xbd8a50e3	-0.06753709
192	0x3c1b760f	0.009488597
193	0xba3bfc0e	-0.0007171043
194	0x3dad514e	0.08462773
195	0x3ccf5dd4	0.025313295
196	0xbdb6df70	-0.08929336
197	0x3bfb44d5	0.0076681175
198	0xbd02b697	-0.031912412
199	0xbcb06b15	-0.021535436
200	0x3d9b31d2	0.07577862
201	0x3d4c1a10	0.049829543
202	0x3d99658d	0.074900724
203	0xbc5b0306	-0.01336742
204	0x3d40db54	0.047084168
205	0xbc22b769	-0.009931424
206	0x3d79634c	0.060885713
207	0xbd76edb2	-0.060285278
208	0xbcd9298a	-0.026509065
209	0x3c1ecd0a	0.00969244
210	0x3d8b196b	0.067919575
211	0x3c695b69	0.014242985
212	0xbd2414a4	-0.040058747
213	0xbc17d92c	-0.009268086
214	0x3d769770	0.060203016
215	0x3d2750f4	0.040848687
216	0x3db51e58	0.08843678
217	0x3c9cf4ca	0.019159693
218	0x3d88b7b6	0.06675665
219	0x3d6cd929	0.057824288
220	0xbd95d5de	-0.073161826
221	0x3d8c9681	0.06864644
222	0xbd9d0b46	-0.07668166
223	0xbd5ca6bf	-0.05386996
224	0xbba34672	-0.004982763
225	0xbd7a4705	-0.061102886
226	0x3d26425b	0.040590625
227	0xbd9df821	-0.077133425
228	0xbcca4cde	-0.024694856
229	0x3cbaaf30	0.022788614
230	0xbd302c2c	-0.043010876
231	0xbd03268e	-0.03201919
232	0x3da887d0	0.08229029
233	0x3c9a5a20	0.018841803
234	0x3d4416ea	0.047873415
235	0x3d21f17d	0.03953694
236	0x3c7fe9c8	0.015619703
237	0x3cc145c9	0.023592846
238	0x3d340b9e	0.04395639
239	0xbc401009	-0.011722573
240	0xbd8ff045	-0.0702825
241	0xbd075d73	-0.033048104
242	0x3ccc1f99	0.02491741
243	0x3d6ae530	0.057347476
244	0x3d70b736	0.058768474
245	0x3daba2d3	0.08380666
246	0xbc1637ee	-0.009168608
247	0xbd0ae184	-0.033906475
248	0xbd152d54	-0.03642018
249	0x3d610c78	0.05494353
250	0x3cfa9471	0.03058836
251	0xbd973b0b	-0.073843084
252	0x3bc57481	0.0060258512
253	0x3d261d73	0.04055543
254	0xbca657fc	-0.020305626
255	0xbd4a084c	-0.04932432

fc2.bias f4 [128]
0	0x3d4f959b	0.050679784
1	0xbd523597	-0.05132064
2	0x3de08899	0.10963554
3	0x3c4b7fbc	0.012420591
4	0xbd568f5b	-0.05238281
5	0xbc8dce93	-0.017310416
6	0xbd0cdf32	-0.034392543
7	0xbcee3f9d	-0.029083068
8	0x3d9d8f09	0.076932974
9	0xbd12984e	-0.03578978
10	0x3b6a070e	0.0035709771
11	0x3cc609f1	0.024174662
12	0x3cbb7daa	0.02288707
13	0xbd58c5dc	-0.05292307
14	0x3d459d37	0.048245635
15	0x3c37f3e4	0.011227582
16	0x3cf89879	0.030346142
17	0x3df89941	0.12138606
18	0x3db9a1eb	0.090640865
19	0xba69eb5c	-0.0008923316
20	0xbd118719	-0.03552923
21	0xbd467c84	-0.04845859
22	0x3d39eac9	0.045389924
23	0x3d3690e9	0.04457179
24	0x3cbdcf54	0.02317015
25	0xbd7992c6	-0.06093099
26	0x3be66bb9	0.0070318845
27	0xbb77ab47	-0.0037791298
28	0x3d7f1d30	0.062283695
29	0xbd1cb1a4	-0.03825535
30	0xbd42e55a	-0.047582008
31	0x3cce1119	0.025154637
32	0x3db6ed36	0.08931963
33	0xbca8450b	-0.020540735
34	0xbd9495fa	-0.07255168
35	0xbd85ab3b	-0.065268
36	0x3da6463c	0.08118865
37	0x3da6e48c	0.081490606
38	0xbd8019b9	-0.06254906
39	0xbbba7fa6	-0.0056914864
40	0xbcfaac3c	-0.030599706
41	0x3d86dbcd	0.065848924
42	0xbd51d0d7	-0.051224556
43	0x3dc4a8a7	0.096024804
44	0x3db6ac0e	0.089195356
45	0xbd7f6e9e	-0.062361352
46	0xbcd9cfb1	-0.026588293
47	0xbce3ffa0	-0.027831852
48	0xbc0f01b4	-0.008728433
49	0xbd34ec68	-0.044170767
50	0xbd902c80	-0.07039738
51	0x3d1f190c	0.038842246
52	0x3db791c7	0.08963352
53	0xbd2e2f6f	-0.042525705
54	0x3dd0bb90	0.10192025
55	0x3d8e2fdb	0.069427215
56	0xbd5e300e	-0.054245047
57	0x3d35d034	0.04438801
58	0x3d1e59e1	0.038659934
59	0x3c86846d	0.016420567
60	0x3de37316	0.11105935
61	0xbba01815	-0.0048856833
62	0xbd9c3e35	-0.076290525
63	0xbdb3fa81	-0.08788014
64	0xbdaf54de	-0.08561109
65	0xbbf8d8a4	-0.007594185
66	0xbd340bc1	-0.043956522
67	0x3d6a5731	0.05721206
68	0x3dc3d335	0.09561769
69	0x3d8163c3	0.06317856
70	0x3d0df3ec	0.03465645
71	0xbd9e9fc7	-0.07745319
72	0xbbe61486	-0.0070214896
73	0x3cb265e9	0.02177711
74	0x3b5175d9	0.0031961112
75	0xbcf4f614	-0.029902495
76	0x3cccce51	0.025000723
77	0xbd03fe51	-0.032224957
78	0xbdb4e48c	-0.08832654
79	0x3bb2fe23	0.0054624244
80	0xbda5be24	-0.08092907
81	0xbc586dad	-0.0132097425
82	0xbd750f56	-0.05982908
83	0x3d8ce1c1	0.06878997
84	0xbd4ceee0	-0.050032496
85	0x3c086170	0.008324012
86	0x3ddeeeb9	0.108853765
87	0x3d9d849c	0.07691309
88	0xbd91ac0f	-0.07112896
89	0x3dcce134	0.100038916
90	0x3d92b244	0.07162908
91	0xbc99844c	-0.018739842
92	0x3db8cb55	0.090231575
93	0x3da64c67	0.08120041
94	0x3b6ccb80	0.0036132038
95	0x3c065bbf	0.008200585
96	0x3da3b58f	0.07993614
97	0xbba69ad6	-0.005084376
98	0x3c76ed08	0.015071161
99	0xbdb6b612	-0.08921446
100	0x3d97a5d4	0.07404676
101	0xbd005158	-0.031327575
102	0x3c00b6f8	0.007856123
103	0xbdaae81f	-0.08345055
104	0x3d894e9a	0.06704445
105	0x3d01ff7f	0.0317378
106	0xbc4a2b31	-0.012339399
107	0x3c0c1d34	0.008551884
108	0x3d70f9df	0.058832046
109	0xbdac590a	-0.0841542
110	0xbd652daf	-0.05595177
111	0xbd4d080f	-0.050056513
112	0x3be3cbba	0.0069517763
113	0xbdad010c	-0.08447465
114	0xbcd541a4	-0.026032276
115	0x3bbae654	0.005703727
116	0x3d1115c6	0.035421155
117	0xbce08db4	-0.02741132
118	0x3be24483	0.00690514
119	0xbc9db4ff	-0.019251345
120	0xbd8760fc	-0.06610295
121	0x3d97aae2	0.0740564
122	0xbbf82008	-0.007572178
123	0xbc825451	-0.015909346
124	0xbd0b5dbf	-0.03402495
125	0xbd9bd5c1	-0.0760913
126	0xbd97805c	-0.073975295
127	0xbce1abd8	-0.027547762

fc3.weight f4 [400, 128]
0	0xbd3db8a3	-0.04631866
1	0xbd8e09e9	-0.06935484
2	0xbd863469	-0.06552965
3	0x3d5486a7	0.051886227
4	0xbca60a34	-0.020268537
5	0xbd5e8625	-0.05432715
6	0xbdb08a82	-0.08620168
7	0x3dacc8cd	0.08436737
8	0x3d0ba6f0	0.03409475
9	0x3d1ff72e	0.03905409
10	0x3d87edb1	0.06637133
11	0xbdb61180	-0.088900566
12	0xbda00b13	-0.07814612
13	0xbd18ee70	-0.037336767
14	0xbd4ff737	-0.05077287
15	0x3d406773	0.046973657
16	0x3d811a0e	0.06303798
17	0xbd8c7268	-0.06857759
18	0xbd161e6f	-0.036650117
19	0xbd669a1d	-0.056299318
20	0xbd41de22	-0.047330983
21	0xbc9942c0	-0.018708587
22	0x3d0972ad	0.03355663
23	0xbc7aa8ac	-0.015299004
24	0xbc285a28	-0.010275401
25	0xbc28d9d8	-0.010305844
26	0xbda2ea8e	-0.07954894
27	0xbd630104	-0.05542089
28	0x3d2fc923	0.04291643
29	0x3d071aee	0.032984667
30	0xbd35ee57	-0.04441675
31	0x3d21c23f	0.039491888
32	0xbd672679	-0.056433175
33	0x3d98f5c1	0.07468749
34	0x3c1d37b0	0.0095957965
35	0x3b8223f0	0.0039715692
36	0x3a0765e0	0.0005165022
37	0x3d8d370a	0.068952635
38	0xbd880705	-0.06641964
39	0x3b86cd79	0.0041138497
40	0xbd8e0eb4	-0.06936398
41	0xbd8781db	-0.06616565
42	0xbdb2466d	-0.08704839
43	0x3d8b6ca2	0.068078294
44	0x3989e7ec	0.00026303472
45	0xbcfde5fc	-0.030993454
46	0x3d09e8ec	0.033669397
47	0xbd955c50	-0.07292998
48	0x3d404bb4	0.046947196
49	0xbd0d8fe5	-0.034561057
50	0xbd3439c1	-0.04400039
51	0xbd0e1040	-0.034683466
52	0x3d632d92	0.05546338
53	0x3ccb4220	0.024811804
54	0xbd828917	-0.06373804
55	0x3b971380	0.004610479
56	0x39a44f00	0.00031339377
57	0xbd3998a8	-0.0453116
58	0x3d0060f5	0.031342465
59	0xbd8d3791	-0.06895364
60	0xbd04fe3f	-0.03246903
61	0xbd49582f	-0.049156364
62	0xbd3332c2	-0.04374958
63	0xbc9d1978	-0.019177184
64	0x3d893b41	0.06700755
65	0xbda9643c	-0.08271071
66	0xbd755e40	-0.059904337
67	0xbd7715d1	-0.06032354
68	0x3d3ffca7	0.046871807
69	0xbc3fcf90	-0.011707202
70	0x3d642186	0.055696033
71	0x3c8834d0	0.016626745
72	0x3d8e971e	0.06962417
73	0x3bdfc6df	0.006829127
74	0xbbcf68c0	-0.006329626
75	0x3cd6e531	0.026232334
76	0xbc0fffa5	-0.008788978
77	0xbda773a0	-0.081763506
78	0xbd70139f	-0.058612462
79	0x3d9b5ee3	0.075864576
80	0xbb21d840	-0.0024695545
81	0xbd5097c2	-0.050925978
82	0xbd919a78	-0.07109541
83	0xbcd22026	-0.025650095
84	0x3c2e5625	0.010640656
85	0xbd62e81d	-0.05539714
86	0xbd75ed94	-0.060041025
87	0xbda79836	-0.08183329
88	0x3d0485f4	0.03235431
89	0xbd8cad0a	-0.06868942
90	0xbb576377	-0.0032865682
91	0xbccebd6c	-0.025236808
92	0xbb8582e8	-0.004074443
93	0xbcd765e3	-0.0262937
94	0x3d8b392f	0.06798016
95	0xbd858aca	-0.065206125
96	0x3cd00fc1	0.025398137
97	0x3d7f672e	0.06235426
98	0xbd9baaf7	-0.07600968
99	0x3d9b8453	0.07593598
100	0xbdaa8f16	-0.08328073
101	0x3ce2e998	0.027699277
102	0xbd2fb7e7	-0.042899992
103	0x3c221eb6	0.009895017
104	0xbda84770	-0.082167506
105	0xbd775878	-0.060387105
106	0xbd7fab73	-0.062419366
107	0xbceb1c80	-0.028700113
108	0xbce25a1a	-0.027630854
109	0xbc188b38	-0.009310536
110	0xbc5c7ff8	-0.0134582445
111	0x3da7fa6b	0.0820206
112	0xbd6081e9	-0.054811392
113	0xbd3d2988	-0.046182185
114	0x3c8d8935	0.01727734
115	0x3c2d1d88	0.010566123
116	0xbc42a08b	-0.011879097
117	0x3d7e040e	0.062015586
118	0xbd9befa8	-0.0761407
119	0x3c852738	0.016254053
120	0x3d91b0a1	0.071137674
121	0x3d4d4de6	0.050123118
122	0xbc944360	-0.018098533
123	0xbcfe4c18	-0.031042144
124	0x3caccf40	0.021094918
125	0x3db4b065	0.08822707
126	0xbd390351	-0.04516918
127	0xbd9af126	-0.07565527
128	0xbdb9181f	-0.09037804
129	0xbd9e9968	-0.07744104
130	0x3d8e46e1	0.06947113
131	0x3b9ae210	0.004726656
132	0x3cc2b41b	0.023767522
133	0xbb1733e0	-0.0023071691
134	0xbd8c83cc	-0.06861076
135	0xbd3698eb	-0.044579428
136	0xbd8337da	-0.06407137
137	0x3d2699a4	0.040673867
138	0x3c407ee5	0.011749004
139	0x3d48bd02	0.049008377
140	0x3cbfe132	0.023422811
141	0xbd35cd75	-0.044385392
142	0x3d8b2381	0.06793881
143	0xbcb90431	-0.022585006
144	0xbccc963e	-0.024973985
145	0x3c9b6319	0.018968152
146	0x3d6860eb	0.056733053
147	0xbd7d026b	-0.061769884
148	0x3d7a6362	0.061129935
149	0x3c8863bb	0.016649118
150	0x3b5507ec	0.0032505943
151	0x3d75fd56	0.060056053
152	0x3d4b113a	0.049576975
153	0xbd22b176	-0.03972002
154	0xbb267640	-0.0025400072
155	0x3ce0ec34	0.02745638
156	0x3d2aeb4a	0.041728295
157	0xbd677b89	-0.056514297
158	0xbd5cb57d	-0.05388402
159	0x3d6c6650	0.05771476
160	0xbd1b5bdf	-0.037929412
161	0xbdb4106e	-0.08792196
162	0xbdac4fc7	-0.08413654
163	0x3d028b2f	0.031871017
164	0x3d5215be	0.051290266
165	0x3bcf3a5f	0.006324097
166	0x3d608db6	0.054822646
167	0x3d8ef6b7	0.06980651
168	0x3d4f944e	0.050678544
169	0xbcccdc2c	-0.02500733
170	0x3c5b3276	0.01337873
171	0xbcd5c7ff	-0.026096342
172	0x3c042337	0.0080650365
173	0x3db11445	0.08646444
174	0xbdabac2b	-0.08382448
175	0x3d94ba86	0.07262139
176	0x3bde9113	0.0067921965
177	0xbc502668	-0.012704469
178	0xbce1ebc4	-0.027578242
179	0xbd5b3a4d	-0.053522397
180	0xbd6e204b	-0.058136266
181	0x3da33c03	0.07970431
182	0xbd355a1c	-0.044275388
183	0x3a151914	0.0005687636
184	0x3daa67ad	0.08320556
185	0xbdcf81ee	-0.10132204
186	0xbdd2a815	-0.10285965
187	0xbd2afbaa	-0.04174391
188	0xbdba3618	-0.09092349
189	0x3da29707	0.079389624
190	0x3d34e192	0.044160433
191	0x3d587e7e	0.052855007
192	0xbce71f2e	-0.02821311
193	0x3d36d65b	0.04463802
194	0x3d86a955	0.06575266
195	0x3d1ce154	0.038300827
196	0x3cabdf05	0.020980367
197	0x3d5fe553	0.05466206
198	0xbd80589e	-0.062669024
199	0xbd844668	-0.064587414
200	0xbc44e44a	-0.012017319
201	0x3d388b3d	0.045054663
202	0xbc3b0d29	-0.011416712
203	0xbdc941bc	-0.09826991
204	0xbcb8ffd5	-0.022582928
205	0x3ced0580	0.028933287
206	0x3c9c1b34	0.01905594
207	0xbda08811	-0.078384526
208	0x3d46065e	0.048345916
209	0xbd6bb2e7	-0.05754366
210	0x3c8c49f8	0.017125115
211	0xbdc6971d	-0.09696791
212	0x3d730d0c	0.059338614
213	0x3d2dea77	0.04245993
214	0xbc3b78ed	-0.011442405
215	0x3d3ac3f9	0.04559705
216	0x3c913f78	0.01773046
217	0xbd2b63b7	-0.041843142
218	0xbd221eaa	-0.039580025
219	0xbd26bbe9	-0.04070655
220	0xbd8e9116	-0.06961267
221	0xbcdd0875	-0.026981572
222	0xbc138360	-0.00900349
223	0x3d28c6cb	0.04120521
224	0x3d891bde	0.06694768
225	0x3d64c326	0.05585017
226	0x3d9b8e6b	0.075955234
227	0x3dacd861	0.084397085
228	0xbdaaa5d6	-0.08332412
229	0xbd8b4fee	-0.06802355
230	0xbd3d4149	-0.04620484
231	0xbd28538c	-0.0410953
232	0xbd94b655	-0.072613396
233	0xbd9df80a	-0.07713325
234	0xbc59c508	-0.013291605
235	0x3d7e52bb	0.062090617
236	0xbdb5c4a0	-0.08875394
237	0x3cb96940	0.022633195
238	0xbdb8f4f7	-0.09031098
239	0xbd043780	-0.03227949
240	0x3bfac0f8	0.007652398
241	0x3d644e2e	0.05573862
242	0xbc914828	-0.017734602
243	0xbd93b8db	-0.07212993
244	0xbd802a57	-0.06258076
245	0xbd894509	-0.067026205
246	0xbd585929	-0.052819405
247	0xbc03f66e	-0.008054359
248	0x3dac85f7	0.08423989
249	0x3d5b8d6e	0.053601675
250	0x3d8db94b	0.069201075
251	0xbd90d1f5	-0.07071296
252	0xbc52ba48	-0.012861796
253	0xbdac5783	-0.08415129
254	0xbcf1942e	-0.029489603
255	0xbd8893fd	-0.066688515

fc3.bias f4 [400]
0	0xbda9f9e0	-0.08299613
1	0xbd3e9e72	-0.046537824
2	0xbd07fa1e	-0.033197515
3	0x3d9555dd	0.07291768
4	0xbd9980fe	-0.074953064
5	0xba3f3392	-0.00072937564
6	0x3d33fce5	0.04394235
7	0xbce90bce	-0.028448012
8	0xbd04754f	-0.032338437
9	0xbdcbd090	-0.099518895
10	0xbd2a896d	-0.041634966
11	0xbda27e4d	-0.07934246
12	0xbd8aed36	-0.06783526
13	0x3b99edf9	0.004697558
14	0x3d5436ab	0.051809948
15	0xbd575950	-0.05257541
16	0x3d86b862	0.06578137
17	0xbd51b9a4	-0.05120243
18	0x3d7d49ba	0.06183789
19	0xbdb7ee60	-0.08981013
20	0xbc57042e	-0.013123555
21	0xbd3378fb	-0.043816548
22	0x3bcc873c	0.006241707
23	0x3d45272f	0.04813307
24	0x3cf34555	0.029696146
25	0x3d7a2a70	0.061075628
26	0xbcd79f43	-0.02632106
27	0x3d4cf611	0.050039355
28	0x3d37eb10	0.044901907
29	0xbbe0d4c6	-0.006861302
30	0xbc15e93a	-0.009149844
31	0x3cbdcdbc	0.02316939
32	0xbcd9e8c7	-0.026600255
33	0x39a8fead	0.00032233205
34	0xbd0efd3d	-0.034909476
35	0xbdb47a3a	-0.08812375
36	0x3c060454	0.008179743
37	0x3d809254	0.0627791
38	0xbc6e4c0a	-0.014544496
39	0x3ccc4472	0.024934981
40	0x3c4c679c	0.012475874
41	0xbd96cbd8	-0.07363099
42	0xbd1b4ebf	-0.037916895
43	0x3b8705f9	0.004120585
44	0xbdd4004e	-0.103516206
45	0x3c6bceb2	0.014392542
46	0xbca19454	-0.019724049
47	0x3cd3ffb1	0.02587876
48	0xbd4716d5	-0.04860576
49	0xbd70060c	-0.058599517
50	0x3c9ff378	0.019525275
51	0x3c359916	0.011083862
52	0xbb847fbd	-0.004043548
53	0x3d52c2cb	0.0514553
54	0x3c2a4a1a	0.010393644
55	0x3c71fe41	0.0147700915
56	0xbd101621	-0.035177354
57	0xbc9b03c1	-0.018922688
58	0xbca415ed	-0.020029986
59	0xbd0cce4e	-0.034376435
60	0x3cfb79c1	0.030697705
61	0x3c5e6317	0.01357343
62	0xbc6e8890	-0.014558926
63	0x3d794610	0.060857832
64	0xbd9485b2	-0.07252063
65	0xbcb5820e	-0.022156741
66	0xbcebcd07	-0.028784288
67	0x3d1315e3	0.035909545
68	0xbd8e03d9	-0.06934328
69	0xbd5b587a	-0.053551175
70	0x3c8cb074	0.017173983
71	0xbcb20dff	-0.02173519
72	0xbdbdade5	-0.092616834
73	0xbdb97bbd	-0.09056804
74	0xbd2c9817	-0.04213723
75	0x3c49dc18	0.012320541
76	0xbd5cf296	-0.053942285
77	0xbd8faa99	-0.07014961
78	0xb9cdf158	-0.00039280462
79	0xbd009a4c	-0.03139715
80	0xbdc2189c	-0.0947735
81	0xbd896e65	-0.06710509
82	0x3b4d9bc0	0.0031373352
83	0xbd1ba280	-0.03799677
84	0x3c6ac1c6	0.014328426
85	0x3cb4b4b3	0.02205882
86	0xbd52c9ae	-0.051461868
87	0xbd79ceb8	-0.060988158
88	0x3ce48c6d	0.027898991
89	0x3b8877a9	0.004164655
90	0xbd4c0755	-0.04981168
91	0xbd5e4214	-0.054262236
92	0xbd5ef454	-0.05443223
93	0x3c67fd78	0.014159553
94	0xbb8ab73b	-0.0042332686
95	0x3d4e4f34	0.050368503
96	0xbd297545	-0.041371603
97	0x3d13b84f	0.036064442
98	0xbda66c3f	-0.08126115
99	0x3cfe6f17	0.031058831
100	0xbc908e72	-0.017646048
101	0xbda253ad	-0.07926116
102	0x3d5b51a4	0.053544655
103	0xbd5c9151	-0.053849522
104	0xbd0b23dd	-0.03396975
105	0xbba0a7d2	-0.0049028182
106	0x3d58dfef	0.052947935
107	0xbd9a4fb2	-0.07534732
108	0xbd980411	-0.074226506
109	0xbd6322e8	-0.05545321
110	0x3d6c3023	0.057663094
111	0xbd3ea021	-0.04653943
112	0xbd7ef524	-0.062245503
113	0x3d9387c0	0.07203627
114	0xbd1c14c8	-0.038105756
115	0xbdc0bdc2	-0.094111934
116	0x3ce2d811	0.02769092
117	0x3d3b4c68	0.045727164
118	0xbd0138cc	-0.031548306
119	0x3c986c3a	0.018606294
120	0x3c835287	0.016030563
121	0xbc4f78c1	-0.012663067
122	0x3ce4740c	0.027887367
123	0x3d71776e	0.058951788
124	0x3d58ed5b	0.052960735
125	0xbb2ccc83	-0.0026367016
126	0x3bfa1296	0.00763161
127	0x3d3ba2ce	0.04580956
128	0xbdae17cd	-0.085006334
129	0x3d2e6bba	0.042583205
130	0xbbd893ea	-0.0066094296
131	0x3d235777	0.039878335
132	0xbd4927b7	-0.04911014
133	0xbd9ed00c	-0.077545255
134	0x3d30e5e9	0.04318801
135	0x3d4ea9f8	0.050455064
136	0x3d15fd87	0.036618736
137	0x3ba1e53a	0.004940656
138	0xbbf6f18a	-0.007536118
139	0xbb0357a8	-0.002004126
140	0x3cdea5f7	0.027178748
141	0x3ceb4e0d	0.028723741
142	0x3cb220e0	0.021744192
143	0x3d74f345	0.059802312
144	0xbceca5a7	-0.028887583
145	0x3d672387	0.056430366
146	0x3d740f3d	0.059584845
147	0x3d56ce12	0.052442618
148	0xbd6238f7	-0.055230107
149	0xbd835fdb	-0.06414767
150	0xbdc2056a	-0.09473689
151	0xbd9d6a1c	-0.076862544
152	0xbd99a996	-0.07503049
153	0xbd96f91f	-0.07371735
154	0xbcbbca1a	-0.022923518
155	0x3d0ab09a	0.033859827
156	0xbd232bfb	-0.039836865
157	0xbd2beba4	-0.04197277
158	0x3b9aa0cd	0.004718876
159	0x3d2ca40c	0.042148635
160	0x3d07a1b7	0.033113208
161	0x3c5eaea7	0.013591445
162	0x3d57f934	0.052727893
163	0x3d332153	0.043732952
164	0x3d8f9e0e	0.070125684
165	0xbbea1829	-0.0071439934
166	0x3cdab5c3	0.026697999
167	0xbd175ec4	-0.03695561
168	0x3bc18e33	0.005906844
169	0xbd253a83	-0.040339004
170	0xbd620a7f	-0.05518579
171	0xbb6e9431	-0.0036404247
172	0x3bb824cb	0.0056196204
173	0x3d56ceb5	0.052443225
174	0x3c834b3e	0.01602709
175	0x3d26cdd4	0.040723637
176	0x3d79332e	0.060839824
177	0xbd3f3b52	-0.04668743
178	0x3be78d4c	0.0070664044
179	0xbce8466f	-0.028353898
180	0xbdc12205	-0.09430317
181	0x3d9fac90	0.077965856
182	0xbd40ae13	-0.04704101
183	0x3d6515ad	0.055928875
184	0x3d2d5a56	0.04232248
185	0x3d5d0116	0.053956114
186	0xbdcc4708	-0.09974486
187	0x3d0bb7e3	0.034110915
188	0xbdc521c3	-0.0962558
189	0x3d49f092	0.04930169
190	0xbcf6cd06	-0.03012706
191	0xbd82d414	-0.06388107
192	0xbda31f40	-0.07964945
193	0xbcab199d	-0.020886237
194	0x3c746f67	0.0149191385
195	0x3d2ab332	0.0416748
196	0x3d2375ee	0.03990739
197	0x3b75ff93	0.0037536367
198	0x3cdb4d64	0.026770301
199	0xbd34aab8	-0.044108123
200	0xbcf8d909	-0.030376928
201	0x3c1473f7	0.009060851
202	0xbced7ee6	-0.028991174
203	0x3d1bad7d	0.03800725
204	0x3d4a638c	0.04941134
205	0xbd3567cd	-0.044288445
206	0xbd8222de	-0.06354307
207	0x3d964aca	0.07338484
208	0xbd1be48d	-0.03805976
209	0xbd0ce1e7	-0.034395125
210	0xbc954dfc	-0.018225662
211	0xbca35a64	-0.019940563
212	0x3ca390bf	0.019966481
213	0xbd8a9143	-0.06765988
214	0x3d2473cd	0.0401495
215	0xbda0a62e	-0.07844196
216	0x3cd5cb86	0.026098024
217	0x39feffce	0.00048637245
218	0xbd42eafd	-0.047587384
219	0x3d0db0ad	0.03459232
220	0xbc229084	-0.0099221505
221	0xbd6732ce	-0.056444936
222	0x3b421b51	0.0029618333
223	0x3d1fcfc0	0.039016485
224	0x3c6107ba	0.013734752
225	0xbd9b61cc	-0.07587013
226	0x3b81aed9	0.003957611
227	0x3cead4f3	0.028665995
228	0x3d8386a5	0.06422166
229	0xbd13e6e1	-0.036108855
230	0xbbdebe75	-0.0067976066
231	0x3c5a41c7	0.013321347
232	0xbc734e8a	-0.014850268
233	0xbdb041d3	-0.08606305
234	0xbca39667	-0.019969178
235	0x3c646630	0.013940379
236	0x3d01e944	0.0317166
237	0xbd242d80	-0.040082455
238	0xbd556858	-0.052101463
239	0xbcbe6cac	-0.023245178
240	0x3c812264	0.015763469
241	0x3d71d41d	0.059040178
242	0x3d6edd4b	0.05831651
243	0x3cd417ff	0.025890348
244	0x3c1ddced	0.009635192
245	0xbd8e0f7f	-0.069365494
246	0xbcb64f82	-0.02225471
247	0xbd47ecef	-0.04880994
248	0x3c3c3183	0.011486414
249	0x3d8bc1e4	0.06824091
250	0xbbf06741	-0.0073365276
251	0xbd5a4930	-0.053292453
252	0xbc941f79	-0.018081414
253	0x3c9c8cf2	0.019110177
254	0x3d1c5550	0.038167298
255	0xbbc54065	-0.0060196393
