models/dqn_model_200.pth (torch, 480388 bytes, 6 tensors)

fc1.weight f4 [128, 400]
0	0xbc8c442a	-0.017122347
1	0x3d470ce3	0.048596274
2	0xbd11d230	-0.03560084
3	0xbca50cdc	-0.020147733
4	0xbcdf4160	-0.027252853
5	0xbd46c467	-0.048527148
6	0x3cf87c7c	0.030332796
7	0xbd274d3a	-0.040845133
8	0xbb7fdd30	-0.003904175
9	0x3ce65f9e	0.028121766
10	0xbc1c6dd4	-0.009547669
11	0x3a65f922	0.00087727804
12	0x3cc6c8e6	0.024265718
13	0xbbf84b70	-0.007577352
14	0x3d2f7a2e	0.04284113
15	0x3cf90ac6	0.030400645
16	0x3d12ae10	0.03581053
17	0xbca960bd	-0.020676011
18	0xbc38809b	-0.011261131
19	0x3d121779	0.035666917
20	0xbcdd900d	-0.027046228
21	0x3cfd55ce	0.030924704
22	0xbc390f9e	-0.011295227
23	0x3ca1e70b	0.01976349
24	0x3caf0733	0.021365738
25	0x3c588967	0.013216353
26	0x3c977bce	0.018491652
27	0xbbf73723	-0.0075444146
28	0x3cd9e6ca	0.026599307
29	0x3cbf0bee	0.023321118
30	0xbd062385	-0.032748718
31	0xbb1dffe8	-0.002410883
32	0xbc6372d4	-0.013882358
33	0xbce5e5d0	-0.028063685
34	0x3c8fcb4a	0.01755299
35	0x3c92bdee	0.017912831
36	0xbc220b8c	-0.009890448
37	0x3ce9c07b	0.028534165
38	0x3c9ce2b2	0.019151065
39	0xbc211859	-0.009832465
40	0x3d02cd79	0.031934235
41	0xbd3d8f60	-0.04627931
42	0x3c033c2c	0.008009952
43	0x3d0c28af	0.034218486
44	0xbd3ca222	-0.04605306
45	0xbd3a8d78	-0.04554507
46	0xbba9baf0	-0.0051797554
47	0xbb9c9e4d	-0.004779613
48	0x3d424429	0.047428284
49	0xbd30b600	-0.04314232
50	0x3c81be62	0.015837852
51	0x3be9e8d8	0.007138353
52	0xbd1c216b	-0.038117807
53	0xbcb1aa18	-0.021687552
54	0xbcedd031	-0.029029937
55	0x3d01dcd9	0.031704757
56	0x3cc4d0ba	0.02402531
57	0x3d3ed2c9	0.04658774
58	0xbcf0e597	-0.029406352
59	0x3b85fd40	0.0040890276
60	0x3c133992	0.008985894
61	0x3d01d431	0.031696502
62	0x3c42cb78	0.011889331
63	0xbbebd16f	-0.0071965973
64	0xbb8336e8	-0.004004348
65	0xbd0eaa28	-0.034830242
66	0x39252b00	0.00015751645
67	0xbced0670	-0.028933734
68	0xbbcf3068	-0.006322909
69	0x3c96202e	0.018325891
70	0xbd2338f2	-0.03984923
71	0xbcb3eaf7	-0.021962626
72	0xbba1e528	-0.0049406476
73	0x3d39bb86	0.045344852
74	0xbcfd0517	-0.030886216
75	0x3ca93ada	0.020657945
76	0xbd0b1c0a	-0.033962287
77	0xbd12129b	-0.035662275
78	0xbce28f4a	-0.027656216
79	0xbca1e50d	-0.01976254
80	0xbc236300	-0.009972334
81	0x3c6ce48c	0.014458787
82	0x3b9ac3d0	0.0047230497
83	0x3c8761e2	0.016526166
84	0x3c90f172	0.017693255
85	0x3cf94e1a	0.03043275
86	0x3cf0aed2	0.029380236
87	0x3c001e08	0.00781966
88	0xbcdb9db0	-0.02680859
89	0x392a723d	0.0001625502
90	0x3ca506a2	0.020144764
91	0xbd16d508	-0.036824256
92	0x3c0ab7e6	0.008466696
93	0x3cf5a218	0.029984519
94	0xbbaa3790	-0.005194612
95	0x3d1e143c	0.038593516
96	0x3bb71910	0.0055877045
97	0xbc34e8c7	-0.011041827
98	0xbd1ae3d6	-0.037814938
99	0x3d31f832	0.043449588
100	0xbc9bfde0	-0.019041955
101	0x3d328899	0.0435873
102	0xbcd05733	-0.025432205
103	0xbd08bca4	-0.033383027
104	0xbd1caa58	-0.03824839
105	0xbcfc4ca3	-0.030798262
106	0x3d06e10d	0.03292947
107	0x3c92e04e	0.017929222
108	0x3cf1c57e	0.029513117
109	0xbcbb8b93	-0.022893703
110	0xbc86cdd6	-0.016455572
111	0x3d27e1bd	0.040986765
112	0x3c4f8684	0.012666348
113	0x3c9b7538	0.018976793
114	0xbc329a73	-0.010901081
115	0xbc82d57c	-0.015970938
116	0xbd031298	-0.032000154
117	0xbd4700bf	-0.048584696
118	0xbd0c053c	-0.03418468
119	0xbd3c27cd	-0.045936394
120	0x3c170809	0.009218224
121	0x3c9610fe	0.01831865
122	0xbd1eba70	-0.03875202
123	0xbcb452d0	-0.022012144
124	0x3cb17142	0.02166045
125	0x3ce805d6	0.028323095
126	0xbb914f18	-0.0044344775
127	0xbcc87f93	-0.024474895
128	0x3d06830d	0.032839824
129	0xbd04ef54	-0.032454804
130	0x3c207002	0.00979233
131	0x3c5e505b	0.013568963
132	0x3d474a79	0.048655007
133	0x3d06b637	0.032888617
134	0x3c34badf	0.011030882
135	0xbbc452fd	-0.0059913383
136	0x3d0448fd	0.03229617
137	0x3cb69178	0.022286162
138	0xbc722514	-0.014779348
139	0x3d366bfd	0.04453658
140	0xbbeb56b0	-0.007181965
141	0x3ca56362	0.020188991
142	0xbba2e9c0	-0.004971713
143	0xbd2772f8	-0.040881127
144	0x3ba34cfc	0.0049835425
145	0xbd27e36e	-0.04098838
146	0x3a8a7ea6	0.0010566309
147	0x3d1ee9d9	0.038797233
148	0x3d361a48	0.044458658
149	0xbc3a41d4	-0.011368234
150	0xbc3fc8a0	-0.011705548
151	0x3bb82470	0.005619578
152	0x3d33ae19	0.043867204
153	0xbb50d700	-0.0031866431
154	0x3d0cb741	0.034354452
155	0x3d2f9448	0.04286602
156	0x3d4b8135	0.04968377
157	0xbd25d6d3	-0.040488075
158	0xbb7fcb80	-0.0039031208
159	0x3cc768e2	0.024342004
160	0x3cf9de3c	0.030501477
161	0xbd2d60e8	-0.042328745
162	0xbd58b494	-0.052906588
163	0xbc29e530	-0.010369584
164	0xbb723ef9	-0.0036963804
165	0xbc9a23d0	-0.018815905
166	0xbc14ba48	-0.009077616
167	0x3c835102	0.016029838
168	0xbbcfad90	-0.006337829
169	0xbd36f527	-0.04466739
170	0x3c29ef24	0.010371957
171	0x3b7c336f	0.0038482805
172	0x3d43dd89	0.047818694
173	0xbcfa724a	-0.030572075
174	0x3cad1dba	0.021132339
175	0x3cbb130b	0.022836229
176	0x3cd22b4b	0.02565541
177	0xbbbfd0df	-0.005853757
178	0x3cb25f56	0.021773975
179	0x3bcd2bc5	0.0062613213
180	0x3d076fc3	0.03306557
181	0x3cef6f06	0.029227745
182	0x3d2b5b59	0.041835163
183	0x3d328c8e	0.043591075
184	0x3d2a3ea7	0.041563656
185	0xbd058df8	-0.032606095
186	0xbc46d1cc	-0.01213498
187	0xbd2424e1	-0.040074233
188	0x3d372313	0.044711184
189	0xbcf9c0ca	-0.030487437
190	0xbccb25a0	-0.024798214
191	0x3b8f4928	0.0043727346
192	0xbb695e20	-0.0035609081
193	0xbc823cc4	-0.015898116
194	0xbd22648d	-0.039646674
195	0x3d248ea6	0.040175103
196	0xbd328bfd	-0.043590534
197	0xbc931390	-0.017953664
198	0x3bfeeb3a	0.007779506
199	0x3c04f604	0.008115295
200	0xba9f55c0	-0.0012156293
201	0x3bb98818	0.0056619756
202	0x3d113457	0.035450306
203	0x3cd6b5da	0.02620976
204	0xbd37c084	-0.04486133
205	0xbd25bd06	-0.04046347
206	0x3d00d279	0.031450722
207	0x3cb023b9	0.021501409
208	0xbd2faa03	-0.042886745
209	0xbc4a134c	-0.012333702
210	0x3af1b8a0	0.0018441863
211	0x3b243fe0	0.0025062487
212	0xbd17a876	-0.03702589
213	0x3c0a99e0	0.008459538
214	0x3d36df83	0.04464675
215	0xbd4c6992	-0.049905367
216	0xbd0720e4	-0.03299035
217	0xbc72a6c0	-0.014810264
218	0x3cf97ea8	0.030455902
219	0xbd0efbfb	-0.034908276
220	0xbcc25300	-0.023721218
221	0x3c4c8780	0.012483478
222	0xbd16b2f6	-0.036791764
223	0xbd354d6f	-0.0442633
224	0x3d3b1faf	0.045684513
225	0xbcd05fca	-0.0254363
226	0x3c74596b	0.014913897
227	0x3d00386f	0.03130382
228	0xbd0384fc	-0.032109246
229	0x3d38f895	0.04515894
230	0x3d16dbb6	0.036830626
231	0xbce4b69a	-0.027919102
232	0x3a9c29c0	0.0011914298
233	0x3cf5e160	0.030014694
234	0x3bad5050	0.005289115
235	0xbc1bfc34	-0.009520579
236	0xbcd73e6c	-0.026274882
237	0xbd1fe94d	-0.039040852
238	0xba5c4ec0	-0.00084040686
239	0xbcb5d9f7	-0.02219866
240	0x3d1ec7c7	0.03876474
241	0xbc8ae590	-0.016955167
242	0xbd2d5294	-0.04231508
243	0x3ca0248e	0.01954868
244	0xbd37c01a	-0.044860937
245	0x3cbf3722	0.023341719
246	0xbba71140	-0.005098492
247	0x3d1de307	0.03854659
248	0xbc28f1ec	-0.010311585
249	0xbb94f784	-0.0045461077
250	0xbd1c1378	-0.038104504
251	0x3b87e318	0.0041469447
252	0x3ce574b6	0.028009754
253	0x3cdf79c3	0.02727974
254	0x3d07a920	0.033120275
255	0xbc883c38	-0.016630277

fc1.bias f4 [128]
0	0xbcf9fbb9	-0.030515539
1	0x3c628272	0.013825046
2	0x3c257ae5	0.010100101
3	0xbc8c0c93	-0.01709584
4	0x3d74e5d8	0.05978951
5	0xbc092c47	-0.008372373
6	0xbca01818	-0.019542739
7	0xbd042617	-0.032262888
8	0x3bacd881	0.0052748327
9	0xbd32ffc5	-0.043700952
10	0x3b91b580	0.0044466853
11	0x3c8d6065	0.017257879
12	0xbc398498	-0.011323117
13	0xbd120439	-0.03564856
14	0xbc001847	-0.007818288
15	0x3d7a07f5	0.061042745
16	0xbba625fe	-0.005070447
17	0x3d11eb7b	0.035624962
18	0xba2d10ba	-0.0006601919
19	0xbc960515	-0.01831297
20	0xbb704fb1	-0.0036668594
21	0x3d106635	0.035253722
22	0x38e52930	0.00010927243
23	0x3bb9c31c	0.005669011
24	0xbb888184	-0.00416583
25	0xbd232487	-0.039829757
26	0x3c85bd02	0.016325478
27	0xbcf42633	-0.029803371
28	0xbd55828a	-0.052126445
29	0xbc9badbe	-0.019003745
30	0x3d75ca5b	0.060007434
31	0xbcf1d405	-0.029520044
32	0xbc81d2da	-0.015847612
33	0x3d0239fa	0.031793572
34	0xbc763d36	-0.015029242
35	0x3c7bc467	0.01536665
36	0x3ccb7361	0.02483529
37	0x3d135cba	0.035977103
38	0x3c93ab2c	0.018025957
39	0xbbab4e40	-0.005227834
40	0x3c90d72a	0.017680723
41	0x3d183272	0.037157483
42	0xbd2cb15b	-0.042161327
43	0xbd0c7f4a	-0.03430108
44	0xbcda59e8	-0.026654199
45	0x3c786da3	0.015162858
46	0xbc280a4d	-0.010256362
47	0x3d1be663	0.03806151
48	0x3d75e4ca	0.060032643
49	0x3d349bee	0.04409402
50	0xbcd6e5a0	-0.02623254
51	0x3d0dc2b4	0.03460951
52	0xbbbc6292	-0.005749055
53	0x3d4365a0	0.04770434
54	0xbc029112	-0.007969158
55	0x3b47ed17	0.0030506307
56	0xbcefca7f	-0.029271362
57	0x3cd58ba0	0.026067555
58	0xbb0ccf79	-0.0021485968
59	0x3ac034dd	0.0014664192
60	0xbd0d2b31	-0.03446502
61	0x3c8521d5	0.016251484
62	0x3b0c8e3f	0.002144709
63	0x3ced9995	0.029003898
64	0x3d258c93	0.040417265
65	0x3c5f1fad	0.013618392
66	0xbcf53e41	-0.029936912
67	0xbd14eaf5	-0.036356885
68	0xbd4e425d	-0.050356258
69	0xbd317f1f	-0.043334123
70	0x3d09cc97	0.033642378
71	0xbd58fa50	-0.05297309
72	0xbcb41a48	-0.021985188
73	0xbbebecea	-0.007199873
74	0xbaa6def7	-0.0012731244
75	0x3b511c4c	0.0031907735
76	0x3cb5cadc	0.022191457
77	0x3d316a36	0.04331418
78	0x3d1feaf9	0.039042447
79	0x3c7ba379	0.015358799
80	0x3ce9af78	0.028526053
81	0x3c8a604a	0.016891617
82	0x3ce2ee21	0.02770144
83	0xbc8732ca	-0.01650371
84	0x3ca5c514	0.020235576
85	0xbd28f70b	-0.041251224
86	0x3c993fab	0.018707117
87	0xbce68295	-0.028138438
88	0xbc606abf	-0.013697325
89	0xbc235c43	-0.009970727
90	0x3cf04e10	0.029334098
91	0xbce0760d	-0.027400041
92	0x3cc92676	0.024554472
93	0x3c390de2	0.011294814
94	0xbcb3abf8	-0.021932587
95	0x3d53d15a	0.051713325
96	0x3cdd1970	0.026989669
97	0xbc9137f4	-0.017726876
98	0x3d3c5938	0.045983523
99	0x3cb2a441	0.021806838
100	0xbcc8828c	-0.024476312
101	0xbca6209c	-0.020279221
102	0xbd3f18bd	-0.04665445
103	0xbbcae7f1	-0.0061922004
104	0x3b51016f	0.0031891724
105	0x3bfaf0f4	0.0076581184
106	0x3c797c5c	0.0152274035
107	0xbd27ac0d	-0.040935565
108	0x3d3fe6ca	0.046850957
109	0x3d1857ba	0.037193038
110	0x3d5d6f6e	0.054061346
111	0x3d0af9d8	0.033929676
112	0xbcdad075	-0.026710728
113	0xbd2a329f	-0.041552182
114	0x3bcf5e96	0.006328414
115	0x3d4f3574	0.050588086
116	0x3d34d1a3	0.044145238
117	0x3d66ab23	0.056315552
118	0x3d3e821e	0.04651081
119	0x3b355ef3	0.0027675002
120	0x3c3609e3	0.011110756
121	0x3b3c6c15	0.0028750945
122	0xbc4a4873	-0.012346375
123	0xbd31de67	-0.04342499
124	0x3c8c488d	0.017124439
125	0x3d5c0984	0.053720012
126	0xbd05f656	-0.032705627
127	0x3d1a0b43	0.037608396

fc2.weight f4 [128, 128]
0	0xbd8a920e	-0.06766139
1	0xbd33bd36	-0.043881617
2	0xbc95aed9	-0.01827185
3	0xbbac0b50	-0.005250372
4	0x3d4d9888	0.050194293
5	0x3d95ee67	0.07320862
6	0x3c3dc8e5	0.0115835415
7	0xbc93a37b	-0.01802229
8	0x3d914bdd	0.07094548
9	0x3cbe433c	0.02322542
10	0xbda7d46f	-0.08194815
11	0xbd88090d	-0.06642351
12	0x3d7562f8	0.059908837
13	0xbd31ede6	-0.04343977
14	0x3ce93c90	0.028471261
15	0x3ca10b22	0.019658629
16	0x3d07d7a6	0.033164643
17	0xbd697068	-0.056991965
18	0x3dacf532	0.08445205
19	0xbcd11151	-0.025520952
20	0xbb233802	-0.002490521
21	0x39c9687a	0.0003841555
22	0xbd15b39d	-0.036548246
23	0xbd5568f0	-0.05210203
24	0x3d2730b1	0.04081792
25	0xbd59d979	-0.053185914
26	0xbd6c8463	-0.05774344
27	0x3baf68d5	0.005353073
28	0x3ce33ee1	0.027739944
29	0xbd9cba16	-0.076526806
30	0xbd880fbd	-0.06643627
31	0xbd8842b2	-0.06653346
32	0xbd36120c	-0.044450805
33	0x3c845568	0.016154006
34	0xbcd76103	-0.026291376
35	0xbc8f8226	-0.017518114
36	0x3bcaa06f	0.006183676
37	0xbd8e5b8d	-0.06951056
38	0xbb13183e	-0.002244487
39	0xbd81a472	-0.063301936
40	0xbc31cdd5	-0.010852297
41	0x3c34a8d9	0.011026585
42	0xbd139f99	-0.036040876
43	0x3c81b764	0.015834518
44	0xbd2769de	-0.040872447
45	0xbd418758	-0.047248214
46	0xbd8cf9e6	-0.06883602
47	0x3da9192c	0.08256754
48	0xbd881e6c	-0.066464275
49	0xbd9d92cd	-0.07694016
50	0xbd1c44e2	-0.03815163
51	0x3daa57d3	0.083175324
52	0xbdb665d8	-0.08906144
53	0xbd6f9137	-0.058488097
54	0x3c5dd959	0.013540589
55	0x3dabacd9	0.083825774
56	0x3cb00c13	0.021490132
57	0x3c95bc8e	0.018278386
58	0x3d79ece9	0.06101695
59	0xbd2a64be	-0.04159998
60	0x3d21aaee	0.039469652
61	0x3cabbc1d	0.020963723
62	0x3cdbbda4	0.026823826
63	0x3db65f40	0.08904886
64	0x3c72cbfe	0.014819143
65	0x3cf3965c	0.029734783
66	0xbd0ecfc3	-0.034866106
67	0x3c5e42f3	0.013565767
68	0x3d097c74	0.033565953
69	0x3d7813eb	0.06056587
70	0x3daa5d37	0.083185606
71	0xbd3a4407	-0.045475032
72	0x3db922ba	0.09039827
73	0xbcce5e77	-0.025191529
74	0xbd5073bd	-0.050891627
75	0xbcdb79e0	-0.026791513
76	0x3d86c2ae	0.06580101
77	0x3d8e58d6	0.06950538
78	0x3cdd84ef	0.027040927
79	0xbd80ab33	-0.06282654
80	0x3da1f247	0.07907539
81	0xbd3d25da	-0.046178676
82	0x3d977695	0.073956646
83	0x3da5cce6	0.08095722
84	0x3d34b727	0.04411998
85	0xbd6d23b4	-0.057895377
86	0x3d9c4923	0.07631137
87	0xbd55995c	-0.052148208
88	0xbd8ebfe2	-0.069701925
89	0xbd75e16c	-0.060029432
90	0xbda232e7	-0.07919865
91	0x3d49b3d1	0.049243752
92	0x3c5e8bab	0.013583104
93	0xbd4bb05e	-0.049728744
94	0x3cb2bf49	0.021819727
95	0x3d79e622	0.061010487
96	0x3dc08b2e	0.094015464
97	0x3d5f3c85	0.054501075
98	0x3da4565c	0.08024284
99	0xbd5f10c9	-0.054459367
100	0x3d76e26a	0.06027452
101	0xbdb28f5d	-0.087187506
102	0x3ce1d132	0.027565572
103	0xbd537c6f	-0.05163234
104	0x3c5ad594	0.013356585
105	0xbdb167b3	-0.08662357
106	0xbd8d048d	-0.068856336
107	0xbc12adee	-0.008952601
108	0x3cb7dacb	0.022443196
109	0x3d9e8445	0.07740072
110	0xbd3db2ef	-0.046313222
111	0x3d671079	0.056412194
112	0xbd5fa50c	-0.05460076
113	0xbdacd671	-0.08439339
114	0x3cfbc902	0.030735496
115	0x3d38615a	0.045014717
116	0x3d11f2eb	0.035632055
117	0x3d024f94	0.031814173
118	0xbc08c4ac	-0.0083476715
119	0xbc0d7c47	-0.008635587
120	0x3da54ec4	0.08071664
121	0xbd1dae06	-0.03849604
122	0xbcb9f1ce	-0.02269831
123	0x3c167a51	0.009184436
124	0xbb06bc98	-0.0020559188
125	0x3be2b7df	0.006918892
126	0x3d9659f6	0.073413774
127	0x3d38ce2f	0.045118507
128	0xbda092b5	-0.07840482
129	0x3da3ccda	0.07998057
130	0xbd851e96	-0.064999744
131	0xbd2aeb0d	-0.04172807
132	0xbc878c5c	-0.01654642
133	0xbd445be6	-0.047939204
134	0xbd844deb	-0.06460174
135	0x3d18e860	0.037330985
136	0xbc1a7698	-0.009427689
137	0xbc553c62	-0.013014885
138	0xbb70220c	-0.0036641387
139	0xbcb2e355	-0.021836916
140	0xbda4e31f	-0.080511324
141	0xbae2a0f4	-0.0017290399
142	0xbd8e084f	-0.069351785
143	0xbb8ace66	-0.0042360304
144	0xbd242b23	-0.0400802
145	0x3c2646cd	0.010148716
146	0xbc07d28c	-0.008289944
147	0x3da0eba0	0.07857442
148	0x3d42bba3	0.047542226
149	0xbcc4c2c0	-0.024018645
150	0x3d7fc4db	0.062443595
151	0x3b71db58	0.003690442
152	0x3cff18f7	0.031139834
153	0x3c12a778	0.0089510605
154	0x3d61a985	0.055093307
155	0x3ca3815f	0.01995915
156	0xbc25f9b8	-0.010130338
157	0xbd669c10	-0.056301177
158	0x3cf1a3ad	0.029496992
159	0xbd7e75d2	-0.06212408
160	0xbd3a69ca	-0.045511045
161	0x3da9d3f4	0.0829238
162	0x3ceb8b07	0.028752817
163	0x3da36bf2	0.07979573
164	0xbd9ccb09	-0.076559134
165	0xbdb88fef	-0.09011828
166	0x3d8c64e8	0.06855184
167	0x3d12fc6e	0.035885267
168	0xbba2bc03	-0.0049662604
169	0x3dae6e21	0.08517099
170	0x3d40e7ba	0.04709599
171	0x3c74438d	0.0149086835
172	0xbc9191d1	-0.017769726
173	0x3caf2633	0.02138052
174	0xbc3482ef	-0.011017545
175	0xbdb9406d	-0.09045491
176	0xbd8492ae	-0.064732894
177	0xbc99d08b	-0.018776199
178	0x3d505936	0.05086633
179	0x3d2961ec	0.04135315
180	0xbc2a128b	-0.010380398
181	0xbbf8acac	-0.0075889435
182	0x3bcd631f	0.0062679197
183	0xbd20837c	-0.039187893
184	0x3d223a70	0.03960651
185	0x3daf826d	0.085697986
186	0x3c0aa6fc	0.008462664
187	0xbd30afd7	-0.043136444
188	0xbd14cdf1	-0.036329214
189	0xbb7992d2	-0.0038081896
190	0x3da6eb4a	0.081503466
191	0xbd9032d1	-0.070409425
192	0x3bef328c	0.007299727
193	0xbaf61fe9	-0.001877782
194	0x3da0529e	0.07828258
195	0x3ce78ce6	0.028265428
196	0xbdb7f099	-0.08981437
197	0x3c1e7a8c	0.009672772
198	0xbd02e83a	-0.03195975
199	0xbca8c8e9	-0.020603614
200	0x3d9aa49f	0.0755093
201	0x3d455ee3	0.048186194
202	0x3d9874af	0.07444131
203	0xbbb250ad	-0.005441746
204	0x3d1d23d7	0.038364258
205	0xbb95cc07	-0.004571441
206	0x3d8047a9	0.06263668
207	0xbd927ded	-0.07152925
208	0xbcfe8080	-0.031067133
209	0x3bfd078c	0.007721847
210	0x3d94a0e9	0.07257254
211	0x3cb3c2a8	0.021943405
212	0xbd2d146c	-0.042255804
213	0xbc453cfb	-0.012038465
214	0x3d6ff755	0.058585484
215	0x3d317eff	0.043334004
216	0x3dad6030	0.08465612
217	0x3cd20968	0.02563925
218	0x3d806610	0.06269467
219	0x3d6e9fc3	0.05825783
220	0xbd9db575	-0.07700626
221	0x3d9268d3	0.071489
222	0xbd9c0c5a	-0.076195434
223	0xbd4a2e44	-0.04936053
224	0xbc44ec13	-0.012019175
225	0xbd81122a	-0.06302293
226	0x3d0b253b	0.033971053
227	0xbd8dbb80	-0.069205284
228	0xbca15125	-0.019692013
229	0x3cc26cae	0.023733463
230	0xbd0e90fd	-0.03480624
231	0xbce36036	-0.027755838
232	0x3db2bc24	0.08727291
233	0x3c5dcf69	0.01353822
234	0x3d2cb98c	0.04216914
235	0x3d2d29f7	0.04227635
236	0x3c7719e1	0.015081854
237	0x3cc384db	0.023867061
238	0x3d2edffb	0.042694073
239	0xbc58a52d	-0.013222975
240	0xbd902f57	-0.07040279
241	0xbccf1142	-0.025276784
242	0x3cca2429	0.024675446
243	0x3d684bfd	0.056713093
244	0x3d729a1e	0.05922901
245	0x3daf13d3	0.08548703
246	0xbc536367	-0.012902117
247	0xbcd24833	-0.025669193
248	0xbd12b11a	-0.03581343
249	0x3d572860	0.05252874
250	0x3cf1f8f6	0.02953766
251	0xbd9e5c23	-0.077324174
252	0xbb816ee9	-0.003949989
253	0x3d24a777	0.04019877
254	0xbc0584c0	-0.008149326
255	0xbd3fba94	-0.046808794

fc2.bias f4 [128]
0	0x3ce36e60	0.027762592
1	0xbd53de5d	-0.051725734
2	0x3dad86f4	0.08473006
3	0x3bc5db54	0.006038109
4	0xbd46d6d0	-0.048544705
5	0xbc9aeb10	-0.018910915
6	0xbd10ca8f	-0.035349425
7	0xbd183733	-0.037162017
8	0x3d233cf9	0.03985307
9	0xbd14f332	-0.03636474
10	0xbcab35f1	-0.020899745
11	0x39858244	0.00025464792
12	0x3cde1fa9	0.027114706
13	0xbd4c0106	-0.049805664
14	0x3ca2a35b	0.019853285
15	0x3c5ec226	0.013596093
16	0x3c474ff4	0.012165058
17	0x3dab7daf	0.083735816
18	0x3d7dc5f2	0.061956353
19	0xbcac1d51	-0.021010073
20	0xbd0c2a8a	-0.034220256
21	0xbd2201f0	-0.03955263
22	0x3c939f67	0.018020345
23	0x3b94a9a0	0.0045368224
24	0x3c3abdcd	0.011397791
25	0xbd6b7e75	-0.057493646
26	0x3c0f3347	0.008740253
27	0xbcbfc96f	-0.02341148
28	0x3d1e621c	0.038667783
29	0xbd1185dd	-0.035528053
30	0xbd33e3a2	-0.04391826
31	0x3ad5d8b0	0.0016315188
32	0x3d6c8023	0.05773939
33	0xbc9bdefc	-0.019027226
34	0xbd8dc61b	-0.06922551
35	0xbd8e9b08	-0.069631636
36	0x3d7ec282	0.062197216
37	0x3d358de1	0.04432476
38	0xbd7b1236	-0.061296664
39	0xbb768124	-0.0037613595
40	0xbce27129	-0.02764185
41	0x3d3a54d2	0.045491047
42	0xbd2609dc	-0.040536746
43	0x3d8c1227	0.068394
44	0x3d65bb8a	0.056087054
45	0xbd72dfb6	-0.05929538
46	0xbcc49c87	-0.02400042
47	0xbd047dcb	-0.032346528
48	0xbcad9c06	-0.021192562
49	0xbd3eff61	-0.046630267
50	0xbd902885	-0.070389785
51	0x3d0b1d8b	0.03396372
52	0x3d9d33f4	0.07675925
53	0xbd1e7703	-0.038687717
54	0x3d81fb96	0.06346814
55	0x3d86ddea	0.065852955
56	0xbd5a13a0	-0.053241372
57	0x3c8a9b48	0.016919747
58	0x3c4314d9	0.011906826
59	0x3caa5546	0.020792615
60	0x3daec4d5	0.085336365
61	0x384dd644	4.907536e-05
62	0xbd9c3e35	-0.076290525
63	0xbdb3fa81	-0.08788014
64	0xbdad19f0	-0.08452213
65	0xbc555a29	-0.013021984
66	0xbd280d9c	-0.041028604
67	0x3ceed0d9	0.02915232
68	0x3d7a302e	0.061081104
69	0x3d01dcad	0.031704593
70	0x3c9d9446	0.019235741
71	0xbd9bec6a	-0.07613452
72	0xbbd38987	-0.0064556035
73	0x3bb14f0d	0.005411035
74	0x3b854538	0.0040670894
75	0xbd3fe47d	-0.046848763
76	0x3b558433	0.0032580018
77	0xbd0bb0c1	-0.034104113
78	0xbdadb852	-0.08482422
79	0x3bdee21e	0.0068018576
80	0xbdb1a3b2	-0.086738005
81	0xbca21383	-0.019784695
82	0xbd59b379	-0.053149674
83	0x3d342bf0	0.043987215
84	0xbd675015	-0.056472857
85	0x3af93740	0.0019013658
86	0x3d80e409	0.06293494
87	0x3d13bafb	0.03606699
88	0xbd8cb7e4	-0.06871012
89	0x3d81cd69	0.06338007
90	0x3d46443d	0.04840492
91	0xbc8885b0	-0.01666531
92	0x3d57ae4f	0.052656468
93	0x3d772ac5	0.060343523
94	0x3bcce4b3	0.006252849
95	0xbcb046a6	-0.021518063
96	0x3d408e46	0.047010683
97	0xbb8f0088	-0.004364077
98	0x3c558468	0.013032056
99	0xbdb08eb3	-0.08620968
100	0x3d6a975a	0.057273246
101	0xbceaaa4e	-0.02864566
102	0xbc97cc98	-0.018530175
103	0xbd901004	-0.07034305
104	0x3d0ee5a1	0.03488696
105	0x3c0cb06a	0.008586982
106	0xbca0d98a	-0.01963498
107	0x3bc2f9f0	0.005950205
108	0x3cdec19c	0.02719193
109	0xbdac590a	-0.0841542
110	0xbd4d62ac	-0.05014293
111	0xbd3e8169	-0.046510134
112	0x3c18488b	0.009294639
113	0xbda69377	-0.081335954
114	0xbd029755	-0.031882603
115	0x3bbf08f6	0.0058299256
116	0x3c8eeb71	0.017446252
117	0xbcd74657	-0.026278658
118	0xbc03dbbd	-0.008047995
119	0xbcf6825f	-0.030091463
120	0xbd846f53	-0.06466546
121	0x3d352801	0.044227604
122	0xbb98da58	-0.0046647005
123	0xbc5e15cd	-0.013555002
124	0xbcedf775	-0.02904866
125	0xbd8e8c1e	-0.06960319
126	0xbd97805c	-0.073975295
127	0xbcddbafb	-0.027066698

fc3.weight f4 [400, 128]
0	0xbd3db717	-0.046317186
1	0xbd8e0930	-0.06935346
2	0xbd8728fd	-0.06599615
3	0x3d51f664	0.051260367
4	0xbca60a34	-0.020268537
5	0xbd5e8625	-0.05432715
6	0xbdb08a82	-0.08620168
7	0x3dacc8cd	0.08436737
8	0x3d0abe7d	0.03387307
9	0x3d1ff72e	0.03905409
10	0x3d87af94	0.06625286
11	0xbdb65f6d	-0.0890492
12	0xbda00b13	-0.07814612
13	0xbd18ee70	-0.037336767
14	0xbd502a29	-0.050821457
15	0x3d406773	0.046973657
16	0x3d8128b7	0.06306594
17	0xbd8d2483	-0.0689173
18	0xbd17abe7	-0.037029173
19	0xbd6689ed	-0.05628388
20	0xbd41de22	-0.047330983
21	0xbc9942c0	-0.018708587
22	0x3d0867ad	0.033301998
23	0xbc7a0ae7	-0.015261388
24	0xbc2819a6	-0.010260021
25	0xbc28d9d8	-0.010305844
26	0xbda2ea8e	-0.07954894
27	0xbd62d514	-0.05537899
28	0x3d2d0dc2	0.04224945
29	0x3cf4b1e8	0.029869989
30	0xbd35ee57	-0.04441675
31	0x3d21e67e	0.039526455
32	0xbd67fef6	-0.056639634
33	0x3d98f5c1	0.07468749
34	0x3c1d37b0	0.0095957965
35	0x3b8223f0	0.0039715692
36	0xb89bd08e	-7.429822e-05
37	0x3d8cd828	0.06877166
38	0xbd880705	-0.06641964
39	0x3a82ef40	0.0009989515
40	0xbd8e0eb4	-0.06936398
41	0xbd88a34f	-0.06671774
42	0xbdb2466d	-0.08704839
43	0x3d8b2bda	0.067954734
44	0x39768511	0.0002350996
45	0xbcfde5fc	-0.030993454
46	0x3d09e8ec	0.033669397
47	0xbd955c50	-0.07292998
48	0x3d40594d	0.046960164
49	0xbd0d8fe5	-0.034561057
50	0xbd3439c1	-0.04400039
51	0xbd1a48e5	-0.037667174
52	0x3d61aa1a	0.055093862
53	0x3ccb4220	0.024811804
54	0xbd82fd42	-0.06395961
55	0x3b971380	0.004610479
56	0x39a44f00	0.00031339377
57	0xbd3988ed	-0.0452966
58	0x3cff8a6e	0.031193938
59	0xbd8d3791	-0.06895364
60	0xbd06e140	-0.03292966
61	0xbd49582f	-0.049156364
62	0xbd3332c2	-0.04374958
63	0xbc9d1978	-0.019177184
64	0x3d893b41	0.06700755
65	0xbdafc55c	-0.08582565
66	0xbd755e40	-0.059904337
67	0xbd7720d8	-0.060334057
68	0x3d3f2520	0.046666265
69	0xbc426923	-0.011865887
70	0x3d648018	0.055786222
71	0x3c8834d0	0.016626745
72	0x3d8e971e	0.06962417
73	0x3b985105	0.00464833
74	0xbbcf68c0	-0.006329626
75	0x3cd62c5d	0.026144201
76	0xbc1aa5ff	-0.009438991
77	0xbda773a0	-0.081763506
78	0xbd70139f	-0.058612462
79	0x3d9b5ee3	0.075864576
80	0xbb21d840	-0.0024695545
81	0xbd50896c	-0.050912306
82	0xbd919a78	-0.07109541
83	0xbcd2cf33	-0.025733566
84	0x3bf69b30	0.007525824
85	0xbd5d0696	-0.05396136
86	0xbd762a51	-0.06009895
87	0xbda8260c	-0.08210382
88	0x3d0485f4	0.03235431
89	0xbd8d09a6	-0.06886606
90	0xbb6e944e	-0.0036404314
91	0xbccebd6c	-0.025236808
92	0xbb86087d	-0.0040903674
93	0xbcdf5b66	-0.027265262
94	0x3d8b392f	0.06798016
95	0xbd857384	-0.065161735
96	0x3ccd5fd8	0.025070116
97	0x3d7f672e	0.06235426
98	0xbd9baaf7	-0.07600968
99	0x3d9b8453	0.07593598
100	0xbdaabc7a	-0.0833673
101	0x3ce2e998	0.027699277
102	0xbd2fa228	-0.042879254
103	0x3c221eb6	0.009895017
104	0xbda87c11	-0.08226789
105	0xbd7aa4f3	-0.061192464
106	0xbd7fa877	-0.06241652
107	0xbceb813d	-0.028748149
108	0xbce363b7	-0.027757509
109	0xbc188b38	-0.009310536
110	0xbc5c7ff8	-0.0134582445
111	0x3da7fa6b	0.0820206
112	0xbd6081e9	-0.054811392
113	0xbd3d2988	-0.046182185
114	0x3c680978	0.014162414
115	0x3c2d1d88	0.010566123
116	0xbc428c18	-0.011874221
117	0x3d7e040e	0.062015586
118	0xbd9bde1b	-0.07610723
119	0x3c9eb0f8	0.019371495
120	0x3d91b0a1	0.071137674
121	0x3d4bf573	0.049794625
122	0xbc944360	-0.018098533
123	0xbcfe4c18	-0.031042144
124	0x3caccf40	0.021094918
125	0x3db4b065	0.08822707
126	0xbd390351	-0.04516918
127	0xbd9af126	-0.07565527
128	0xbda3331e	-0.07968734
129	0xbd90d52e	-0.07071911
130	0x3da5c57e	0.08094309
131	0x3c4ef100	0.012630701
132	0x3cc2b41b	0.023767522
133	0xbb1733e0	-0.0023071691
134	0xbd8c83cc	-0.06861076
135	0xbd3698eb	-0.044579428
136	0xbd50f376	-0.051013432
137	0x3d2699a4	0.040673867
138	0x3cc440ec	0.023956738
139	0x3d7d3069	0.061813746
140	0x3ce9b088	0.02852656
141	0xbd35cd75	-0.044385392
142	0x3da5d3ee	0.08097063
143	0xbc6c8e2b	-0.014438192
144	0xbc41a412	-0.011818903
145	0x3d00eb82	0.031474598
146	0x3d8d7ced	0.06908593
147	0xbd5c4bc9	-0.05378321
148	0x3d7a6362	0.061129935
149	0x3c8863bb	0.016649118
150	0x3c8a2646	0.016863953
151	0x3d96d164	0.07364157
152	0x3d7d787b	0.061882477
153	0xbd22b176	-0.03972002
154	0x3b9b1a10	0.0047333315
155	0x3d28a4b6	0.041172706
156	0x3d5d96a6	0.054098748
157	0xbd677b89	-0.056514297
158	0xbd5cb57d	-0.05388402
159	0x3d91fc93	0.07128253
160	0xbccd5e14	-0.025069274
161	0xbdb4106e	-0.08792196
162	0xbdac4fc7	-0.08413654
163	0x3d0d0682	0.034430034
164	0x3d800b8a	0.06252201
165	0x3c9ac55c	0.018892936
166	0x3d608db6	0.054822646
167	0x3d97dc46	0.07415061
168	0x3d4f944e	0.050678544
169	0xbc55aea2	-0.013042124
170	0x3c870a44	0.016484387
171	0xbc6120da	-0.013740743
172	0x3caf7979	0.021420227
173	0x3db11445	0.08646444
174	0xbda2a808	-0.07942206
175	0x3d94ba86	0.07262139
176	0x3c9608a0	0.01831466
177	0xbc502668	-0.012704469
178	0xbcccf598	-0.025019452
179	0xbd2e6b88	-0.04258302
180	0xbd39512c	-0.045243427
181	0x3da33c03	0.07970431
182	0xbd032cdc	-0.032025203
183	0x3a7c32f7	0.00096206315
184	0x3daa67ad	0.08320556
185	0xbdb382b9	-0.08765168
186	0xbdb8e3ef	-0.0902785
187	0xbd2afbaa	-0.04174391
188	0xbda0168e	-0.07816802
189	0x3da29707	0.079389624
190	0x3d34e192	0.044160433
191	0x3d587e7e	0.052855007
192	0xbce71f2e	-0.02821311
193	0x3d36d65b	0.04463802
194	0x3d86a955	0.06575266
195	0x3d511106	0.051041625
196	0x3d07aebe	0.03312563
197	0x3d8aed82	0.06783582
198	0xbd5247e7	-0.051338103
199	0xbd844668	-0.064587414
200	0xbc120b58	-0.008913837
201	0x3d6d4784	0.05792953
202	0xbc371fb3	-0.011176991
203	0xbdae5663	-0.08512571
204	0xbc162a50	-0.0091653615
205	0x3ced0580	0.028933287
206	0x3c9c1b34	0.01905594
207	0xbda08811	-0.078384526
208	0x3d46065e	0.048345916
209	0xbd4e55bb	-0.050374728
210	0x3c8c49f8	0.017125115
211	0xbdac9386	-0.08426575
212	0x3d7d886e	0.061897688
213	0x3d60a7fa	0.054847695
214	0x3a926440	0.0011168793
215	0x3d7022d6	0.058626972
216	0x3c913f78	0.01773046
217	0xbce94d88	-0.028479353
218	0xbcdc236c	-0.02687236
219	0xbd1a0a70	-0.03760761
220	0xbd673e33	-0.056455802
221	0xbc84c9d3	-0.016209519
222	0xbb963b40	-0.0045847
223	0x3d591d96	0.05300673
224	0x3da3ba68	0.079945385
225	0x3d64c326	0.05585017
226	0x3d9b8e6b	0.075955234
227	0x3dacd861	0.084397085
228	0xbd9216fa	-0.07133289
229	0xbd8b4fee	-0.06802355
230	0xbd03a643	-0.03214098
231	0xbd2666a5	-0.040625233
232	0xbd707031	-0.058700744
233	0xbd7d6cfe	-0.06187152
234	0xbaa028e5	-0.0012219219
235	0x3d975870	0.07389915
236	0xbd9b5848	-0.07585198
237	0x3cb96940	0.022633195
238	0xbdb2890e	-0.08717547
239	0xbd043780	-0.03227949
240	0x3bfac0f8	0.007652398
241	0x3d644e2e	0.05573862
242	0xbc671870	-0.014104947
243	0xbd93b8db	-0.07212993
244	0xbd4f9965	-0.050683398
245	0xbd894509	-0.067026205
246	0xbd1aa366	-0.037753485
247	0xbb9dfdd0	-0.0048215166
248	0x3dac85f7	0.08423989
249	0x3d866b4e	0.065634355
250	0x3d941945	0.07231382
251	0xbd90d1f5	-0.07071296
252	0xbc52ba48	-0.012861796
253	0xbdac5783	-0.08415129
254	0xbcf1942e	-0.029489603
255	0xbd8893fd	-0.066688515

fc3.bias f4 [400]
0	0xbdabff66	-0.08398323
1	0xbd12e387	-0.03586152
2	0xbca807e4	-0.020511575
3	0x3d9af0cd	0.0756546
4	0xbd8869d7	-0.06660812
5	0x3bd7ef60	0.006589815
6	0x3d57a30c	0.052645728
7	0xbc95f750	-0.018306404
8	0xbc9dacb0	-0.019247383
9	0xbdb23c10	-0.08702862
10	0xbd12180c	-0.035667464
11	0xbd91162f	-0.07084309
12	0xbd6fe4ad	-0.05856769
13	0x3c9d8bdf	0.019231735
14	0x3d6b6af0	0.05747503
15	0xbd575950	-0.05257541
16	0x3d936752	0.07197441
17	0xbd263a8f	-0.04058319
18	0x3d8e4bef	0.06948077
19	0xbdac4129	-0.08410866
20	0x3a363500	0.00069506466
21	0xbd26a823	-0.04068769
22	0x3c857a7f	0.016293762
23	0x3d63feff	0.055663105
24	0x3d240883	0.04004718
25	0x3d89ccc2	0.067285076
26	0xbc7566d0	-0.014978126
27	0x3d7185f3	0.058965635
28	0x3d594fd3	0.053054642
29	0x3c009b98	0.007849596
30	0x3b5f69a0	0.0034090057
31	0x3d03b3ff	0.03215408
32	0xbc74de08	-0.0149455145
33	0x3c49ba08	0.01231242
34	0xbcbf69e8	-0.02336593
35	0xbda5ac16	-0.080894634
36	0x3ca49b78	0.020093665
37	0x3d9037ad	0.07041869
38	0xbc3b2d58	-0.011424385
39	0x3d199816	0.037498556
40	0x3cc48570	0.02398941
41	0xbd85af4e	-0.06527577
42	0xbce1b223	-0.027550763
43	0x3c3e5c70	0.0116187185
44	0xbdb23b7f	-0.08702754
45	0x3cd93121	0.026512684
46	0xbbe61670	-0.0070217177
47	0x3d19a184	0.03750755
48	0xbd353c3a	-0.04424689
49	0xbd2dd717	-0.042441454
50	0x3d00be2e	0.03143137
51	0x3cc75a83	0.024335152
52	0x3c2d0a58	0.010561548
53	0x3d76a71d	0.060217965
54	0x3ca5f80c	0.02025988
55	0x3caf866c	0.021426402
56	0xbce49ff0	-0.027908295
57	0xbc816864	-0.015796848
58	0xbb048d60	-0.0020225868
59	0xbd012e53	-0.03153832
60	0x3d2c6e26	0.042097233
61	0x3ccc2a99	0.024922656
62	0x3a862540	0.001023449
63	0x3d8b805f	0.06811594
64	0xbd815f12	-0.06316961
65	0xbc6653c8	-0.014058061
66	0xbc6103a0	-0.013733774
67	0x3d3a434f	0.045474347
68	0xbd83e123	-0.06439426
69	0xbd4e7956	-0.050408684
70	0x3cdaaf8c	0.026695035
71	0xbc23f360	-0.010006756
72	0xbdb783a5	-0.08960656
73	0xbda81dba	-0.08208795
74	0xbce503f2	-0.027955983
75	0x3ccf2722	0.025287215
76	0xbd45975c	-0.04824005
77	0xbd5a8f2c	-0.053359196
78	0x3c5e12b0	0.01355426
79	0xbccf304e	-0.025291588
80	0xbda94222	-0.08264567
81	0xbd55521c	-0.05208026
82	0x3b4d9bc0	0.0031373352
83	0xbcd03a1c	-0.025418334
84	0x3ca948b4	0.02066455
85	0x3cfeedda	0.031119276
86	0xbd3b4a15	-0.045724947
87	0xbd61ac94	-0.055096224
88	0x3d1505d3	0.036382508
89	0x3c872ab7	0.01649986
90	0xbd3f4834	-0.046699718
91	0xbd278f97	-0.040908422
92	0xbd344d99	-0.044019315
93	0x3cc1d373	0.023660397
94	0x3bf37a60	0.0074303597
95	0x3d71d8f5	0.059044797
96	0xbcdb5ba7	-0.026777102
97	0x3d374f52	0.04475338
98	0xbd92fab8	-0.07176727
99	0x3d294892	0.041328974
100	0x3b26ccc0	0.002545163
101	0xbd7fc07c	-0.062439427
102	0x3d6fe94c	0.0585721
103	0xbd32705b	-0.04356418
104	0xbce4d5f6	-0.027934056
105	0x3ba31650	0.004977025
106	0x3d6c440e	0.05768209
107	0xbd8cf234	-0.06882134
108	0xbd8b6f84	-0.06808379
109	0xbd22da27	-0.039758828
110	0x3d845930	0.06462324
111	0xbd074c52	-0.03303177
112	0xbd7ef524	-0.062245503
113	0x3d99ab48	0.075033724
114	0xbd051686	-0.032492183
115	0xbdaf5f29	-0.08563072
116	0x3d0bfdc8	0.03417757
117	0x3d53c232	0.05169887
118	0xbcabae3a	-0.020957101
119	0x3d022646	0.03177478
120	0x3cafcde9	0.02146049
121	0xbaa1e600	-0.001235187
122	0x3d25212b	0.040314835
123	0x3d87b7f4	0.06626883
124	0x3d775642	0.060384996
125	0x3c3e37a8	0.011609949
126	0x3ca60fc0	0.020271182
127	0x3d553777	0.05205485
128	0xbd95fb49	-0.073233195
129	0x3d4efc77	0.050533738
130	0x3c04a70b	0.008096467
131	0x3d43e8c1	0.047829393
132	0xbcf4c708	-0.029880062
133	0xbd98b1d0	-0.0745579
134	0x3d53defa	0.05172632
135	0x3d809ad1	0.06279529
136	0x3d487d63	0.048947703
137	0x3c87149b	0.016489318
138	0x3b8d3130	0.004308842
139	0x3c0f87c8	0.0087604
140	0x3d1ec053	0.038757633
141	0x3d19f256	0.037584625
142	0x3d147ccc	0.036251828
143	0x3d8b5ff3	0.0680541
144	0xbca08127	-0.019592835
145	0x3d80e28e	0.06293212
146	0x3d8464cd	0.06464539
147	0x3d724a29	0.059152756
148	0xbd5b9030	-0.053604305
149	0xbd835fdb	-0.06414767
150	0xbdb0af59	-0.08627195
151	0xbd87bfb4	-0.06628361
152	0xbd75e678	-0.060034245
153	0xbd47e433	-0.048801612
154	0xbc527512	-0.012845295
155	0x3d430331	0.047610465
156	0xbd232bfb	-0.039836865
157	0xbd07905c	-0.033096656
158	0x3ca0077f	0.019534824
159	0x3d58cefa	0.052931763
160	0x3d3023ed	0.04300301
161	0x3cb55578	0.022135481
162	0x3d6febdf	0.058574554
163	0x3d55275f	0.0520395
164	0x3d930a58	0.07179707
165	0x3b87e750	0.0041474476
166	0x3d239c96	0.039944254
167	0xbcd1c428	-0.02560623
168	0x3c931c3b	0.017957797
169	0xbcef5d30	-0.02921924
170	0xbd6285bd	-0.055303324
171	0x3c3c9dbf	0.011512219
172	0x3c964ef0	0.018348187
173	0x3d797cb1	0.06090993
174	0x3cbb3969	0.022854524
175	0x3d4305d6	0.047612987
176	0x3d8a0608	0.067394316
177	0xbd242c1b	-0.040081125
178	0x3cad0ae5	0.021123359
179	0xbc5f07d5	-0.013612707
180	0xbdacd6d5	-0.084394135
181	0x3da5b7b9	0.08091683
182	0xbd314b9e	-0.043285005
183	0x3d824eac	0.06362662
184	0x3d4c56ba	0.049887396
185	0x3d7b473a	0.061347224
186	0xbdb06280	-0.086125374
187	0x3d2940b2	0.041321464
188	0xbda8423b	-0.082157575
189	0x3d5dfae7	0.054194357
190	0xbcc43da8	-0.023955181
191	0xbd622fa8	-0.05522123
192	0xbd8dca34	-0.06923333
193	0xbc43a480	-0.011941075
194	0x3c928a1c	0.017888121
195	0x3d4efd86	0.050534748
196	0x3d49d674	0.049276784
197	0x3ca06cc2	0.01958311
198	0x3cf43a87	0.029813064
199	0xbcfcbe22	-0.030852381
200	0xbcdf2126	-0.027237486
201	0x3c99c568	0.018770888
202	0xbc8d58f9	-0.01725434
203	0x3d459812	0.04824073
204	0x3d652c34	0.05595036
205	0xbcf5a4d6	-0.029985826
206	0xbd53ad19	-0.05167875
207	0x3d9e34f8	0.07724947
208	0xbd022786	-0.031775974
209	0xbc71b5d2	-0.014752822
210	0xbb814ef0	-0.0039461777
211	0xbb9fb120	-0.00487341
212	0x3cbaec29	0.022817688
213	0xbd62aff7	-0.055343594
214	0x3d45179e	0.048118226
215	0xbd97bbef	-0.07408892
216	0x3d112197	0.035432424
217	0x3bd67fd0	0.006545998
218	0xbd3af833	-0.045646857
219	0x3d410045	0.047119398
220	0x3be84220	0.007087961
221	0xbd3b67fd	-0.045753468
222	0x3c8069ea	0.015675504
223	0x3d367fea	0.044555582
224	0x3cd02e80	0.025412798
225	0xbd8c75f8	-0.06858438
226	0x3c539f5e	0.012916414
227	0x3d228762	0.039679892
228	0x3d8cbedf	0.06872343
229	0xbd074b40	-0.03303075
230	0x3bd5426b	0.006508162
231	0x3ce37e05	0.027770052
232	0xbb8b6368	-0.0042537935
233	0xbdaa04fa	-0.083017305
234	0xbbdc8fd0	-0.006731011
235	0x3c96fbc8	0.018430606
236	0x3d30ffae	0.043212585
237	0xbd0024d9	-0.03128514
238	0xbd4137c1	-0.04717231
239	0xbc4e5318	-0.012593053
240	0x3cbfa504	0.023394115
241	0x3d89037b	0.06690117
242	0x3d82381d	0.06358359
243	0x3d0ade4a	0.033903398
244	0x3cb6570d	0.022258306
245	0xbd65256f	-0.055943903
246	0xba227f00	-0.0006198734
247	0xbd27bbad	-0.040950466
248	0x3cbfd26c	0.023415767
249	0x3d931113	0.07180991
250	0x3c1488f8	0.009065859
251	0xbd182e7a	-0.0371537
252	0xbbe2b1cc	-0.0069181677
253	0x3d013a47	0.03154972
254	0x3d318526	0.04333987
255	0xb983de46	-0.00025151874
