models/dqn_model_700.pth (torch, 480388 bytes, 6 tensors)

fc1.weight f4 [128, 400]
-0.015551397 0.050958566 -0.038120873 -0.021497702 -0.028308883 -0.048527148 0.017359171 -0.03337677
-0.012861606 0.043028317 -0.009547669 0.0031030418 0.013078407 -0.00544492 0.05210385 0.034913976
0.031976067 -0.020922802 -0.011512394 0.023507597 -0.023248864 0.02933517 -0.01150431 0.013106753
0.015153941 0.012138326 0.014860195 -0.012825734 0.026489308 0.01896621 -0.040208355 -0.008178884
-0.0153533155 -0.027549995 0.0253811 0.0069549633 -0.007934341 0.024336005 0.016392142 -0.014354339
0.019634005 -0.04913775 0.0015262049 0.025795486 -0.043128468 -0.05314038 -0.0020829663 -0.011524517
0.034164224 -0.042106237 0.0076926174 0.008520686 -0.043300875 -0.027814277 -0.026122417 0.028803948
0.023496574 0.04385775 -0.028285572 0.002082377 0.012716023 0.02573846 0.014395801 -0.012285274
-0.009007939 -0.03614413 -0.00578895 -0.034845263 -0.005743399 0.011243099 -0.037455413 -0.018353153
0.0010524183 0.029239926 -0.03839038 0.015591307 -0.029024228 -0.027070906 -0.03156412 -0.02405896
-0.012120194 0.026830502 0.0077774297 0.020382281 0.019757848 0.021473018 0.021885907 0.004389683
-0.03193597 -0.0037568393 0.011745675 -0.036824256 0.0153088365 0.024521021 -0.011365744 0.03692524
-0.00035294687 -0.011043074 -0.042347677 0.03404174 -0.026180554 0.041543704 -0.025432205 -0.037696518
-0.03824839 -0.030798262 0.033348363 0.014820398 0.033923607 -0.029293898 -0.01888467 0.04174013
0.011641088 0.012912585 -0.016375743 -0.010411469 -0.032000154 -0.048584696 -0.03652828 -0.04794304
0.005206971 0.018797047 -0.042004872 -0.024944576 0.011455592 0.024586963 -0.009531228 -0.025492765
0.029252294 -0.027432797 0.002820037 0.011224633 0.048173904 0.032825522 0.0077354875 -0.01385774
0.025604766 0.022430036 -0.014769418 0.039582323 -0.012411035 0.015096863 -0.015206303 -0.040881127
0.0062249615 -0.04098838 0.0008175871 0.043638837 0.038958594 -0.018893607 -0.007932584 -0.009128972
0.034315847 0.0007579577 0.03707266 0.039904047 0.053242426 -0.032442145 0.0052179843 0.024971558
0.03130366 -0.04589878 -0.04878242 -0.015509156 -0.0036963804 -0.018815905 -0.014403583 0.0050995424
-0.014708711 -0.0415011 0.015819682 -0.00731737 0.039508335 -0.038975354 0.0168308 0.023818823
0.027322382 -0.0080670295 0.0095034605 0.0026943586 0.030730776 0.031044092 0.039035376 0.040589884
0.036152154 -0.0331902 -0.018759508 -0.040874634 0.03838199 -0.03938783 -0.024798214 -0.0006581349
-0.008875662 -0.013667444 -0.03591973 0.04028491 -0.0540833 -0.021912038 0.007848895 0.0123049645
0.000764855 0.0056619756 0.031983178 0.03253659 -0.046754792 -0.04046347 0.034418304 0.01517042
-0.043334752 -0.019163875 0.0062549687 -0.0076223398 -0.03702589 0.012829647 0.043887928 -0.048350252
-0.032442123 -0.019832587 0.031244468 -0.037240185 -0.03129825 0.016927574 -0.03910913 -0.046874028
0.036271248 -0.026094578 0.009440778 0.027059874 -0.03336348 0.051844515 0.027617231 -0.021978421
-0.0013759198 0.019916225 -0.005350523 -0.012959875 -0.02973581 -0.032389436 0.0170176 -0.02219866
0.03721476 -0.010199711 -0.038092636 0.010077795 -0.044860937 0.012492286 -0.005020572 0.026411753
-0.017735403 -0.002038797 -0.034924064 -0.007083334 0.035109695 0.01948033 0.03450442 -0.014615153
00000000: 49cb 7ebc eeb9 503d a224 1cbd f31b b0bc
00000010: 08e8 e7bc 67c4 46bd d234 8e3c 14b6 08bd
00000020: 7cb9 52bc 763e 303d d46d 1cbc 675c 4b3b
00000030: d146 563c 4d6b b2bb d96a 553d f501 0f3d
00000040: 56f9 023d 4c66 abbc 7b9e 3cbc 0193 c03c
00000050: 6774 bebc 4f50 f03c 937c 3cbc b5bd 563c
00000060: 3c48 783c d4df 463c 2d78 733c 0723 52bc
00000070: 1b00 d93c 065f 9b3c 84b1 24bd ba00 06bc
00000080: 798c 7bbc 87b0 e1bc 06ec cf3c 76e6 e33b
00000090: 0aff 01bc 4d5c c73c d048 863c 762e 6bbc
000000a0: 7ed7 a03c aa44 49bd f00a c83a 0e51 d33c
000000b0: 7aa7 30bd baa9 59bd 6082 08bb 54d1 3cbc
000000c0: c9ef 0b3d 9777 2cbd 5a12 fc3b 599a 0b3c
000000d0: 425c 31bd c4da e3bc aefe d5bc 42f6 eb3c
000000e0: e37b c03c 2fa4 333d 25b7 e7bc 7d78 083b
000000f0: de56 503c 76d9 d23c 5edc 6b3c 2d48 49bc
00000100: 0996 13bc de0b 14bd 3bb1 bdbb e8b9 0ebd
00000110: 1f33 bcbb fa34 383c d96a 19bd 5a59 96bc
00000120: 4cf1 893a 9288 ef3c 3b3f 1dbd ae72 7f3c
00000130: 38c4 edbc cec3 ddbc 6149 01bd 4c17 c5bc
00000140: c793 46bc a4cb db3c cfd9 fe3b bef8 a63c
00000150: 36db a13c 2fe8 af3c 134a b33c 54d7 8f3b
00000160: 4bcf 02bd 4e35 76bb ee70 403c 08d5 16bd
00000170: ead1 7a3c 4fe0 c83c 6337 3abc ec3e 173d
00000180: ba0b b9b9 02ee 34bc c274 2dbd 5a6f 0b3d
00000190: 9a78 d6bc bb29 2a3d 3357 d0bc aa67 1abd
000001a0: 58aa 1cbd a34c fcbc 4b98 083d 41d1 723c
000001b0: 7bf3 0a3d c2f9 efbc 06b4 9abc b3f7 2a3d
000001c0: 43ba 3e3c 4f8f 533c 6c26 86bc de94 2abc
000001d0: 9812 03bd bf00 47bd ad9e 15bd ec5f 44bd
000001e0: 3d9f aa3b 44fc 993c 4d0d 2cbd 9158 ccbc
000001f0: 3cb0 3b3c 996a c93c de28 1cbc 34d6 d0bc
00000200: 82a2 ef3c bfba e0bc 5fd0 383b 86e7 373c
00000210: 0052 453d 0e74 063d f979 fd3b 930b 63bc
00000220: 16c1 d13c 32bf b73c 6efb 71bc 1321 223d
00000230: a757 4bbc d558 773c dc23 79bc f872 27bd
00000240: c3fa cb3b 6ee3 27bd 5753 563a a3be 323d
00000250: 0c93 1f3d c4c6 9abc abf7 01bc af91 15bc
00000260: c68e 0c3d aeb1 463a 80d9 173d 6d72 233d
00000270: bb14 5a3d 0ee2 04bd a0fb aa3b 2791 cc3c
00000280: 4438 003d 5c00 3cbd 13d0 47bd 1d1a 7ebc
00000290: f93e 72bb d023 9abc 01fd 6bbc 101a a73b
000002a0: cefc 70bc 0ffd 29bd 4798 813c 8cc6 efbb
000002b0: 7ed3 213d 9fa4 1fbd bfe0 893c b11f c33c
000002c0: 30d3 df3c 932b 04bc 67b4 1b3c d693 303b
000002d0: 1cbf fb3c 2e50 fe3c 8fe3 1f3d 9441 263d
000002e0: 4814 143d 72f2 07bd 8aad 99bc 296c 27bd
000002f0: 6f36 1d3d 2255 21bd a025 cbbc af86 2cba
00000300: 3a6b 11bc 6aed 5fbc 9120 13bd ca01 253d
00000310: 7386 5dbd e080 b3bc a798 003c c39a 493c
00000320: 8d80 483a 1888 b93b cb00 033d 1645 053d
00000330: f481 3fbd 06bd 25bd 35fa 0c3d 5a8d 783c
00000340: c87f 31bd 8ffd 9cbc 7bf6 cc3b d2c4 f9bb
00000350: 76a8 17bd 7133 523c d4c3 333d ea0a 46bd
00000360: 08e2 04bd f377 a2bc 66f4 ff3c 2a89 18bd
00000370: 9832 00bd b2ab 8a3c e530 20bd fbfe 3fbd
00000380: 2991 143d 4cc4 d5bc 7ead 1a3c abac dd3c
00000390: 25a8 08bd ea5a 543d 883d e23c 170c b4bc
000003a0: 3558 b4ba 5a27 a33c 7153 afbb a855 54bc
000003b0: 8398 f3bc c9aa 04bd 7e68 8b3c f7d9 b5bc
000003c0: 816e 183d b01c 27bc 0607 1cbd 561d 253c
000003d0: 1ac0 37bd 72ac 4c3c 9c83 a4bb 765d d83c
000003e0: d649 91bc 569d 05bb 890c 0fbd 501b e8bb
000003f0: 2fcf 0f3d 3795 9f3c 8254 0d3d 6574 6fbc

fc1.bias f4 [128]
-0.049489405 0.26758242 0.21677569 0.27810186 0.33773416 0.23220088 0.1534785 0.042144418
0.23414843 -0.03256835 0.14341013 0.21988145 0.24813022 0.025393728 0.2198304 0.26542658
0.12616037 0.2679803 0.17726094 0.21246557 0.24558198 0.32467303 0.108352326 0.1398519
0.27277577 -0.058452606 0.18007681 0.0922747 0.1569731 0.029437944 0.35679036 0.24134648
0.04856756 0.29792583 0.21010649 0.22130685 0.2829103 0.31058362 0.2774294 0.23113763
0.20519939 0.2878176 0.06794548 0.1932453 0.1773476 0.27457273 0.21659984 0.22508349
0.371728 0.24125475 0.23302697 0.2691784 0.25129583 0.34856057 0.23187353 0.2662779
0.19114858 0.2906576 0.25105083 0.23513778 0.20065983 0.24022374 0.20657298 0.29156744
0.3356993 0.23032136 0.055223875 0.034292705 -0.02029415 0.13497223 0.29131967 -0.019440673
0.23826726 0.18528539 0.20823681 0.16872014 0.30406725 0.22454096 0.30991775 0.2604594
0.19790044 0.2736278 0.20384872 0.18265824 0.26760596 0.08000349 0.24911419 0.1136051
0.20252843 0.19089483 0.1510513 0.18707803 0.31970164 0.22496273 0.0055854106 0.30766693
0.2433406 0.18802187 0.2676936 0.20506193 0.109749176 0.096878275 0.04174268 0.13860191
0.25030833 0.19280945 0.22489588 -0.06699418 0.29587823 0.25170472 0.34264064 0.31543007
0.011177985 0.054014016 0.23234902 0.35201743 0.3611613 0.3402058 0.35512844 0.15496129
0.21783341 0.18097508 0.10894262 -0.0071967975 0.25106552 0.39094108 0.22219066 0.31037125
00000000: 67b5 4abd 9000 893e 72fa 5d3e 5e63 8e3e
00000010: 7eeb ac3e 11c6 6d3e 7829 1d3e a09f 2c3d
00000020: 9bc4 6f3e 6466 05bd 1bda 123e 9a28 613e
00000030: d915 7e3e 8206 d03c 381b 613e fee5 873e
00000040: 2f30 013e b734 893e e483 353e 9390 593e
00000050: d879 7b3e 8b3b a63e d3e7 dd3d 5635 0f3e
00000060: 44a9 8b3e 006c 6fbd 0e66 383e 85fa bc3d
00000070: 8ebd 203e d827 f13c 3aad b63e 8823 773e
00000080: c7ee 463d bc89 983e 2826 573e 439e 623e
00000090: 9ed9 903e d104 9f3e 3a0b 8e3e 58af 6c3e
000000a0: ca1f 523e d45c 933e 0027 8b3d 19e2 453e
000000b0: 9c9a 353e cc94 8c3e 59cc 5d3e 497c 663e
000000c0: 2253 be3e 7c0b 773e 9f9e 6e3e c0d1 893e
000000d0: d9a9 803e 8876 b23e 4170 6d3e 9455 883e
000000e0: 74bc 433e 13d1 943e bc89 803e f5c7 703e
000000f0: c579 4d3e 36fd 753e de87 533e 5448 953e
00000100: c7e0 ab3e 5dd9 6b3e 6e32 623d 8276 0c3d
00000110: eb3f a6bc 2936 0a3e da27 953e 0c42 9fbc
00000120: 55fc 733e 74bb 3d3e 083c 553e f9c4 2c3e
00000130: b4ae 9b3e 11ee 653e 8aad 9e3e ef5a 853e
00000140: 6aa6 4a3e f118 8c3e b8bd 503e c30a 3b3e
00000150: a603 893e dfd8 a33d ca17 7f3e caa9 e83d
00000160: 9d63 4f3e ef79 433e 31ad 1a3e 6291 3f3e
00000170: efaf a33e a15c 663e d205 b73b 8586 9d3e
00000180: 472e 793e ce88 403e 230f 893e c1fb 513e
00000190: 2dc4 e03d 1e68 c63d 5ffa 2a3d a9ed 0d3e
000001a0: 6a28 803e d76f 453e 1b4b 663e 3f34 89bd
000001b0: 5a7d 973e 71df 803e 986e af3e 0d80 a13e
000001c0: de23 373c cd3d 5d3d e7ec 6d3e a13b b43e
000001d0: 22ea b83e 742f ae3e 65d3 b53e 2cae 1e3e
000001e0: b90f 5f3e 8851 393e 4f1d df3d 1dd3 ebbb
000001f0: a98b 803e 6e29 c83e f385 633e fbe8 9e3e

fc2.weight f4 [128, 128]
-0.05089268 0.043414254 0.04868244 0.083128974 0.13716371 0.15113002 0.07780085 0.029287545
0.16035481 0.06157647 0.004203458 0.026892304 0.14401537 0.0017897944 0.12317297 0.1015465
0.090227015 0.029211834 0.15455915 0.05324475 0.09783928 0.090654984 0.00784167 0.02839682
0.13453062 -0.04648737 0.021047784 0.06459063 0.102332875 -0.034865905 0.017872559 0.008619657
-0.0022646962 0.104966015 0.03511391 0.06321847 0.09246963 0.01792705 0.07697185 0.021165177
0.07273627 0.08305067 0.007278642 0.08409667 0.035987005 0.04320942 0.03181092 0.15484163
0.028435135 0.0096604265 0.059798002 0.17768447 0.0018864395 0.037904292 0.10220096 0.17289998
0.095771156 0.10434131 0.13701871 0.050571233 0.13632129 0.10589518 0.11330606 0.17077906
0.1054238 0.10807813 0.017657839 0.059068576 0.055826273 0.12060706 0.16608787 -0.014303668
0.16582407 0.053504344 0.027016638 0.029957302 0.13989893 0.14811517 0.11665554 0.027774816
0.15178253 0.038751625 0.1359189 0.1420244 0.12837918 -0.0007514517 0.15651846 0.005684965
0.016188363 0.023216052 -0.008318491 0.121789105 0.10503507 0.03675621 0.05573464 0.15284295
0.17672686 0.12115696 0.1571478 0.03507455 0.09274446 -0.038121875 0.07387953 0.015765496
0.112217486 -0.010939199 0.023934316 0.01272654 0.109773576 0.15785572 0.042347517 0.14461368
-0.036988553 -0.032087717 0.11760106 0.12807041 0.12904581 0.12622023 0.0804788 0.054477163
0.1622031 0.04597936 0.03534732 0.041557148 0.073196605 0.102670185 0.14779338 0.13711813
-0.06962084 0.116802 -0.020325854 -0.008696392 0.020291928 -0.022331795 -0.02749037 0.059351675
0.029575096 -0.00040393253 0.014425037 0.022302018 -0.041459527 0.012238362 -0.03301941 0.029285418
-0.010421403 0.03844965 0.02666738 0.09967537 0.08380068 0.015522628 0.096728005 0.02680449
0.06175398 0.00766463 0.07831416 0.051808663 0.015924014 -0.044166435 0.05977398 -0.029184481
-0.023869727 0.1181487 0.044714324 0.11745614 -0.048189964 -0.0637293 0.1016862 0.070477
0.031418577 0.11725553 0.06885673 0.028038839 0.016710768 0.048797384 0.0255211 -0.052839085
-0.040160403 0.016196353 0.07982156 0.07559217 0.02505635 0.02466109 0.04722206 -0.005939899
0.05703316 0.12650406 0.044511937 -0.007300558 -0.017349586 0.023921337 0.1091917 -0.034059264
0.03632206 0.030007502 0.103207864 0.0371624 -0.07479914 0.035479505 0.001822213 -0.013456302
0.10944188 0.07651859 0.100516915 0.02168961 0.07974706 0.015607288 0.08939895 -0.031954136
0.004867102 0.042640362 0.09531017 0.045277756 -0.0107636545 0.015472369 0.09158808 0.06627512
0.11921179 0.0510473 0.098149434 0.09300239 -0.041639343 0.095159166 -0.05658908 -0.022781508
0.02285688 -0.027298858 0.07566721 -0.03906732 -0.0021448531 0.05051174 -0.030558301 -0.006002447
0.11732546 0.047542173 0.07703993 0.044908218 0.049092453 0.056758616 0.07405354 0.019935768
-0.049908675 -0.004812989 0.05367139 0.091199234 0.09018809 0.11257702 0.021393023 -0.005641352
-0.0023992262 0.088750675 0.050049797 -0.05812813 0.04062582 0.071314596 0.013839772 -0.017707482
00000000: d874 50bd 25d3 313d 3d67 473d 863f aa3d
00000010: a574 0c3e d4c1 1a3e 0d56 9f3d 6fec ef3c
00000020: 0d34 243e 9c37 7c3d 29bd 893b 404d dc3c
00000030: c478 133e 8997 ea3a 1c42 fc3d 9df7 cf3d
00000040: f1c8 b83d a84d ef3c c144 1e3e 2b17 5a3d
00000050: f65f c83d 52a9 b93d 597a 003c 73a0 e83c
00000060: 65c2 093e 8a69 3ebd 676c ac3c 1848 843d
00000070: e693 d13d 8dcf 0ebd 7969 923c 7639 0d3c
00000080: 4c6b 14bb 6cf8 d63d 9ad3 0f3d af78 813d
00000090: b860 bd3d c0db 923c 6ba3 9d3d 9862 ad3c
000000a0: c1f6 943d 7816 aa3d ad81 ee3b e03a ac3d
000000b0: 1c67 133d 5cfc 303d 2b4c 023d ce8e 1e3e
000000c0: cdf0 e83c c446 1e3c c0ee 743d ebf2 353e
000000d0: 6842 f73a 8841 1b3d bd4e d13d b10c 313e
000000e0: ab23 c43d e6b0 d53d a24e 0c3e c823 4f3d
000000f0: cf97 0b3e 92df d83d 020d e83d b5e0 2e3e
00000100: 6fe8 d73d 1158 dd3d 2ca7 903c e4f1 713d
00000110: 17aa 643d d600 f73d f012 2a3e ef59 6abc
00000120: c9cd 293e 5f27 5b3d ff51 dd3c 0469 f53c
00000130: aa41 0f3e 81ab 173e 1ae9 ee3d 0388 e33c
00000140: e16c 1b3e 06ba 1e3d 532e 0b3e d86e 113e
00000150: d575 033e 12fd 44ba 6046 203e f148 ba3b
00000160: 759d 843c 972f be3c 484a 08bc 916c f93d
00000170: a01c d73d ae8d 163d 024a 643d dd82 1c3e
00000180: e3f7 343e 2421 f83d 5aeb 203e 55aa 0f3d
00000190: cff0 bd3d af25 1cbd 274e 973d a426 813c
000001a0: 48d2 e53d 533a 33bc e611 c43c fa82 503c
000001b0: f8d0 e03d eea4 213e 9774 2d3d 9c15 143e
000001c0: 4f81 17bd 696e 03bd d3d8 f03d e424 033e
000001d0: 9624 043e e03f 013e 12d2 a43d 7223 5f3d
000001e0: 9218 263e da54 3c3d 5ac8 103d d437 2a3d
000001f0: 1ae8 953d bf44 d23d 2657 173e b268 0c3e
00000200: 5f95 8ebd e335 ef3d 6882 a6bc 507b 0ebc
00000210: 423b a63c 2bf1 b6bc 7c33 e1bc be1a 733d
00000220: 7947 f23c e8c6 d3b9 fe56 6c3c b9b2 b63c
00000230: 77d1 29bd 6983 483c 5c3f 07bd f9e7 ef3c
00000240: 88be 2abc 617d 1d3d 8d75 da3c 9a22 cc3d
00000250: b19f ab3d 9f52 7e3c 5519 c63d 1795 db3c
00000260: bef1 7c3d 9427 fb3b 2d63 a03d 5235 543d
00000270: 1473 823c dde7 34bd 90d5 743d 4b14 efbc
00000280: 728a c3bc f2f7 f13d 5e26 373d d88c f03d
00000290: d762 45bd 8284 82bd db40 d03d 3f56 903d
000002a0: c4b0 003d ab23 f03d c204 8d3d b5b1 e53c
000002b0: 05e5 883c c4df 473d a011 d13c cc6d 58bd
000002c0: 3c7f 24bd 37ae 843c 7c79 a33d 11d0 9a3d
000002d0: f942 cd3c 0e06 ca3c eb6b 413d 7ca3 c2bb
000002e0: 9a9b 693d 488a 013e 2652 363d 8539 efbb
000002f0: b820 8ebc aef6 c33c e69f df3d ba81 0bbd
00000300: 71c6 143d 4bd2 f53c a55e d33d 9a37 183d
00000310: 4b30 99bd f552 113d 52d7 ee3a d277 5cbc
00000320: 1023 e03d c7b5 9c3d d0db cd3d 69ae b13c
00000330: 6d52 a33d b6b5 7f3c cc16 b73d 57e2 02bd
00000340: 367c 9f3b a9a7 2e3d fa31 c33d 2b75 393d
00000350: 0a5a 30bc d27f 7d3c 8892 bb3d 40bb 873d
00000360: 5025 f43d f916 513d 9202 c93d 0978 be3d
00000370: 048e 2abd cfe2 c23d f3c9 67bd 49a0 babc
00000380: 5a3e bb3c dba1 dfbc 69f7 9a3d 0e05 20bd
00000390: aa90 0cbb 66e5 4e3d 6755 fabc 2db0 c4bb
000003a0: 5548 f03d 95bb 423d 1cc7 9d3d aef1 373d
000003b0: 2b15 493d b97b 683d 62a9 973d 5650 a33c
000003c0: 0a6d 4cbd 47b6 9dbb 88d6 5b3d aac6 ba3d
000003d0: 89b4 b83d c88e e63d 6c40 af3c 17db b8bb
000003e0: 563c 1dbb eac2 b53d 0401 4d3d c317 6ebd
000003f0: 4367 263d 630d 923d 36c0 623c 480f 91bc

fc2.bias f4 [128]
0.099198446 -0.027793216 0.152688 0.042063862 -0.053735107 -0.017310416 -0.034392543 -0.020712506
0.13729154 -0.037477408 0.04732734 0.0713427 0.022654895 -0.053409975 0.09664638 0.028448896
0.07171881 0.17361408 0.14191549 0.03523018 -0.03626878 -0.05222581 0.09410216 0.09751828
0.06373234 -0.06093099 0.0065652207 0.034713004 0.1037133 -0.031246563 -0.047582008 0.0704498
0.13559775 -0.020540735 -0.07285639 -0.041172262 0.12674457 0.13797937 -0.06513055 0.0024655557
-0.030599706 0.11308981 -0.051578954 0.13683595 0.14097863 -0.06538079 -0.026588293 -0.030118974
0.030744549 -0.047715127 -0.07581851 0.07271235 0.12678422 -0.042529102 0.1563447 0.08815439
-0.054245047 0.09752164 0.08488554 0.016775105 0.1529919 -0.0048856833 -0.079452135 -0.08788014
-0.0881029 0.019985365 -0.04236524 0.10397347 0.1452406 0.1137316 0.07203594 -0.07918113
-0.007229056 0.06550431 0.0033167496 0.010724532 0.07101115 -0.03443218 -0.09089509 0.0062481132
-0.060475722 0.019522054 -0.06141036 0.113201715 -0.028704919 0.029364895 0.16342649 0.140445
-0.07237918 0.16108121 0.122004695 -0.020068856 0.14428654 0.12551337 0.003519531 0.051452417
0.13705537 -0.005084376 0.016044935 -0.08921446 0.11067694 -0.031327575 0.04811146 -0.08758043
0.12073302 0.083647676 0.021749305 0.03500709 0.109266885 -0.0841542 -0.03295433 -0.05131496
0.01543844 -0.08335048 0.0034409163 0.005703727 0.07577401 -0.028543249 0.049384627 0.0067841015
-0.06230677 0.11950834 -0.007572178 -0.015909346 -0.03402495 -0.07729928 -0.073975295 -0.030537646
00000000: 8e28 cb3d 99ae e3bc 3e5a 1c3e 284b 2c3d
00000010: 5819 5cbd 93ce 8dbc 32df 0cbd 46ad a9bc
00000020: 2796 0c3e e981 19bd 50da 413d 1f1c 923d
00000030: c296 b93c 6bc4 5abd 8aee c53d a90d e93c
00000040: 50e1 923d e4c7 313e 4b52 113e 854d 103d
00000050: 928e 14bd bbea 55bd a2b8 c03d aab7 c73d
00000060: 1a86 823d c692 79bd 1021 d73b 392f 0e3d
00000070: a367 d43d cbf8 ffbc 5ae5 42bd fc47 903d
00000080: 23da 0a3e 0b45 a8bc bb35 95bd 3fa4 28bd
00000090: 54c9 013e 774a 0d3e 2a63 85bd 2995 213b
000000a0: 3cac fabc a19b e73d 7444 53bd b91e 0c3e
000000b0: b45c 103e 5de6 85bd b1cf d9bc 11bc f6bc
000000c0: fedb fb3c f070 43bd bc46 9bbd 36ea 943d
000000d0: b9d3 013e ff32 2ebd d318 203e 4a8a b43d
000000e0: 0e30 5ebd 6db9 c73d 78d8 ad3d f26b 893c
000000f0: e9a9 1c3e 1518 a0bb cdb7 a2bd 81fa b3bd
00000100: 4b6f b4bd 59b8 a33c 2d87 2dbd 0bf0 d43d
00000110: f4b9 143e 1dec e83d 9487 933d b729 a2bd
00000120: b8e1 ecbb 2027 863d d35d 593b f3b5 2f3c
00000130: 4b6e 913d c208 0dbd 3427 babd f9bc cc3b
00000140: 64b5 77bd b7ec 9f3c 6e89 7bbd 4dd6 e73d
00000150: 9426 ebbc a68e f03c 4659 273e d0d0 0f3e
00000160: 893b 94bd 79f2 243e 99dd f93d 7167 a4bc
00000170: dabf 133e 9486 003e efa7 663b c5bf 523d
00000180: 3e58 0c3e d69a a6bb ab70 833c 12b6 b6bd
00000190: 97aa e23d 5851 00bd 8610 453d 5e5d b3bd
000001a0: e042 f73d 794f ab3d 992b b23c 9863 0f3d
000001b0: 51c7 df3d 0a59 acbd 1ffb 06bd a32f 52bd
000001c0: 83f1 7c3c a8b3 aabd ff80 613b 54e6 ba3b
000001d0: 672f 9b3d 88d3 e9bc 8947 4a3d 2b4d de3b
000001e0: 6235 7fbd cac0 f43d 0820 f8bb 5154 82bc
000001f0: bf5d 0bbd 164f 9ebd 5c80 97bd 162a fabc

fc3.weight f4 [400, 128]
-0.052344974 -0.075612016 -0.07148339 0.04445258 -0.020268537 -0.05432715 -0.08620168 0.07511064
0.028345577 0.03905409 0.060586218 -0.09468137 -0.07814612 -0.037336767 -0.056525774 0.03869448
0.057120018 -0.074366756 -0.042401362 -0.06270754 -0.047330983 -0.018708587 0.027616428 -0.021369984
-0.01670015 -0.010305844 -0.07954894 -0.061797697 0.03652291 0.02984481 -0.04441675 0.032931592
-0.062079538 0.07468749 0.0095957965 -0.004243732 -0.005492352 0.063192576 -0.06641964 -0.0017590399
-0.06936398 -0.072283 -0.08704839 0.06222478 -0.005731072 -0.030993454 0.033669397 -0.07292998
0.040880702 -0.034561057 -0.04716462 -0.04194658 0.04951743 0.024811804 -0.069446765 -0.0038405412
0.00031339377 -0.05130409 0.02537613 -0.06895364 -0.038311753 -0.049156364 -0.04374958 -0.019177184
0.06700755 -0.08891654 -0.059904337 -0.06616328 0.041027535 -0.017529802 0.049307913 0.016626745
0.06962417 0.00027495282 -0.006329626 0.020199442 -0.01495584 -0.081763506 -0.058612462 0.075864576
-0.010952587 -0.058192026 -0.07109541 -0.03146386 0.0033301485 -0.0637083 -0.06576744 -0.087538816
0.03235431 -0.07460356 -0.00918646 -0.025236808 -0.009818255 -0.032412287 0.06798016 -0.07110531
0.019541962 0.06235426 -0.07600968 0.07593598 -0.08920323 0.027699277 -0.049112502 0.009895017
-0.08813808 -0.066757515 -0.069972925 -0.03536046 -0.033333044 -0.009310536 -0.021974042 0.07353924
-0.06040462 -0.046182185 0.0109609105 0.010566123 -0.018216783 0.062015586 -0.08221496 0.007885873
0.06705223 0.04440299 -0.018098533 -0.031042144 0.021094918 0.08822707 -0.04516918 -0.07565527
-0.101231165 -0.08767124 0.059315287 -0.0076450137 0.020613085 -0.0023071691 -0.06861076 -0.053906176
-0.074250385 0.040673867 0.0019355793 0.038950186 0.023422811 -0.044385392 0.057657138 -0.03227921
-0.03516939 0.009134575 0.046843052 -0.073688895 0.061129935 0.013005197 -0.0076554464 0.049698856
0.038794313 -0.03972002 -0.0025400072 0.017000202 0.031489022 -0.056514297 -0.05388402 0.0470447
-0.048118692 -0.08792196 -0.08728896 0.01850482 0.04117109 -0.0038469576 0.054822646 0.06317748
0.050678544 -0.034928076 0.01337873 -0.036307786 -0.0025833293 0.08646444 -0.08382448 0.07262139
-0.0042109606 -0.012704469 -0.03146138 -0.064558536 -0.06852774 0.07970431 -0.05421147 -0.0057068006
0.08320556 -0.11178142 -0.11325607 -0.04174391 -0.101203695 0.079389624 0.044160433 0.052855007
-0.03138201 0.034017507 0.06259174 0.028251434 0.0107689 0.04456639 -0.073417194 -0.064587414
-0.012017319 0.0341749 -0.011416712 -0.109079435 -0.03321409 0.028933287 0.01905594 -0.078384526
0.038130134 -0.069682114 0.017125115 -0.10685851 0.048904598 0.032853246 -0.021183364 0.035307772
0.01773046 -0.052533224 -0.050374605 -0.04070655 -0.07972107 -0.03777222 -0.00900349 0.031066265
0.05667482 0.05585017 0.075955234 0.084397085 -0.09364226 -0.06802355 -0.0571647 -0.0410953
-0.0831927 -0.08880214 -0.023687128 0.052303497 -0.09892344 0.022633195 -0.10024286 -0.035448402
0.0044834926 0.05573862 -0.029916607 -0.07212993 -0.07342035 -0.067026205 -0.0641441 -0.01954547
0.08107099 0.043586183 0.069201075 -0.07071296 -0.012861796 -0.08415129 -0.029489603 -0.066688515
00000000: af67 56bd 79da 9abd e265 92bd e913 363d
00000010: 340a a6bc 2586 5ebd 828a b0bd 9bd3 993d
00000020: fc34 e83c 2ef7 1f3d 4129 783d 4ee8 c1bd
00000030: 130b a0bd 70ee 18bd 9287 67bd 1a7e 1e3d
00000040: aef6 693d 994d 98bd 0dad 2dbd d06c 80bd
00000050: 22de 41bd c042 99bc d93b e23c 1b10 afbc
00000060: c1ce 88bc d8d9 28bc 8eea a2bd 951f 7dbd
00000070: 0c99 153d 1a7d f43c 57ee 35bd 47e3 063d
00000080: 1d47 7ebd c1f5 983d b037 1d3c 010f 8bbb
00000090: 30f9 b3bb 1c6b 813d 0507 88bd 968f e6ba
000000a0: b40e 8ebd 1c09 94bd 6d46 b2bd 69df 7e3d
000000b0: b7cb bbbb fce5 fdbc ece8 093d 505c 95bd
000000c0: 8672 273d e58f 0dbd b02f 41bd 2dd0 2bbd
000000d0: cad2 4a3d 2042 cb3c 1b3a 8ebd 97b1 7bbb
000000e0: 004f a439 3d24 52bd 9ae1 cf3c 9137 8dbd
000000f0: c9ec 1cbd 2f58 49bd c232 33bd 7819 9dbc
00000100: 413b 893d e019 b6bd 405e 75bd 9d80 87bd
00000110: 7d0c 283d a99a 8fbc 18f7 493d d034 883c
00000120: 1e97 8e3d 8b27 9039 c068 cfbb 4d79 a53c
00000130: 5709 75bc a073 a7bd 9f13 70bd e35e 9b3d
00000140: 7b72 33bc c35a 6ebd 789a 91bd 40e0 00bd
00000150: 9f3e 5a3b 7f79 82bd 14b1 86bd 8d47 b3bd
00000160: f485 043d c0c9 98bd ce82 16bc 6cbd cebc
00000170: bfdc 20bc bfc2 04bd 2f39 8b3d a99f 91bd
00000180: 7716 a03c 2e67 7f3d f7aa 9bbd 5384 9b3d
00000190: 2fb0 b6bd 98e9 e23c 312a 49bd b61e 223c
000001a0: bd81 b4bd 2ab8 88bd f74d 8fbd 21d6 10bd
000001b0: 3b88 08bd 388b 18bc e802 b4bc be9b 963d
000001c0: d66a 77bd 8829 3dbd 6495 333c 881d 2d3c
000001d0: 5d3b 95bc 0e04 7e3d 5160 a8bd c033 013c
000001e0: ae52 893d e9df 353d 6043 94bc 184c febc
000001f0: 40cf ac3c 65b0 b43d 5103 39bd 26f1 9abd
00000200: 4952 cfbd fb8c b3bd 96f4 723d 0683 fabb
00000210: c6dc a83c e033 17bb cc83 8cbd b9cc 5cbd
00000220: 9610 98bd a499 263d 44b3 fd3a 3b8a 1f3d
00000230: 32e1 bf3c 75cd 35bd e429 6c3d 3437 04bd
00000240: c70d 10bd 2fa9 153c 80de 3f3d 34ea 96bd
00000250: 6263 7a3d c013 553c 8ada fabb 0791 4b3d
00000260: c9e6 1e3d 76b1 22bd 4076 26bb 0244 8b3c
00000270: a2fa 003d 897b 67bd 7db5 5cbd f1b1 403d
00000280: 1b18 45bd 6e10 b4bd 8ec4 b2bd 6c97 973c
00000290: 04a3 283d 3d1d 7cbb b68d 603d 3263 813d
000002a0: 4e94 4f3d be10 0fbd 7632 5b3c 79b7 14bd
000002b0: 134d 29bb 4514 b13d 2bac abbd 86ba 943d
000002c0: 19fc 89bb 6826 50bc a6dd 00bd 4437 84bd
000002d0: 4658 8cbd 033c a33d d90c 5ebd 1d00 bbbb
000002e0: ad67 aa3d a8ed e4bd ccf2 e7bd aafb 2abd
000002f0: e243 cfbd 0797 a23d 92e1 343d 7e7e 583d
00000300: 6c8a 00bd f155 0b3d 1930 803d 8d6f e73c
00000310: 0a70 303c 3f8b 363d c15b 96bd 6846 84bd
00000320: 4ae4 44bc fbfa 0b3d 290d 3bbc 0a65 dfbd
00000330: 7f0b 08bd 8005 ed3c 341b 9c3c 1188 a0bd
00000340: 582e 1c3d 7fb5 8ebd f849 8c3c a2d8 dabd
00000350: 3050 483d 2091 063d bc88 adbc e29e 103d
00000360: 783f 913c 142d 57bd 9a55 4ebd e9bb 26bd
00000370: cd44 a3bd 0bb7 1abd 6083 13bc ae7e fe3c
00000380: db23 683d 26c3 643d 6b8e 9b3d 61d8 ac3d
00000390: 83c7 bfbd ee4f 8bbd 8825 6abd 8c53 28bd
000003a0: ef60 aabd e5dd b5bd 820b c2bc 313c 563d
000003b0: 5f98 cabd 4069 b93c 214c cdbd 5832 11bd
000003c0: 43ea 923b 2e4e 643d ac13 f5bc dbb8 93bd
000003d0: 695d 96bd 0945 89bd fb5d 83bd d21d a0bc
000003e0: 8c08 a63d 6d87 323d 4bb9 8d3d f5d1 90bd
000003f0: 48ba 52bc 8357 acbd 2e94 f1bc fd93 88bd

fc3.bias f4 [400]
-0.08749964 -0.05222512 -0.03978186 0.06565632 -0.08510428 -0.005777468 0.0394225 -0.0349608
-0.039703257 -0.108315304 -0.04947312 -0.08979477 -0.0778983 -0.0018933632 0.048561666 -0.063665584
0.06247159 -0.05894568 0.06183789 -0.098464966 -0.020580186 -0.04921194 0.0020174973 0.04214761
0.022146113 0.061075628 -0.033992663 0.04770335 0.03793862 -0.013645661 -0.016833367 0.017622204
-0.035212573 -0.0038871139 -0.04237432 -0.09716646 0.0010444089 0.060168684 -0.021333434 0.020887898
0.00800784 -0.08400885 -0.04677865 -0.0014214123 -0.11080827 0.010703879 -0.027355906 0.020894313
-0.057568897 -0.065991424 0.01473667 0.0065874835 -0.009554579 0.046887137 0.0057286057 0.007929269
-0.043548267 -0.028260583 -0.027604626 -0.040043026 0.025198974 0.007696234 -0.022801086 0.055022962
-0.08116908 -0.02907249 -0.034382384 0.02959611 -0.07935435 -0.06408054 0.013352313 -0.029574709
-0.10183891 -0.10067008 -0.050038733 0.0073999134 -0.06270813 -0.07765876 -0.00826098 -0.040948465
-0.10491781 -0.073671184 -0.0026535736 -0.04499602 0.00759916 0.016356861 -0.05984623 -0.070120156
0.021838719 -0.0022968936 -0.061724003 -0.06246093 -0.063445896 0.009239043 -0.01112517 0.04707228
-0.04782286 0.033374757 -0.08980436 0.024701258 -0.024369549 -0.08656587 0.045769155 -0.06247262
-0.043257244 -0.011959463 0.04790229 -0.07912134 -0.085956566 -0.06273156 0.0534452 -0.05328515
-0.0735261 0.06734986 -0.046343215 -0.103415616 0.022004802 0.041456614 -0.038839415 0.013536304
0.0101810675 -0.0189623 0.021426564 0.056247067 0.050165627 -0.008911594 0.0043245684 0.04085724
-0.09437102 0.036217228 -0.00998613 0.033844035 -0.056236614 -0.08805326 0.03936864 0.050455064
0.032375664 -0.000118329335 -0.014124144 -0.008780427 0.021014448 0.021860136 0.018768428 0.05725998
-0.035395928 0.054012835 0.056487482 0.04755943 -0.06275656 -0.07460268 -0.10712927 -0.0827084
-0.08297252 -0.08034938 -0.033694446 0.029533884 -0.048916407 -0.048902538 -1.6500391e-05 0.03751196
0.028976379 0.0066774925 0.046415053 0.03992379 0.065518804 -0.012470333 0.020888215 -0.04186888
0.0032020032 -0.047592677 -0.06011802 -0.008431761 -0.0014244603 0.048426803 0.011596225 0.03836074
0.05988077 -0.05587209 0.0007434673 -0.032474354 -0.102547936 0.07493458 -0.057402987 0.049420685
0.036211863 0.047545668 -0.109104015 0.02890028 -0.10461787 0.043988846 -0.037664257 -0.07143005
-0.089083955 -0.028941156 0.00897039 0.036813468 0.035708997 -0.002383829 0.023672065 -0.051696874
-0.036404546 0.003678058 -0.03669347 0.03065402 0.045794874 -0.052476063 -0.07013273 0.070292294
-0.047428325 -0.041644186 -0.024805157 -0.025299827 0.014250338 -0.07514962 0.0401495 -0.087453306
0.024799868 -0.010479276 -0.053975176 0.026761783 -0.015212211 -0.06448985 -0.0031529255 0.034657307
0.008167451 -0.08426181 -0.0043249377 0.02575666 0.06129515 -0.044496637 -0.011232728 0.009788427
-0.02034128 -0.09682255 -0.02430877 0.006995621 0.030779991 -0.04888756 -0.06299381 -0.029757246
0.008770972 0.057012387 0.052633192 0.022022344 0.0055782315 -0.079225294 -0.028595416 -0.056143045
0.0026637649 0.06567624 -0.010779292 -0.058928054 -0.024223926 0.012795663 0.0340234 -0.014858578
00000000: 0333 b3bd 02ea 55bd 4ef2 22bd d276 863d
00000010: 274b aebd ea50 bdbb 7d79 213d 0e33 0fbd
00000020: e29f 22bd 6ad4 ddbd 54a4 4abd 52e6 b7bd
00000030: 2589 9fbd ba2a f8ba 99e8 463d 1a63 82bd
00000040: 36e2 7f3d 0671 71bd ba49 7d3d 00a8 c9bd
00000050: c797 a8bc 7692 49bd fd37 043b f9a2 2c3d
00000060: c46b b53c 702a 7a3d e43b 0bbd 9764 433d
00000070: 8765 1b3d 0d92 5fbc 21e6 89bc 715c 903c
00000080: 0f3b 10bd f3be 7ebb b290 2dbd 35ff c6bd
00000090: 8ce4 883a 7073 763d 74c3 aebc 191d ab3c
000000a0: 5133 033c d50c acbd f89a 3fbd af4e baba
000000b0: 72ef e2bd 535f 2f3c 7e19 e0bc 8d2a ab3c
000000c0: 5dcd 6bbd 8326 87bd 1372 713c d1db d73b
000000d0: cf8a 1cbc ba0c 403d 07b7 bb3b c4e9 013c
000000e0: ab5f 32bd bd82 e7bc 1923 e2bc 2804 24bd
000000f0: 146e ce3c b130 fc3b 58c9 babc c25f 613d
00000100: fa3b a6bd 6e29 eebc 8bd4 0cbd 8b73 f23c
00000110: 8984 a2bd a83c 83bd a9c3 5a3c a946 f2bc
00000120: eb90 d0bd 1d2c cebd 6af5 4cbd f97a f23b
00000130: 1f6d 80bd 8e0b 9fbd 1059 07bc 94b9 27bd
00000140: 26df d6bd ebe0 96bd 94e7 2dbb bf4d 38bd
00000150: 6002 f93b d3fe 853c 5221 75bd 289b 8fbd
00000160: 1de7 b23c 7b87 16bb 4fd2 7cbd 08d7 7fbd
00000170: ecef 81bd 5b5f 173c 5846 36bc ddce 403d
00000180: e7e1 43bd f8b3 083d 59eb b7bd 4b5a ca3c
00000190: a6a2 c7bc 7249 b1bd 7078 3b3d 4ae3 7fbd
000001a0: 822e 31bd a0f1 43bc 3135 443d 5e0a a2bd
000001b0: ff09 b0bd 6779 80bd 5be9 5a3d 8841 5abd
000001c0: da94 96bd b9ee 893d 62d2 3dbd 91cb d3bd
000001d0: 6a43 b43c 69ce 293d 1416 1fbd 60c7 5d3c
000001e0: 7ece 263c d356 9bbc c386 af3c 5363 663d
000001f0: 797a 4d3d ef01 12bc 1cb5 8d3b ec59 273d
00000200: 9845 c1bd 8458 143d dd9c 23bc 0ba0 0a3d
00000210: 5d58 66bd 4555 b4bd 0341 213d f8a9 4e3d
00000220: 589c 043d 9427 f8b8 f468 67bc c8db 0fbc
00000230: 7e26 ac3c 0714 b33c 3fc0 993c 7189 6a3d
00000240: 52fb 10bd 903c 5d3d 6b5f 673d adcd 423d
00000250: 8386 80bd 4ac9 98bd 9766 dbbd 0663 a9bd
00000260: 7fed a9bd 378e a4bd 3003 0abd 0bf1 f13c
00000270: 925c 48bd 074e 48bd 526a 8ab7 24a6 193d
00000280: df5f ed3c dece da3b b61d 3e3d 2187 233d
00000290: b92e 863d 5e50 4cbc c31d ab3c b47e 2bbd
000002a0: b3d8 513b 8af0 42bd 503e 76bd 5e25 0abc
000002b0: f5b4 baba 2f5b 463d 18fe 3d3c 2720 1d3d
000002c0: 8a45 753d 22da 64bd 3fe5 423a d403 05bd
000002d0: a704 d2bd 4d77 993d 651f 6bbd 586d 4a3d
000002e0: e452 143d 3fbf 423d ed71 dfbd 48c0 ec3c
000002f0: e541 d6bd a62d 343d d645 1abd eb49 92bd
00000300: a671 b6bd 0116 edbc 8bf8 123c b8c9 163d
00000310: 9943 123d 043a 1cbb ebeb c13c 1ac0 53bd
00000320: ef1c 15bd 930b 713b e44b 16bd 241e fb3c
00000330: 6893 3b3d 24f1 56bd c0a1 8fbd 68f5 8f3d
00000340: 3444 42bd 1893 2abd 2f34 cbbc 9541 cfbc
00000350: 407a 693c 0be8 99bd cd73 243d b81a b3bd
00000360: 1829 cb3c 45b1 2bbc 1315 5dbd 873b db3c
00000370: a33c 79bc 4113 84bd 50a1 4ebb d2f4 0d3d
00000380: c6d0 053c 7591 acbd 35b8 8dbb a2ff d23c
00000390: a010 7b3d 1b42 36bd 7a09 38bc a35f 203c
000003a0: c2a2 a6bc e74a c6bd 3023 c7bc 863b e53b
000003b0: 5226 fc3c 523e 48bd e602 81bd 78c5 f3bc
000003c0: 1fb4 0f3c d285 693d e795 573d 3468 b43c
000003d0: 99c9 b63b df40 a2bd ef40 eabc 40f6 65bd
000003e0: 8f92 2e3b 4481 863d a19b 30bc 8b5e 71bd
000003f0: 4171 c6bc e7a4 513c 1f5c 0b3d 6571 73bc
