models/trained_dqn.pth (torch, 480368 bytes, 6 tensors)

fc1.weight f4 [128, 400]
00000000: f52d 64bc 4f46 743d 9d74 13bd dd40 b5bc
00000010: 2d27 f0bc 379b 3ebd dd4a 833c 9968 dfbc
00000020: 7cb9 52bc e24d 523d 16aa 9ebb 02c1 b53b
00000030: b366 983c 215e f7ba 6aef 7b3d f501 0f3d
00000040: a912 423d 731e 8bbc bfef 3abb 29a4 ac3c
00000050: 4b3e 61bc ea92 f23c 541c e4ba c764 a23c
00000060: 8cd6 c53c 4ff0 823c f9d6 b53c 5ee2 24bc
00000070: 8115 f83c 8f9d ea3c 9892 2dbd fa57 b3bb
00000080: 798c 7bbc 6cc2 96bc 9690 083d bf8b 7c3c
00000090: 03c1 d4bb 734a 013d 51f6 d23c ffc4 38bc
000000a0: d708 993c aa44 49bd 4143 c03b ddcb f63c
000000b0: 7aa7 30bd baa9 59bd 401c 363c c22c f9bb
000000c0: 467b 183d 7403 1abd 45da 593c 99f3 c33b
000000d0: 425c 31bd 246f d1bc ee4b 78bc 26d2 263d
000000e0: 82e2 ed3c d1c1 5e3d 25b7 e7bc 1ece 053b
000000f0: 1539 ee3c e716 053d 3d0f cc3c 368a f7bb
00000100: 2688 c8bb 7667 20bd 6c8e 0b3b d173 02bd
00000110: 3ed4 4abb ea5b 7b3c c155 18bd 4d66 81bc
00000120: 0e7d e13b dd5e 0f3d 883b f3bc c6d8 d23c
00000130: 9282 babc f6f3 d3bc 9256 fcbc 2d43 afbc
00000140: fa11 4dbc db32 153d f853 633c c585 db3c
00000150: 9a1b de3c bd74 ee3c 134a b33c 9bbf 1c3c
00000160: ff0f e3bc 7c45 cfba 6204 793c 5648 06bd
00000170: 9531 cf3c beb9 de3c 725e 63bc 0001 333d
00000180: 86dc 133b d82e 37bc c274 2dbd 6165 193d
00000190: 398d b6bc f88e 333d 3357 d0bc 0e65 14bd
000001a0: cfb5 05bd a34c fcbc 54db 3d3d 131b 603c
000001b0: 666e 2d3d 2cf7 bfbc 6466 66bc 0ea5 3e3d
000001c0: 43ba 3e3c c6e4 c43c 863a 6abc f272 e0bb
000001d0: cd02 08bd bf00 47bd f559 fbbc 070f 38bd
000001e0: 57fa 1eba 928d ba3c 4d0d 2cbd 3a8b b8bc
000001f0: a49c 383c 459c 093d a330 c4bb 34d6 d0bc
00000200: 9ab7 0c3d e18f babc faec a73b 3d93 8b3c
00000210: a164 6d3d 5eb3 243d 8d07 833c e3e2 2ebc
00000220: 0969 083d dd20 f53c 8608 4ebc 6e61 493d
00000230: 8210 d6bb 7e55 6d3c b729 42bc ced7 0abd
00000240: 6fc7 e43b 3db5 0ebd 13ec 3d3c 1f35 463d
00000250: 1124 3a3d c4c6 9abc a912 3dbb 9564 93bb
00000260: e9e0 303d a188 d23b 98ba 273d d43f 5d3d
00000270: 8a51 8b3d 0ee2 04bd 8d29 853c d0f0 ed3c
00000280: db79 203d 5c00 3cbd c2d4 3ebd 1d1a 7ebc
00000290: e12f b3bb 4335 92bc d0bb 37bc 1353 313c
000002a0: 0e0a ebba 4b4a 1cbd 07dd b93c 4b48 37bb
000002b0: 405a 2e3d 3bd7 12bd 9013 b23c d363 053d
000002c0: 358d 093d 1424 98ba 1670 573c 1bd6 e43b
000002d0: 128f 013d 55f2 513d 9971 343d a6dd 5c3d
000002e0: 245b 363d 72f2 07bd ddc1 86bc 296c 27bd
000002f0: 7d26 2a3d 72cf 17bd 736a 90bc 4031 3ebb
00000300: 3b34 02ba e71b 19bc 13e2 14bd 549a 443d
00000310: 9d30 57bd 0e43 5cbc bf38 663c a4ed 803c
00000320: 419c 093b c027 6d3c dd2b 213d 5a5a 0b3d
00000330: f481 3fbd 5cbc 32bd e6b4 2d3d 755e dd3c
00000340: 6e37 20bd fab0 b9bb aa77 5f3c 37c5 9bbb
00000350: 76a8 17bd edb9 703c ab55 453d ba32 34bd
00000360: e039 cdbc 9a65 65bc a6e4 113d 2a89 18bd
00000370: 0861 ebbc 15d8 f83c 40f2 16bd fbfe 3fbd
00000380: e769 463d 4cc4 d5bc 815c b23b ea69 073d
00000390: 35d6 f3bc 6345 7e3d f5fb 083d dc4b a1bc
000003a0: f1a4 d83b 6d12 ac3c da74 85ba 7d50 54bc
000003b0: db77 dbbc c9aa 04bd 3665 cc3c 8e94 9fbc
000003c0: 2fcd 1e3d b01c 27bc 0607 1cbd 561d 253c
000003d0: 1fc1 44bd 8471 8f3c eb4b 7d3a 1b02 013d
000003e0: 9267 c9bb 8759 ba3b 890c 0fbd b6b0 c3bb
000003f0: 745b 193d 50b4 9f3c bf1b 293d e3b9 38bc
-0.013926973 0.059637364 -0.035999883 -0.022125656 -0.029315555 -0.046534743 0.016026909 -0.027271556
-0.012861606 0.051343806 -0.004842053 0.00554669 0.018603658 -0.0018872657 0.06150762 0.034913976
0.047381077 -0.016982293 -0.0028524247 0.021074371 -0.013747762 0.02961107 -0.0017403462 0.019823445
0.024150155 0.015983729 0.022197234 -0.010063736 0.030283691 0.028639583 -0.04237613 -0.005473134
-0.0153533155 -0.018403254 0.033341013 0.015414177 -0.0064927354 0.03156514 0.025752218 -0.011277436
0.018680973 -0.04913775 0.0058673923 0.030126506 -0.043128468 -0.05314038 0.011115134 -0.0076042125
0.037226938 -0.03760095 0.013296668 0.005979967 -0.043300875 -0.025565691 -0.015154822 0.040727757
0.029038671 0.054384056 -0.028285572 0.0020417045 0.029079953 0.032492545 0.02490961 -0.007554318
-0.006119746 -0.039161168 0.0021294607 -0.031848732 -0.003094926 0.015341738 -0.037191156 -0.015795851
0.0068813628 0.035002578 -0.029691473 0.025738131 -0.022767339 -0.025873166 -0.030802999 -0.021394337
-0.012516493 0.036425453 0.013875 0.026797185 0.02711277 0.0291084 0.021885907 0.009567167
-0.027717588 -0.0015813555 0.015198799 -0.03278383 0.025292197 0.027188178 -0.013877498 0.043702126
0.0022561862 -0.011180602 -0.042347677 0.037450198 -0.022284137 0.043837517 -0.025432205 -0.036229186
-0.03264409 -0.030798262 0.046351746 0.01367833 0.042341612 -0.02343329 -0.014062498 0.046544127
0.011641088 0.024034869 -0.01429618 -0.00684964 -0.033205796 -0.048584696 -0.030682543 -0.044936206
-0.0006064525 0.022772584 -0.042004872 -0.022527326 0.011267815 0.033596296 -0.0059872433 -0.025492765
0.034354784 -0.022773685 0.0051246854 0.017037982 0.057957295 0.04021012 0.015994811 -0.010674211
0.033303294 0.029922897 -0.012575274 0.04916518 -0.0065327296 0.014485715 -0.011850766 -0.033897214
0.006981782 -0.03484081 0.011591929 0.048390504 0.04544455 -0.018893607 -0.0028850234 -0.0044980743
0.04318324 0.006424979 0.040949434 0.05401595 0.06802662 -0.032442145 0.016255165 0.029045492
0.03917871 -0.04589878 -0.04658962 -0.015509156 -0.005468354 -0.017847663 -0.011214212 0.010823029
-0.0017932074 -0.03815679 0.022688402 -0.0027966674 0.042566538 -0.03584979 0.021737844 0.032565903
0.03358193 -0.0011607432 0.013149282 0.006983531 0.031630583 0.051256496 0.044053648 0.053922318
0.044520512 -0.0331902 -0.016449863 -0.040874634 0.04154061 -0.03706307 -0.017628884 -0.0029021055
-0.00049668894 -0.009345031 -0.036348414 0.04799874 -0.052536596 -0.013443721 0.014051615 0.015738316
0.0020997676 0.014474809 0.039348472 0.034021713 -0.046754792 -0.043636665 0.042408846 0.02702258
-0.039115362 -0.005666849 0.01363937 -0.0047537345 -0.03702589 0.014692766 0.048177402 -0.04399369
-0.025052011 -0.0140012745 0.035618447 -0.037240185 -0.028732792 0.030376473 -0.03685212 -0.046874028
0.04844084 -0.026094578 0.005443156 0.033059992 -0.029765228 0.06207789 0.03344341 -0.019689493
0.0066114594 0.02100488 -0.0010181919 -0.012958643 -0.02679055 -0.032389436 0.024950605 -0.019480016
0.038769897 -0.010199711 -0.038092636 0.010077795 -0.048035737 0.017510183 0.0009662497 0.03149615
-0.0061463797 0.005686942 -0.034924064 -0.0059719933 0.037440732 0.01949516 0.041286226 -0.011274788

fc1.bias f4 [128]
00000000: e5b3 1f3d 16b4 eb3e c122 d53e ed41 f03e
00000010: 8190 073f 1bae db3e 90ce b53e e70a 893e
00000020: d2c0 dc3e 34b8 1c3e 1f1a b23e a143 d63e
00000030: 3760 e23e dd13 7d3e 8172 d63e f42e ed3e
00000040: f1ca ab3e 4aa4 ec3e 2bb7 c23e 2422 d23e
00000050: faad e13e 2a39 043f 3242 a33e 91cf b23e
00000060: eb7e ed3e 0840 2b3d df6b c43e 3e9c 9a3e
00000070: d64d b73e 5394 823e 750b 0c3f 7b4f de3e
00000080: 8234 8a3e 6946 fa3e c55c d13e d987 d63e
00000090: 54f5 f33e 4e5c 003f 0974 f03e a24b da3e
000000a0: 9614 d03e 4763 f63e 65f7 903e 8383 c83e
000000b0: 3711 c13e ec27 f03e bee2 d33e 5255 da3e
000000c0: 05e4 0f3f 4bc9 e13e f304 db3e 18fd ec3e
000000d0: 9554 e43e 7891 093f 919f db3e 1fdb eb3e
000000e0: 2eaa c83e ae8b f73e e515 e43e 79e7 dc3e
000000f0: 323e ca3e 6b59 df3e 396f cf3e 1bbe f73e
00000100: 6292 063f e5fe db3e 646a 8d3e 3871 823e
00000110: d93e 393e 88db ad3e afa7 f73e 7c42 483e
00000120: b343 dd3e 1174 c53e af2e d03e aab6 be3e
00000130: 3f05 fe3e b97d d83e 150f 003f 81ed e83e
00000140: 0d7b cd3e 16d9 ee3e 07a1 d03e 04b1 c33e
00000150: 83ab ec3e 3020 963e 7f0e e43e 17a5 a43e
00000160: 0e88 cc3e 2a43 c73e 2919 b63e 8b54 c63e
00000170: 3784 023f 6548 d83e 1981 5f3e 6e5e 003f
00000180: 908c e23e aed2 c63e 4cb7 ed3e 7aef cf3e
00000190: 02e8 a33e 8b2b 9e3e cf0e 853e 188f b13e
000001a0: e8c5 e33e f1c8 c83e 956d d83e 34fa d6bc
000001b0: 85f4 fa3e 004a e53e 95a7 083f c1ae 013f
000001c0: 6693 683e ec33 8b3e 6103 dc3e de01 0b3f
000001d0: 410c 0d3f 9aef 073f 8775 0b3f f9e2 b83e
000001e0: f4b0 d43e 730a c43e 8e64 a43e 8136 4e3e
000001f0: 772f e53e ce86 143f c562 d63e e552 003f
0.03898992 0.46035832 0.41628078 0.46925297 0.5295487 0.4290627 0.35509157 0.2676613
0.4311586 0.15304643 0.34785554 0.41848472 0.4421403 0.24714608 0.41884235 0.46324885
0.3355327 0.46219093 0.3803037 0.41041672 0.44078046 0.51649725 0.3188644 0.34923986
0.46385893 0.04180911 0.3836355 0.30197328 0.35801572 0.25503787 0.5470498 0.43420014
0.26993185 0.48881844 0.4089109 0.4190052 0.47648108 0.50140846 0.46963528 0.42635828
0.40640706 0.48122618 0.28313747 0.39162835 0.37708446 0.46905458 0.41383928 0.4264322
0.56207305 0.44098887 0.42777213 0.46286845 0.4459578 0.5373759 0.42895177 0.46065614
0.39192337 0.48348755 0.44547954 0.4314535 0.39500576 0.43622908 0.40514544 0.48387226
0.5256711 0.42967907 0.27620232 0.25477004 0.1809038 0.33956552 0.4837012 0.19556612
0.43215713 0.38565114 0.40660617 0.37248737 0.49613377 0.4228342 0.50023013 0.454937
0.40132943 0.46649998 0.40747854 0.3822099 0.46224603 0.29321432 0.4454231 0.32157204
0.3994755 0.3891843 0.3556607 0.38736376 0.50982994 0.42242733 0.2182659 0.5014409
0.44247866 0.3883261 0.46428907 0.40612394 0.32012945 0.30892596 0.2598786 0.34679484
0.44486928 0.39215806 0.42271104 -0.026242353 0.4901468 0.4478302 0.5338071 0.5065728
0.22712478 0.2718805 0.42971328 0.54299724 0.5509682 0.5309998 0.5447621 0.36110666
0.41541255 0.38289222 0.32107967 0.20137979 0.44762775 0.58018196 0.4187223 0.50126487

fc2.weight f4 [128, 128]
00000000: fe0c 89bc 6d5a fd3d 8200 083e fe5c 273e
00000010: aa30 5c3e 0d71 6e3e 14c5 253e 2e45 fd3d
00000020: f31b 7a3e 78a2 093e b76e be3d 8727 e33d
00000030: 27e7 653e e183 c13d e337 543e 03fd 3a3e
00000040: ed88 363e 6742 e23d 112a 753e 1077 0b3e
00000050: 5ded 353e 2723 2d3e b6d2 c93d 60f2 ee3d
00000060: f61a 5b3e fe6a 05bc 3520 da3d 3e2c 1c3e
00000070: 5e8c 3f3e 1f0a 7f3d 3747 c23d e754 b83d
00000080: 17a8 bc3d dea4 3b3e 5783 f53d 9bfa 153e
00000090: b6a4 303e 97f3 c53d 44cf 203e 5a73 d03d
000000a0: bbcc 213e dc8f 243e ee94 cd3d 4968 2b3e
000000b0: 34fe f63d 5156 f93d 5d21 ed3d d771 743e
000000c0: a940 d73d 130b c13d feb3 103e 463f 843e
000000d0: 0353 a93d 0a70 eb3d ca0f 3d3e 20e5 813e
000000e0: d1e8 393e b7b6 3c3e 31c7 5f3e 7694 093e
000000f0: ece6 5f3e 2922 403e 94e6 483e 87b5 7f3e
00000100: 5114 3c3e db40 443e a9db e43d fe7a 1b3e
00000110: e1fd 0a3e 9380 543e e098 7b3e ff48 923d
00000120: 52b9 7c3e d454 0e3e 4543 e03d beb5 ef3d
00000130: aa92 5f3e 8d3b 6d3e 536c 483e a5d5 de3d
00000140: ba7f 723e 1957 f43d f0b4 633e d155 673e
00000150: ce39 573e 5525 b83d e299 743e 76aa c53d
00000160: e451 cc3d 7d21 d93d 9802 a43d 861d 523e
00000170: 4277 3c3e cef1 f63d 5b5b 143e e093 6e3e
00000180: f4c3 853e 2b13 533e 59b2 743e 4ef6 f63d
00000190: b113 3c3e 8407 553d 9ba3 293e c110 ce3d
000001a0: b8ce 453e 5bcd 973d 871b d73d f78a 0c3d
000001b0: 3e48 433e 27a3 743e b6d3 f53d f8f1 633e
000001c0: bd48 3a3d 2270 753d 3c01 4d3e b931 533e
000001d0: f80d 533e c395 503e c5b6 213e 0840 113e
000001e0: cd73 7b3e 2d11 063e 6df5 023e 17ef fd3d
000001f0: f494 1f3e d3ec 363e 485d 6a3e edda 5b3e
00000200: 27fb 44bd 750a 263e 07e0 d83c 499a 103d
00000210: 591f 833d 7f40 c03c aec5 ab3c 9637 ea3d
00000220: 5de7 a03d bb33 2f3d 94ea 833d 4d0b 8e3d
00000230: 1dfc 703b 9a84 813d 683c 603c 729d 993d
00000240: 37b3 1d3d 54ec a93d b1a9 9d3d 61aa 163e
00000250: 3e81 043e 1242 7b3d 526b 183e 705b 9a3d
00000260: e490 d93d 7489 dc3c 5c77 013e ff60 d43d
00000270: fb38 7d3d 12e1 3f3c 8c80 d23d cee2 823c
00000280: 5e85 fd3c c3fb 263e 68e5 bc3d b115 293e
00000290: 0db6 32bb e684 a2bc 477d 153e 0ab6 ef3d
000002a0: 39df a43d c926 263e 191e fd3d 0689 973d
000002b0: 4b3d 863d aed7 be3d 4a60 933d 0672 cdbb
000002c0: 2a7d 5c3b 0a02 843d 3709 023e 8d08 f73d
000002d0: eb0d 903d 8024 8c3d 9967 c03d bfa6 213d
000002e0: c5bf d63d e1ba 303e 9a60 b83d c6ae 1c3d
000002f0: ced4 e43c 8658 8e3d b9a8 203e 2609 3f3c
00000300: c901 a13d 3194 9d3d 44c6 233e 69cb b33d
00000310: 1521 c7bc 0ac3 aa3d eaef 403d 8a41 1d3d
00000320: 3fe2 1d3e 84f5 fc3d 894f 173e dfa3 913d
00000330: de12 ff3d cb85 793d 1fd8 073e 393f 5f3c
00000340: 7f43 633d 2bd6 b33d f47e 103e 0e5f bf3d
00000350: 9f03 133d dfd6 883d 278e 0c3e 7e4a f23d
00000360: 1bf1 2a3e 3bb5 c93d f824 193e ce84 0f3e
00000370: 4823 563b 1062 0f3e 88c5 fdbb 45bb b33c
00000380: 7298 8e3d e582 a03c 5f05 f93d 8c31 083c
00000390: e4f8 4b3d 013c d23d 9548 c23c fddb 353d
000003a0: dd24 273e 357e c23d 5d3c fc3d 9aa0 633d
000003b0: ae72 c13d 10bc d43d e1fa f03d 5361 813d
000003c0: 773f d43b 0db3 423d c674 ce3d 1c40 0b3e
000003d0: 5f77 083e e79c 203e 08a3 863d 0d37 313d
000003e0: 744c 333d 6bd5 093e 44e3 d03d 6a16 f9bb
000003f0: bc46 b23d 198f e93d 7aef 733d 99fa de3c
-0.016729828 0.12370763 0.13281444 0.16344067 0.21502939 0.23285313 0.1618846 0.123667106
0.24424724 0.13440883 0.09298461 0.110915236 0.22451459 0.09448982 0.20724444 0.18260579
0.1782567 0.110478215 0.23941828 0.13619637 0.17766328 0.16907941 0.09854643 0.11667323
0.21397004 -0.008143185 0.10650674 0.15251252 0.1870589 0.06226551 0.094862394 0.09000569
0.09211748 0.1832461 0.11987942 0.1464638 0.17250332 0.09665602 0.15704066 0.101782516
0.15800755 0.16070503 0.10038172 0.16739 0.12060204 0.12174667 0.11578629 0.23871551
0.1051038 0.0942594 0.14131162 0.25829524 0.08267786 0.11495979 0.18463054 0.2537012
0.18155219 0.18429075 0.21853329 0.1343554 0.21865433 0.18763031 0.19619209 0.24971591
0.18367125 0.19165365 0.11174709 0.15183637 0.1357341 0.20752172 0.24570036 0.07142829
0.24680069 0.13899547 0.10950331 0.117045864 0.21833292 0.23167248 0.19572572 0.10880593
0.23681536 0.11930675 0.22236991 0.2259133 0.21018144 0.089914955 0.23886827 0.096516535
0.09976557 0.106020905 0.08008307 0.20519075 0.18404868 0.12057839 0.14487974 0.23298597
0.26126063 0.20612781 0.23896159 0.12058698 0.18366887 0.05200912 0.16566317 0.10061789
0.19317138 0.07412215 0.10503297 0.034312215 0.19070527 0.23890363 0.12003271 0.22260273
0.045479525 0.05992139 0.20020002 0.20624436 0.20610797 0.2036963 0.15792377 0.14184582
0.24555893 0.1309249 0.12788935 0.123991184 0.15584165 0.17863779 0.22887146 0.21470232
-0.04809108 0.16214927 0.026474012 0.035303388 0.064024635 0.023468254 0.020968284 0.114363834
0.07856629 0.042773943 0.064412266 0.06935749 0.0036771365 0.0632412 0.013686277 0.075007334
0.03850099 0.08297029 0.07698382 0.14713432 0.12939927 0.061342306 0.1488469 0.075369716
0.10623339 0.026921012 0.12643188 0.10370063 0.06182192 0.011711376 0.102784246 0.01597729
0.030947383 0.16306977 0.09223443 0.16512181 -0.0027269155 -0.019838762 0.14598571 0.11704643
0.08050389 0.16225733 0.12359256 0.07399182 0.065546595 0.093184814 0.071961 -0.006269696
0.003364394 0.064457014 0.12698828 0.12062178 0.07033905 0.06842899 0.0939476 0.039465662
0.10485796 0.17258789 0.090028 0.038252614 0.027933504 0.06950478 0.15689363 0.011659896
0.078616686 0.07694281 0.15993601 0.08779032 -0.024307767 0.08337982 0.0471038 0.03839258
0.15418337 0.12351516 0.14776434 0.07111334 0.124547705 0.06091861 0.13266037 0.013625913
0.05548429 0.08781084 0.14110929 0.09344302 0.035892125 0.066816084 0.13726102 0.118306145
0.16693537 0.0984902 0.14955509 0.14015505 0.0032674838 0.14002252 -0.007744495 0.021939883
0.069626704 0.019593665 0.121592276 0.008312594 0.049797907 0.10265351 0.02371625 0.04439925
0.16322656 0.09496728 0.12316201 0.055573083 0.094457015 0.103874326 0.11766601 0.06317391
0.006477292 0.047534037 0.100808665 0.13598675 0.13326786 0.15684853 0.065740645 0.04326539
0.043774083 0.13460319 0.101995975 -0.007601549 0.08704898 0.11404247 0.059554555 0.027219104

fc2.bias f4 [128]
00000000: f351 283e 480b 0d3c 738e 5d3e 9dc8 b43d
00000010: cc41 5ebd 93ce 8dbc 32df 0cbd 26c5 d43b
00000020: 502f 593e e981 19bd 586c db3d 975e 0a3e
00000030: c296 b93c 6bc4 5abd 899a 273e 2c55 853d
00000040: d353 063e bcbe 743e b98f 5a3e bf81 c03d
00000050: 928e 14bd 7af1 5abd 5348 213e bb54 2a3e
00000060: 76bf f53d c692 79bd 1021 d73b 2ede c13d
00000070: fedc 223e 623e 9abb 5ae5 42bd dc12 083e
00000080: c6d1 4c3e 0b45 a8bc bb35 95bd 356e 9f3a
00000090: 9bc4 3d3e e039 583e 2a63 85bd fdb6 0f3d
000000a0: 3cac fabc 6d7f 373e 7444 53bd 3e0d 443e
000000b0: 257b 553e 5de6 85bd b1cf d9bc 743d f7bc
000000c0: f36d b43d f070 43bd bc46 9bbd da0b fc3d
000000d0: cb1c 383e ff32 2ebd 7816 693e e13d 013e
000000e0: 0e30 5ebd d3a4 2b3e 7c94 173e f26b 893c
000000f0: 5f19 593e 1518 a0bb cdb7 a2bd 81fa b3bd
00000100: 4b6f b4bd 578e 873d 2d87 2dbd e13d 2d3e
00000110: f2a4 573e 4b37 383e ea0e 033e 072c 9bbd
00000120: b8e1 ecbb 15c6 fe3d d35d 593b 4098 943d
00000130: ff48 063e c208 0dbd 3427 babd f9bc cc3b
00000140: e0db a5bc 17ef 8e3d 6e89 7bbd b55b 313e
00000150: 51e2 ca3b 08a1 9a3d c322 723e 6af3 5e3e
00000160: 893b 94bd aa3b 703e 2548 3d3e 7167 a4bc
00000170: d552 593e 544c 403e efa7 663b 46aa e23d
00000180: d656 523e d69a a6bb ab70 833c 12b6 b6bd
00000190: a355 2a3e 5851 00bd 1585 dc3d 5e5d b3bd
000001a0: 584b 443e db1e 163e deff 953d ec58 aa3d
000001b0: c1f3 343e 0a59 acbd 7d12 e43b ab8d 0dbd
000001c0: f446 3a3d a8b3 aabd 898e 4a3d 54e6 ba3b
000001d0: 12c6 083e 88d3 e9bc eb3b d63d 1ffb 483d
000001e0: 637c 0ebd de64 3a3e 0820 f8bb 5154 82bc
000001f0: bf5d 0bbd 164f 9ebd 5c80 97bd 162a fabc
0.16437511 0.008608647 0.21636371 0.088273264 -0.054261968 -0.017310416 -0.034392543 0.0064932285
0.21209455 -0.037477408 0.10714024 0.13512646 0.022654895 -0.053409975 0.16367544 0.06510386
0.13117914 0.23900884 0.21343888 0.09399747 -0.03626878 -0.053452946 0.15750246 0.16633885
0.11999409 -0.06093099 0.0065652207 0.094662055 0.15904614 -0.0047071436 -0.047582008 0.13288444
0.20001897 -0.020540735 -0.07285639 0.0012163582 0.1853203 0.21115828 -0.06513055 0.03508662
-0.030599706 0.17919703 -0.051578954 0.19145676 0.20847757 -0.06538079 -0.026588293 -0.03018067
0.08810034 -0.047715127 -0.07581851 0.12306948 0.17979734 -0.042529102 0.22762477 0.12621261
-0.054245047 0.16762094 0.14802736 0.016775105 0.21201085 -0.0048856833 -0.079452135 -0.08788014
-0.0881029 0.06618946 -0.04236524 0.16918136 0.21059015 0.17989843 0.12798658 -0.07576757
-0.007229056 0.12440125 0.0033167496 0.07255602 0.13113783 -0.03443218 -0.09089509 0.0062481132
-0.020246446 0.069791965 -0.06141036 0.1732014 0.00619153 0.075502455 0.23646073 0.21772543
-0.07237918 0.2346026 0.18484552 -0.020068856 0.21223004 0.18779117 0.003519531 0.11067633
0.20540938 -0.005084376 0.016044935 -0.08921446 0.1663423 -0.031327575 0.10767571 -0.08758043
0.19169366 0.14660208 0.073241934 0.08317742 0.1767111 -0.0841542 0.006960212 -0.034558933
0.045477822 -0.08335048 0.04945234 0.005703727 0.13356808 -0.028543249 0.10460647 0.049067613
-0.034786593 0.1820254 -0.007572178 -0.015909346 -0.03402495 -0.07729928 -0.073975295 -0.030537646

fc3.weight f4 [400, 128]
00000000: 842c 77bd 1bb8 abbd 3ae4 a2bd 9a16 143d
00000010: 340a a6bc 2586 5ebd 828a b0bd 8972 883d
00000020: c731 a73c 2ef7 1f3d 4273 573d 6726 d2bd
00000030: 130b a0bd 70ee 18bd 1517 84bd 021a f73c
00000040: 74e6 483d 689f a8bd 4a73 4ebd 5620 91bd
00000050: 22de 41bd c042 99bc 7f75 a03c ba9c f0bc
00000060: 2582 cbbc d8d9 28bc 8eea a2bd b706 8fbd
00000070: c043 e93c 557c ad3c 57ee 35bd cbc8 cb3c
00000080: 8e79 8fbd c1f5 983d b037 1d3c 442d 4cbc
00000090: 5c55 5fbc 782d 623d 0507 88bd 0756 29bc
000000a0: b40e 8ebd e582 a4bd 6d46 b2bd 86e9 5d3d
000000b0: b075 61bc fce5 fdbc ece8 093d 505c 95bd
000000c0: 9d6b 063d e58f 0dbd b02f 41bd 30b7 4dbd
000000d0: cde5 293d 2042 cb3c 3a85 9ebd e7c2 49bc
000000e0: 004f a439 ba29 73bd 9f39 8e3c 9137 8dbd
000000f0: 1dbd 3dbd 2f58 49bd c232 33bd 7819 9dbc
00000100: 413b 893d 5cc9 c6bd 405e 75bd c0e0 97bd
00000110: 1038 073d 622c d1bc bfec 283d 8a63 5c3c
00000120: 1e97 8e3d ef32 00bc c068 cfbb 4077 473c
00000130: 326e bcbc a073 a7bd 9f13 70bd e35e 9b3d
00000140: be96 9ebc cac2 87bd 789a 91bd 0ea8 21bd
00000150: 7903 a0bb 5d4f 93bd 09fd 96bd aa88 c3bd
00000160: f485 043d 8d2f a9bd 57f5 8cbc 6cbd cebc
00000170: caad 91bc fdc5 25bd 2f39 8b3d 1d0a a2bd
00000180: 975c 3d3c 2e67 7f3d f7aa 9bbd 5384 9b3d
00000190: c843 c7bd 98e9 e23c 950f 6abd b61e 223c
000001a0: 84e9 c4bd a139 99bd ee07 a0bd 93aa 32bd
000001b0: 3b39 29bd 388b 18bc 3609 f8bc 95c1 893d
000001c0: e411 8dbd 8829 3dbd a3df 313b 881d 2d3c
000001d0: cd35 d7bc 0e04 7e3d eddb b8bd b6dd 88b9
000001e0: 11c0 6d3d 26f5 143d 6043 94bc 184c febc
000001f0: 40cf ac3c 65b0 b43d 5103 39bd 26f1 9abd
00000200: 78b5 e2bd 043d c8bd e2bb 4b3d c738 91bc
00000210: c6dc a83c e033 17bb cc83 8cbd b865 85bd
00000220: 6435 abbd a499 263d aa94 f2bb 0f4e f23c
00000230: 32e1 bf3c 75cd 35bd 45a1 453d 9e6c 2dbd
00000240: 3688 37bd e30e 70b9 f16f 193d e8e9 aabd
00000250: 6263 7a3d c013 553c daf7 8cbc 15a6 243d
00000260: 4a5e ee3c 76b1 22bd 4076 26bb f417 f43b
00000270: d502 b43c 0763 8cbd 7db5 5cbd 9f4c 193d
00000280: 2e73 6bbd 6e10 b4bd 8ec4 b2bd 3795 0e3c
00000290: 9ed3 003d ab52 57bc b68d 603d 1722 573d
000002a0: 4e94 4f3d 59f9 35bd 7632 5b3c b3c0 3bbd
000002b0: e6c0 45bc 4514 b13d 2bac abbd 86ba 943d
000002c0: d84f 64bc 6826 50bc a6dd 00bd ffd1 98bd
000002d0: b2c7 9fbd 033c a33d 6c39 82bd 4e0b 86bc
000002e0: ad67 aa3d 0faa f8bd b647 fbbd aafb 2abd
000002f0: 7bcf e2bd 0797 a23d 92e1 343d 7e7e 583d
00000300: 6c8a 00bd 8297 c43c 1930 803d 3715 993c
00000310: c605 a73a 1e27 103d ee3f aabd 55c7 8abd
00000320: 4ae4 44bc e6f9 c83c 290d 3bbc e9f9 f2bd
00000330: 1a44 2fbd 8005 ed3c 341b 9c3c 1188 a0bd
00000340: 19b9 e23c a3e3 a2bd f849 8c3c b52c eebd
00000350: 303b 1e3d c85a b73c 9e81 f9bc c388 d43c
00000360: 783f 913c c630 7ebd 4893 75bd e9bb 26bd
00000370: 4e77 b6bd 18b2 42bd 6083 13bc 39fa b03c
00000380: 87df 413d 26c3 643d 6b8e 9b3d 61d8 ac3d
00000390: 9fbe d3bd ee4f 8bbd a5c2 88bd 8c53 28bd
000003a0: bacb bdbd 9d6f c9bd e473 09bd 2517 2d3d
000003b0: bea5 ddbd 4069 b93c e5bf e2bd 60ef 30bd
000003c0: 2574 b4bb 2e4e 643d 36b0 24bd dbb8 93bd
000003d0: a639 aabd 0945 89bd 9d15 97bd 1da4 f2bc
000003e0: 075b 903d f2c7 0b3d 4bb9 8d3d f5d1 90bd
000003f0: 48ba 52bc 8357 acbd 2e94 f1bc fd93 88bd
-0.060345188 -0.08384725 -0.07953687 0.036154367 -0.020268537 -0.05432715 -0.08620168 0.06662471
0.020409478 0.03905409 0.052600153 -0.10261231 -0.07814612 -0.037336767 -0.06449715 0.030163769
0.049047902 -0.08233529 -0.050402917 -0.07086246 -0.047330983 -0.018708587 0.019587277 -0.029371608
-0.024842331 -0.010305844 -0.07954894 -0.06983703 0.028474689 0.02117745 -0.04441675 0.024876019
-0.070056066 0.07468749 0.0095957965 -0.012461964 -0.013631191 0.055219144 -0.06641964 -0.010335452
-0.06936398 -0.08032779 -0.08704839 0.054177783 -0.013760969 -0.030993454 0.033669397 -0.07292998
0.03281747 -0.034561057 -0.04716462 -0.05022353 0.04147892 0.024811804 -0.07740255 -0.012314535
0.00031339377 -0.059365965 0.01736146 -0.06895364 -0.04632293 -0.049156364 -0.04374958 -0.019177184
0.06700755 -0.09706375 -0.059904337 -0.074159145 0.03301245 -0.025533859 0.041241404 0.013451466
0.06962417 -0.0078246435 -0.006329626 0.0121744275 -0.023001764 -0.081763506 -0.058612462 0.075864576
-0.019358989 -0.0662895 -0.07109541 -0.03946691 -0.0048832265 -0.07192872 -0.073724814 -0.09547551
0.03235431 -0.08261023 -0.01720683 -0.025236808 -0.017783064 -0.04047202 0.06798016 -0.07912085
0.01155772 0.06235426 -0.07600968 0.07593598 -0.09729725 0.027699277 -0.057143766 0.009895017
-0.09614852 -0.07481695 -0.078140125 -0.043619704 -0.041314345 -0.009310536 -0.03027783 0.06726376
-0.06888178 -0.046182185 0.0027141355 0.010566123 -0.026270771 0.062015586 -0.090263225 -0.0002610513
0.058044497 0.036366604 -0.018098533 -0.031042144 0.021094918 0.08822707 -0.04516918 -0.07565527
-0.11069769 -0.09777263 0.049739726 -0.017727269 0.020613085 -0.0023071691 -0.06861076 -0.06513542
-0.08359793 0.040673867 -0.007402976 0.029578237 0.023422811 -0.044385392 0.0482495 -0.042339914
-0.044807635 -0.0002289373 0.03746027 -0.08345395 0.061129935 0.013005197 -0.017208029 0.04019745
0.029097695 -0.03972002 -0.0025400072 0.0074491445 0.021974007 -0.068548255 -0.05388402 0.037426587
-0.05748289 -0.08792196 -0.08728896 0.008702568 0.031451814 -0.013142268 0.054822646 0.052522745
0.050678544 -0.04442725 0.01337873 -0.04583807 -0.012069916 0.08646444 -0.08382448 0.07262139
-0.013935052 -0.012704469 -0.03146138 -0.074619286 -0.07801761 0.07970431 -0.063586086 -0.016362812
0.08320556 -0.12141811 -0.12269537 -0.04174391 -0.1107473 0.079389624 0.044160433 0.052855007
-0.03138201 0.023998026 0.06259174 0.018686874 0.001274281 0.035193555 -0.08312975 -0.06776301
-0.012017319 0.024533223 -0.011416712 -0.11864073 -0.042789556 0.028933287 0.01905594 -0.078384526
0.027676152 -0.079535745 0.017125115 -0.11629621 0.038630664 0.022382155 -0.030457314 0.02594412
0.01773046 -0.062058233 -0.05995491 -0.04070655 -0.08909474 -0.047533125 -0.00900349 0.02160369
0.047332313 0.05585017 0.075955234 0.084397085 -0.103390925 -0.06802355 -0.066777505 -0.0410953
-0.092673734 -0.09835742 -0.033557788 0.0422584 -0.108226284 0.022633195 -0.11071757 -0.043197036
-0.0055070096 0.05573862 -0.04020711 -0.07212993 -0.08311777 -0.067026205 -0.07377169 -0.029619271
0.07048612 0.03412623 0.069201075 -0.07071296 -0.012861796 -0.08415129 -0.029489603 -0.066688515

fc3.bias f4 [400]
00000000: 8b9e c1bd ec8d 6cbd ee6d 38bd 439d 773d
00000010: 9c9f bcbd 4e2a 32bc 2ac4 0e3d 3638 2bbd
00000020: f469 37bd 94be e4bd a9cc 5fbd 37ac bfbd
00000030: 472f acbd 69bf cfbb 066a 2e3d 1216 91bd
00000040: 606c 603d 4fd2 83bd 4e94 5f3d 4291 d5bd
00000050: c5e8 dabc 8a43 69bd 8146 a5bb 2ceb 173d
00000060: 3bb2 853c 1707 5e3d 633d 20bd 8f9c 223d
00000070: a52c 013d 83f7 96bc 1820 aebc 9c7d 403c
00000080: 87c4 23bd 0b52 1ebc fb47 41bd dbe0 d1bd
00000090: 15d2 c6bb 3a1e 5d3d b3e1 ddbc 8695 7a3c
000000a0: d2bd 063b ff73 b8bd b217 5bbd eeb2 fdbb
000000b0: 3125 e8bd c98f 9f3b 850d 12bd 4b5b 863c
000000c0: 92aa 81bd 75ed 8ebd 8a88 f23b 4d20 e3b9
000000d0: a392 59bc 5bf4 223d ea54 71ba ea54 053b
000000e0: 1dbe 48bd c3f8 0dbd 962c 0ebd bbc0 39bd
000000f0: 540f 953c a9b2 a63a e984 edbc 3c7b 473d
00000100: 2bd0 aebd 3d0a 03bd 619a 21bd ad94 ba3c
00000110: c6b8 acbd d3ba 90bd ff3a cd3b 0c9a 13bd
00000120: 37a5 dfbd 6148 dabd 26df 64bd aaab 003b
00000130: d01e 8dbd 2b41 a9bd 30c3 71bc 2eb7 39bd
00000140: 2107 e0bd 8468 a4bd 5610 22bc 3a56 4fbd
00000150: c571 b23a d873 1f3c ad08 86bd 6d6f 9cbd
00000160: 7c55 753c f598 0bbc e61e 88bd ae5a 89bd
00000170: 74a7 89bd 3e33 193b 8c72 8cbc 4468 253d
00000180: 5096 5ebd f457 ef3c b01c c1bd 46d8 9f3c
00000190: f472 e9bc 2e76 bbbd 0df3 273d 107d 8bbd
000001a0: 6304 47bd 0d59 89bc 664a 273d b97e afbd
000001b0: df4f babd 6406 8bbd 63fb 463d 8091 6dbd
000001c0: 17d7 a4bd 580d 823d 0fe3 54bd f24d debd
000001d0: 579e 813c be50 0f3d fb0d 32bd 6bfc d43b
000001e0: 4a62 833b c4f6 c9bc 0302 813c d09e 473d
000001f0: 590e 373d 0bda 55bc fe6e 0ebb 46c2 133d
00000200: 2fbf cebd 2d14 fd3c b97e 83bc 7956 ed3c
00000210: 01b7 7dbd d655 bfbd ad41 0d3d f1d3 2e3d
00000220: abac d53c aab1 e1bb 00a0 a7bc 3fbb 7ebc
00000230: 9990 7d3c 8078 973c f949 593c 6beb 5a3d
00000240: a015 26bd 860e 4c3d 88b9 463d bfbb 2f3d
00000250: b1e7 8ebd e085 a4bd 1847 e7bd 03c1 b4bd
00000260: 16f0 b6bd 40e7 acbd f372 20bd c3ca cc3c
00000270: 6e76 5ebd a401 61bd fc2f 96bb 119f 013d
00000280: 6521 b93c 27cb 6aba 3f0f 233d 2f5a 0e3d
00000290: 9bfd 713d 43ec 9dbc 9cc5 5d3c 97a0 42bd
000002a0: c4c4 b4bb c760 61bd 603d 8dbd a2d9 5fbc
000002b0: 280a b6bb 3d9b 253d f677 b13b 4545 093d
000002c0: 5d32 563d 2af6 7dbd bb27 92bb 10bd 1cbd
000002d0: eddc debd 6489 893d eb05 81bd d2f2 2d3d
000002e0: 8d97 fd3c 0714 253d a165 e7bd efdb b13c
000002f0: 53ad e1bd ce4e 1a3d bb1d 32bd 10e1 9cbd
00000300: bb86 c2bd 9dac 12bd d5bd 363b bb34 063d
00000310: 7b58 f03c 68ad dfbb ac51 7c3c d1d9 69bd
00000320: 7ae4 39bd caeb 47ba fb84 31bd dd67 c63c
00000330: 3921 273d 4873 6abd 7e2b 9bbd 5636 833d
00000340: c7b3 58bd 19b5 3fbd 7c21 05bd 525a fcbc
00000350: 80f8 103c 88b3 a9bd 749e 0a3d efbf babd
00000360: 117f 9b3c ceed 71bc 8e26 70bd 40be b93c
00000370: 64b8 aebc d346 91bd 9430 0dbc f9ba e53c
00000380: 7367 923b c64b b5bd e4f1 28bc 05de 9d3c
00000390: 31d0 693d 9855 4ebd ac7c 7fbc 6691 8c3b
000003a0: 6c7f cbbc 1232 ccbd 6cde efbc 2287 da3a
000003b0: 52a9 d63c 6848 5cbd 22aa 8cbd 0f43 18bd
000003c0: 29a2 1f3b 2607 573d ef8d 3f3d 30eb 763c
000003d0: 2204 02ba 4967 b1bd e0bf 09bd 3ec0 77bd
000003e0: df74 41bb 7af9 713d c479 72bc 5659 84bd
000003f0: 51e7 f9bc 5859 d63b a832 e23c eb23 b3bc
-0.09454068 -0.057752535 -0.045026712 0.06045271 -0.092101306 -0.010874344 0.034855045 -0.041801654
-0.04477878 -0.111691624 -0.05463854 -0.09359019 -0.08407455 -0.0063399565 0.04258158 -0.07084288
0.054790854 -0.064365976 0.054584794 -0.10428096 -0.026722321 -0.056949176 -0.005043805 0.03708951
0.016320338 0.05420598 -0.039121043 0.039700087 0.031536717 -0.01842857 -0.021255538 0.011748698
-0.039982345 -0.009663115 -0.047187787 -0.10247966 -0.006067524 0.053983904 -0.02708516 0.015294438
0.002055992 -0.090064995 -0.053489394 -0.0077422773 -0.11335219 0.0048694354 -0.035657424 0.016400954
-0.06331362 -0.06978885 0.0074015306 -0.0004332088 -0.01327959 0.039783817 -0.00092060736 0.0020344802
-0.04900943 -0.034661066 -0.03471049 -0.045349818 0.018195786 0.001271804 -0.02899404 0.04870151
-0.08535799 -0.031992186 -0.039453868 0.022775972 -0.0843368 -0.07066884 0.0062631364 -0.036035582
-0.10920184 -0.106583364 -0.055876873 0.001963357 -0.06890643 -0.08264383 -0.014756009 -0.04534071
-0.1093886 -0.08027747 -0.00989159 -0.05061934 0.0013614228 0.009732209 -0.065446235 -0.0763844
0.014973994 -0.0085203545 -0.066465184 -0.06706749 -0.06721392 0.002337649 -0.017144464 0.04038264
-0.054342568 0.029216744 -0.094293 0.019512307 -0.028497197 -0.091534 0.041003276 -0.06810963
-0.048588168 -0.016766096 0.040842436 -0.08569092 -0.090972655 -0.06788328 0.048579585 -0.058000088
-0.08048838 0.06350201 -0.051974352 -0.10854711 0.015822573 0.03498911 -0.043470364 0.006499817
0.0040095197 -0.0246538 0.01574803 0.04873544 0.044691417 -0.013052474 -0.0021733637 0.036073945
-0.10095059 0.03089341 -0.016051637 0.028971897 -0.061942104 -0.09342544 0.03448646 0.04268259
0.026083311 -0.0068876343 -0.020462036 -0.015547573 0.015476369 0.018490076 0.013262265 0.05344717
-0.040547967 0.049818538 0.04851678 0.042903658 -0.069777854 -0.08033347 -0.11292857 -0.088258766
-0.089325115 -0.08442545 -0.039172124 0.024999028 -0.054312162 -0.054933205 -0.004583357 0.03164584
0.022598932 -0.00089566637 0.03980946 0.034753975 0.059079748 -0.019277697 0.013535883 -0.04751643
-0.0055166204 -0.055023935 -0.06896472 -0.013662728 -0.00555541 0.04043125 0.005415912 0.033513326
0.052294124 -0.06200234 -0.0044603026 -0.03826624 -0.10881982 0.06715658 -0.06299957 0.0424679
0.030956054 0.040302303 -0.11298681 0.021711318 -0.11019387 0.03767281 -0.043485384 -0.07660115
-0.09498354 -0.035809148 0.0027884145 0.03276513 0.029339066 -0.0068260916 0.0154003315 -0.05709249
-0.045383908 -0.0007626383 -0.04333971 0.024219448 0.040803168 -0.057238847 -0.07576655 0.06406848
-0.052905824 -0.046803568 -0.032502636 -0.030804787 0.0088483095 -0.08286196 0.03384252 -0.0911864
0.018981488 -0.01476617 -0.05863052 0.022673726 -0.021328159 -0.07093587 -0.008617539 0.028043257
0.0044678985 -0.08852343 -0.0103115775 0.019270906 0.057083312 -0.050374597 -0.015593689 0.004289794
-0.024841033 -0.09970488 -0.029280864 0.0016672353 0.026203785 -0.05377999 -0.06868388 -0.037173327
0.002435813 0.05249705 0.046766218 0.0150707215 -0.0004959722 -0.08662278 -0.033630252 -0.06048607
-0.0029519123 0.05907581 -0.014799539 -0.06462352 -0.030505808 0.0065414123 0.027612045 -0.021867713
